Chapter2:FGMPINN/TrainedMLPs/DF/BetaPV/W_2.npy (npy, 2368 bytes, 1 tensors)

array f4 [20, 28]
000000 8a 16 42 bb 51 aa 48 bf 1e bb bb bd a5 64 0b 3e
       -0.0029615485 -0.7838488 -0.09166549 0.13612612
000010 d0 4f 87 3c c7 af 31 bf 03 88 df 3e fd 9c 72 3d
       0.01651755 -0.6940884 0.43658456 0.059231747
000020 af a3 15 3f 97 df e5 3e 26 b6 dd bd ba 86 6e bf
       0.58452886 0.44897148 -0.10825758 -0.93174326
000030 5d 74 ba be 5d e5 50 3c 5a 0b b5 3d ce 79 26 3e
       -0.36416903 0.012749997 0.08840056 0.16257402
000040 2f f4 bc 3e 28 d0 7f bb cd d7 01 3e 40 76 d5 be
       0.36905047 -0.0039033983 0.12679978 -0.4169178
000050 b5 11 41 3e 5c 15 53 3e 9a ac ec bd a6 27 04 3f
       0.18854411 0.20613617 -0.11556359 0.51623
000060 e8 40 95 be 22 7b 35 bf 79 68 ba be 5a 00 ab be
       -0.29151082 -0.7089101 -0.3640783 -0.33398706
000070 07 91 81 3e 48 dd d2 3e ce 51 81 3f 62 5a 32 3e
       0.2530596 0.4118445 1.010309 0.17417291
000080 9f 9f 74 3f f5 f9 28 be 62 dd 3c be a8 d8 a5 3e
       0.9555606 -0.16501601 -0.18443826 0.32391858
000090 3a a3 87 3e 4b 76 27 3f 58 21 f1 3c de 56 88 bf
       0.2649172 0.65414876 0.029434845 -1.065151
0000a0 e8 27 17 3f 62 c4 51 3e fe 73 37 bf c0 94 9b be
       0.5904527 0.2048507 -0.71661365 -0.30386925
0000b0 5d d2 99 bd e2 f6 19 3f 25 ea 32 3f 1b 36 6d 3e
       -0.07510827 0.6014234 0.69888526 0.23165171
0000c0 fb 6c 6a 3d de 8b 1f 3f 7c 38 77 be 88 03 ff bc
       0.057232838 0.62322795 -0.24142641 -0.031129614
0000d0 a8 a0 63 bf 24 6e ec 3c 70 f9 59 be 4a f1 47 bf
       -0.88917017 0.028861113 -0.21286559 -0.7810255
0000e0 a9 90 28 3f a6 41 80 3f 42 c7 7c 3f e7 b6 dc 3e
       0.65845734 1.0020034 0.98741543 0.43108293
0000f0 03 85 7d 3f 11 a6 d4 be 86 51 9e bd 51 ff b2 be
       0.99031085 -0.4153295 -0.07730393 -0.34960416
000100 c9 62 a5 3e c3 82 03 3f 5d c2 7d 3e db ed 91 be
       0.3230193 0.513714 0.24781175 -0.28501782
000110 3d 12 1a 3e f5 c7 8d bd 8b f2 37 bf 38 b8 80 be
       0.1504602 -0.069229044 -0.71854466 -0.25140548
000120 55 05 f6 3e 79 ee b9 bd e6 43 d1 ba fd 51 c4 3e
       0.48050943 -0.09078688 -0.001596567 0.38343802
000130 47 2d 8e be af 9d e2 be b9 ab 94 be 84 1e 4e be
       -0.2776892 -0.44260928 -0.29037264 -0.20128828
000140 df d4 02 bf 21 a9 80 bd c7 d8 7c bf dc 76 57 bf
       -0.51106066 -0.06282259 -0.98768276 -0.8416574
000150 21 ac f1 be 48 08 82 bf e6 08 d3 be 1f aa 04 3f
       -0.47201636 -1.0158777 -0.41217726 0.51822084
000160 4b 57 1a bd a1 85 0e 3e be 95 80 be bd ca 38 bb
       -0.037680905 0.13918163 -0.25114244 -0.0028197013
000170 be ec 21 be 52 74 1d 3c f4 41 50 3e c5 3a 03 bf
       -0.15812966 0.009610252 0.20337659 -0.5126155
000180 7a c2 d8 bd 26 bf 8a be 64 b0 39 3b 47 26 f1 be
       -0.105839685 -0.2709896 0.0028333897 -0.47099516
000190 f9 05 de 3d 67 bb 9e be 7b 2a 85 3c 52 24 f0 3e
       0.10840983 -0.31002352 0.016255608 0.4690271
0001a0 0e 4c 18 3f a6 17 d6 3e b3 e7 ae 3e 80 e2 ab bd
       0.5949105 0.41814917 0.34161147 -0.08392811
0001b0 7c 7f ea 3e ed 8b 9d be f3 bd 23 3e 9a 6e 65 be
       0.45800388 -0.30770817 0.15990429 -0.22405472
0001c0 91 31 a6 3e da a9 82 3f 97 6d 25 3f b1 19 60 3e
       0.3245969 1.0208085 0.64620346 0.218848
0001d0 d5 bc 0e 3f f7 a3 da 3e 34 d2 cd bc 28 a4 7a bd
       0.55756885 0.4270322 -0.025124647 -0.061191708
0001e0 6d 48 91 3e 08 02 92 3f 04 dc 6b be 83 f9 97 bf
       0.2837557 1.140687 -0.23033148 -1.187302
0001f0 8a 42 32 bf 4e d5 10 be ae 84 0c bf 37 a7 48 3e
       -0.6963278 -0.1414387 -0.54889953 0.19595037
000200 b3 11 7c 3e b9 f5 af be 70 f2 d8 3e 52 d7 a4 3d
       0.24616127 -0.3436716 0.42372465 0.080488816
000210 83 a2 bb be 89 77 ac be 1d c4 51 3e 29 bf 2e 3f
       -0.36647424 -0.33684948 0.20484968 0.6826044
000220 7e 94 14 bf ce 11 92 3e 10 67 90 bf df e2 23 3d
       -0.5803908 0.2852921 -1.1281452 0.040011283
000230 2d 54 aa 3d fb 75 72 3f 96 79 ef be 98 d0 b9 bd
       0.083168365 0.94711274 -0.4677245 -0.09072989
000240 4f 6f 29 3f b0 c3 6f bd 9c e9 a4 bd a1 ca c7 be
       0.6618547 -0.05853623 -0.0805237 -0.3902178
000250 e3 c8 f7 bd 32 94 4d bd 94 c2 4a be 91 26 52 3e
       -0.12098863 -0.05019016 -0.19800788 0.20522524
000260 f3 d9 f8 be 60 52 35 be 9b 5a 6f be 54 e3 d5 be
       -0.48603782 -0.17707205 -0.23374407 -0.41775
000270 43 fc 39 3e 99 8e f1 3e d5 59 6d 3f 7e 4a 9f be
       0.18162636 0.47179106 0.927152 -0.3111152
000280 16 5c a6 be 19 e3 51 be f9 9b 81 3e 77 76 94 3e
       -0.3249213 -0.20496787 0.2531431 0.28996632
000290 e3 9f bc be 97 d2 a5 bd cb 25 00 bf 43 df eb 3e
       -0.36840734 -0.080968075 -0.5005767 0.46068773
0002a0 ef 15 38 be d3 a4 5b bf 02 58 f7 be 5a 21 0f 3e
       -0.17977117 -0.85798377 -0.48309332 0.13977566
0002b0 45 51 f5 be 4b 18 e0 be 4d 72 fd 3e 8c 45 41 3e
       -0.47913566 -0.43768534 0.49501267 0.18874186
0002c0 b5 69 2d be 8e f1 6b be 08 d8 e6 3e b8 09 92 3e
       -0.16934855 -0.23041365 0.45086694 0.2852304
0002d0 b4 98 8d bc d9 75 cd be fd 44 e2 be 6c 9d f6 3e
       -0.017284729 -0.40128973 -0.4419326 0.48166978
0002e0 dd ca cb 3e 58 1e b2 be 7b cb 06 be 7f 2a da 3d
       0.3980321 -0.34788775 -0.13163559 0.10652637
0002f0 1a d0 55 3e fe ec ec 3e de 27 3f 3e 68 49 7b 3e
       0.20880166 0.4627456 0.18667552 0.24539721
000300 ac 68 09 bf db 55 95 3e 13 2a bf 3e e6 02 9a 3e
       -0.5367534 0.29167065 0.37336788 0.30080336
000310 1e 0f cf be 93 e4 65 3e e0 e9 64 3d ed f3 31 3e
       -0.4044122 0.22450475 0.055887103 0.17378207
000320 29 ec f6 3e d3 ce 74 be 2d 19 51 be a5 11 05 3f
       0.4822705 -0.23907022 -0.2041976 0.5198005
000330 dd f8 11 bf 87 e2 f8 be 98 07 da be a3 19 8e 3d
       -0.5702036 -0.48610327 -0.4258392 0.069384836
000340 7d 31 a8 bd a8 ec 05 3f 9d 54 50 bf 56 2c 0e bf
       -0.08212564 0.52314234 -0.8137911 -0.555364
000350 d6 d9 9d 3e 6e fc da 3e 8b c6 50 3e 87 9a 4a 3f
       0.30830258 0.42770714 0.20388238 0.7914204
000360 e9 ae 92 bf b0 89 74 3c a5 2e 09 bf 16 31 2f bf
       -1.1459628 0.014925405 -0.535868 -0.68434274
000370 25 23 2e 3d fc e6 87 bf 57 3d 8e 3e 07 2c 9b 3d
       0.042513985 -1.0617366 0.27781174 0.07576757
000380 44 5f fb 3e b7 bb d2 3d a6 3a 22 bd 51 28 ad be
       0.4909612 0.1028971 -0.039606713 -0.3381982
000390 a2 76 97 3e 57 53 06 bf 6e c2 f6 3c e7 ee 1b 3d
       0.29582697 -0.52470917 0.030122008 0.038069632
0003a0 72 18 a1 be b5 8f 31 3d 62 b1 a1 bf 24 74 c5 be
       -0.31463963 0.04334994 -1.2632258 -0.3856517
0003b0 ff 1d 85 bf 58 f1 18 bf 43 f9 5f 3e aa 42 f7 bc
       -1.0399779 -0.5974326 0.2187243 -0.030183155
0003c0 3d 7f ea be 9d 9e 3c 3f 08 34 e1 3e 02 bc e8 3d
       -0.458002 0.73679525 0.4398501 0.11363985
0003d0 e5 7d cc 3d d0 2c a7 be bf fc a5 3e ed 82 20 3f
       0.0998495 -0.32651377 0.32419392 0.62699777
0003e0 1d b8 18 3f 29 9d b4 3e 18 5c aa 3e df f6 1c 3e
       0.59655935 0.35276154 0.33273387 0.15328549
0003f0 af cb 6e 3e dc 47 e3 3d 88 86 9c 3e e7 cd 0b 3e
       0.23319887 0.110976905 0.3057139 0.13652764
