Chapter2:FGMPINN/TrainedMLPs/DF/BetaPV/W_6.npy (npy, 2048 bytes, 1 tensors)

array f4 [24, 20]
000000 ec b8 29 3f 7d 2f 1f be c9 fb 01 be 27 81 2d 3f
       0.66297793 -0.15545459 -0.12693705 0.67775196
000010 dc 7d 59 be 19 c6 51 bc 8d 92 3e 3f 6b 7e 02 3e
       -0.21239418 -0.012803578 0.7444237 0.12743537
000020 97 e0 86 3f 20 15 0d 3f 79 57 96 be 06 45 d5 be
       1.0537289 0.5511036 -0.2936361 -0.41654223
000030 6c 25 23 bd 24 8f f1 3d 67 9a 18 3f 4a 57 63 3f
       -0.03983061 0.1179488 0.596106 0.8880507
000040 8f 17 eb 3e cd 04 7a 3f 94 8f a5 3e 57 01 be be
       0.4591641 0.97663575 0.32336104 -0.37110397
000050 b0 ab 94 be 6e f6 9c 3e d6 86 f4 bf 0f be b3 3e
       -0.29037237 0.3065676 -1.9103649 0.3510594
000060 4d 17 da bf 9f ab 61 bf df 48 d3 bd ff 6a f2 3d
       -1.7038361 -0.881525 -0.103166334 0.11836814
000070 15 47 01 3e cd 17 8d 3c 72 e5 c1 3d 09 75 a1 3d
       0.12624772 0.017223263 0.09467591 0.07883651
000080 c4 02 0b bf cc 2d 62 3e c6 7f 3a be ef a0 87 bc
       -0.54301095 0.22087783 -0.18212804 -0.016556231
000090 bd 26 9d be fb e7 4c 3e d4 e6 a8 3e f9 e2 6d 3d
       -0.30693617 0.20010369 0.32988608 0.058077786
0000a0 c7 f9 40 3f ee 43 3f 3e 8d b4 93 be 2f db a0 be
       0.7538113 0.18678257 -0.28848687 -0.31417224
0000b0 9b 53 a0 be e5 71 25 3c 54 45 fe 3e e1 c8 ba bd
       -0.31313786 0.010097955 0.49662268 -0.09120346
0000c0 4e 5c ba 3c 73 a5 8c 3e 5a 6a 67 bb 6b a1 51 be
       0.022749092 0.27469978 -0.0035311193 -0.20471732
0000d0 9a a2 b1 bd 80 9a bb 3e 63 ad d5 3e d2 de c9 be
       -0.08673592 0.36641312 0.41733846 -0.3942781
0000e0 73 00 87 3e fd 9a 18 3e 68 df 25 3e 4f 12 02 3f
       0.2636753 0.14902873 0.16198504 0.50809187
0000f0 39 34 45 3f bc fd 29 be 53 f1 73 be 18 0b 69 bd
       0.7703281 -0.16600698 -0.23822527 -0.056895345
000100 92 9d 8d be 4f 91 be 3e 9d 56 23 3f 4f 7e 0f 3f
       -0.2765928 0.37220237 0.63804036 0.56052107
000110 62 b6 7d be c9 20 ca 3e ad 38 f0 be 9d 4a bd be
       -0.24776605 0.39478138 -0.4691824 -0.36970988
000120 ce 54 c9 3e c6 9f 0e be 93 a4 b7 3e 06 d6 15 3f
       0.39322513 -0.13928136 0.35867748 0.585297
000130 4d 4c 3d 3e ca 7e b7 be b0 60 47 3a ec d8 8e bd
       0.18486138 -0.3583892 0.0007605655 -0.06974968
000140 33 ed ba 3d 11 70 bc be af 91 2f be 8f 91 b4 3d
       0.091272734 -0.3680425 -0.17145418 0.088168256
000150 6b 43 2f be 94 50 13 3d 07 83 67 be b7 2b 00 3f
       -0.17115562 0.035965517 -0.22608577 0.50066704
000160 26 b3 b4 3a c5 2a fa 3d 61 a5 87 be ca 37 78 bd
       0.00137863 0.12215189 -0.26493362 -0.06060008
000170 83 d9 a6 3b a1 60 a5 3e d4 aa 05 3f 06 f5 96 3d
       0.0050918474 0.32300285 0.5221379 0.07370953
000180 54 7e e9 3d 18 99 b5 3d 83 e5 6e 3e df 3f f9 be
       0.11401048 0.08867091 0.2332974 -0.48681542
000190 89 3d 9c 3e 59 e9 81 be 45 bc bf bc e2 a9 2c 3f
       0.30515698 -0.25373343 -0.023405204 0.6744672
0001a0 91 3f 91 3e 62 de 39 3f 5a d6 5c 3f 6e c7 05 be
       0.2836881 0.72604954 0.86264575 -0.13064358
0001b0 bc 5e 2e 3f 7d 00 a3 3e f8 3b f3 bb cb 2a 7e be
       0.68113303 0.3183631 -0.0074229203 -0.24821012
0001c0 89 e0 32 3f 7e f3 97 3e ce 55 dc 3e 2b 7d f6 3e
       0.69873863 0.29677957 0.43034214 0.4814237
0001d0 45 a6 de 3e 0a cc fc 3e 25 ac 6c 3e b2 bd c8 3c
       0.4348623 0.4937442 0.23112543 0.024504516
0001e0 c4 3c 4b 3e db ca 9e 3e bb 6e 39 bd 31 a2 bf be
       0.19847399 0.3101414 -0.045271616 -0.3742843
0001f0 53 d9 47 3d 9a a5 48 bf 61 ef 82 be 34 e8 66 3e
       0.04879124 -0.7837769 -0.25573257 0.22549516
000200 37 65 0c be d0 80 8e be dc 7a 0d 3f 39 de a3 bd
       -0.13710485 -0.2783265 0.55265594 -0.0800137
000210 4a b1 63 bf 80 0d 8e be ac c5 b0 3d b6 f6 8c bc
       -0.88942397 -0.27744675 0.08631453 -0.017207485
000220 f5 57 a8 be c4 63 5e be 8d cf c5 be 91 7d 39 bd
       -0.32879606 -0.21717745 -0.3863491 -0.045285765
000230 bd 9f 55 3e ac b4 d7 3e 1c 2c ce bd dd 04 34 bc
       0.20861717 0.4213003 -0.10067007 -0.010987488
000240 62 9f ff 3d 79 8c 06 bf ab 5b 42 3d 9d d9 2f be
       0.12481572 -0.52558094 0.047450703 -0.17172857
000250 0f 15 b8 3e d0 7a 7a 3e f2 60 82 be 63 e1 51 3f
       0.35953566 0.24460912 -0.25464588 0.8198454
000260 83 b8 98 be e0 97 9a be f4 7c db be 7f 80 52 3e
       -0.2982827 -0.30193996 -0.4286877 0.2055683
000270 15 ed 28 be 33 f0 ca 3e 2a a9 72 3e 51 9f c9 bd
       -0.1649669 0.39636382 0.23697343 -0.0984484
000280 fe e9 cd 3d de 94 1d be 4c a5 1e 3e 1e 12 ef bd
       0.10054396 -0.1538882 0.15492743 -0.116733775
000290 16 29 85 be 58 16 7f be f9 7c 18 3a cd ec fd 3e
       -0.2600791 -0.24910867 0.0005816962 0.49594727
0002a0 34 a9 c4 be 04 54 81 be e2 29 9a bd 3f ac e8 3e
       -0.38410342 -0.2525941 -0.0752752 0.45443913
0002b0 da 65 18 bf f7 c2 7c be e7 f1 19 3f 10 5a 9c 3d
       -0.59530413 -0.24683748 0.6013474 0.076343656
0002c0 a3 08 a9 be 91 05 95 3e 62 13 88 3e 51 6c 5b 3e
       -0.33014402 0.2910581 0.26577288 0.21428038
0002d0 e8 b5 ed be 4c 7a 19 be 33 ee 66 be 85 7b b7 3d
       -0.46427846 -0.14988059 -0.22551803 0.08959106
0002e0 79 c5 a6 3e f7 0d 54 bc 3f d2 ce bd ae 37 96 3c
       0.32572535 -0.012942783 -0.10098695 0.018337097
0002f0 7b 9d 2c be 27 f7 01 3e e1 01 bc 3d 3b c9 5b be
       -0.16856949 0.12691937 0.09180046 -0.21463482
000300 c6 33 36 be e7 13 2d 3e 8c 90 82 bd 90 a8 04 be
       -0.17793187 0.16902123 -0.063752264 -0.12954926
000310 4b 77 cf 3d 30 c9 0c 3e ff 68 4d 3b e2 90 86 3e
       0.10130175 0.13748622 0.00313431 0.26282412
000320 80 e6 39 3f 73 84 b7 bd c5 e8 bd be 14 a8 31 3f
       0.7261734 -0.089608096 -0.37091652 0.6939709
000330 f9 6a 0e bf aa 6c fd bd 66 c8 14 3e c9 ba 66 3d
       -0.5563198 -0.12374242 0.14529571 0.056330476
000340 38 7f 36 3f 15 b3 0d 3f fb 51 0e bf 01 46 03 bf
       0.7128787 0.5535138 -0.5559384 -0.5127869
000350 eb 66 34 3f 65 57 be 3e 78 9a 58 3e 7e ba 44 3f
       0.7046954 0.37176052 0.21152675 0.76847064
000360 26 db c3 bd 10 b4 2d 3f 07 b2 b6 be 62 a1 21 bf
       -0.095632836 0.6785288 -0.356827 -0.63136876
000370 df 8d 25 3f f3 d6 98 be b7 13 f4 3e 24 a6 85 be
       0.64669603 -0.29851493 0.4767129 -0.26103318
000380 ca 03 0f 3f 55 74 b8 3e b7 33 68 3e 52 4b fd bd
       0.55865157 0.36026254 0.22675978 -0.12367882
000390 dd ee 09 3e 33 6e 36 bc 77 e9 60 3e f0 3d 96 be
       0.13470025 -0.011134672 0.2196406 -0.2934413
0003a0 01 a3 4d be 5e fb 84 3d 8e 66 ad be d8 b2 ba 3b
       -0.20081712 0.06493257 -0.33867306 0.0056975894
0003b0 9f 85 83 be cd a8 9e 3d d2 78 8f 3e 2a 18 4a be
       -0.25687882 0.0774704 0.28021866 -0.1973578
0003c0 e2 79 c3 b9 7a 18 b9 3e bd 43 27 3f a1 3c a0 3e
       -0.00037284108 0.36151487 0.65337735 0.31296256
0003d0 90 37 23 3e 50 e9 38 3e e6 1b 3f 3f 5f 7f a0 3e
       0.15939164 0.18057752 0.74651945 0.31347176
0003e0 f6 47 30 3f e0 42 35 3f 0d c6 2a 3c c8 6f 86 3d
       0.68859804 0.7080517 0.010423196 0.06564289
0003f0 02 b7 69 3e 26 0a 95 be 98 c3 63 be d2 a1 a1 3e
       0.22823718 -0.29109305 -0.22242582 0.31568772
