Chapter4:HPOptimization/Architectures_UnOptimized/Group1/Worker_0/Model_0/W_1.npy (npy, 1408 bytes, 1 tensors)

array f4 [16, 20]
000000 9b 37 8c bf 05 12 98 bc 12 02 5e 3f 5f 0f 08 bf
       -1.095447 -0.01856328 0.8672191 -0.53148454
000010 c8 52 c7 3f f5 b7 91 3e eb 7a af 3d 69 3f 3f be
       1.5572138 0.2846066 0.085683666 -0.18676533
000020 93 94 93 3d 83 91 61 bf 0f 0b 01 bf 5a 2e 86 3f
       0.07206073 -0.8811266 -0.504075 1.0482895
000030 29 b3 a0 be ae 50 b0 bd c7 40 4a 3e 70 f1 c3 3e
       -0.31386688 -0.086091384 0.19751273 0.3827014
000040 de e7 b2 be ef 68 86 3d 3b 27 7f bf 23 a7 8c bd
       -0.34942526 0.06562983 -0.99669236 -0.06867816
000050 da 57 77 be ef 80 60 bd fb b9 cd be 4c 26 58 3f
       -0.24154606 -0.05481046 -0.40180954 0.84433436
000060 87 cc 18 3f e9 47 a2 3f 45 e1 d9 bd ad 7c 88 bf
       0.59687084 1.2678195 -0.1063867 -1.0663048
000070 5f 10 ed 3e cb 9f 41 3e c9 22 ae bc 10 74 a1 bd
       0.46301553 0.18908612 -0.021256821 -0.07883465
000080 99 41 bb 3c 97 40 ad bf 58 92 c9 be 37 ff 62 3f
       0.022858428 -1.3535336 -0.39369464 0.88670677
000090 13 1b 46 3e 20 8d 98 3f 68 6b 2a bf d2 49 b0 3f
       0.19346265 1.1918068 -0.6657014 1.3772528
0000a0 b3 35 3f be 91 b7 a0 3e 6b ec 90 be 5e c8 d7 bd
       -0.18672828 0.3139005 -0.28305373 -0.10536264
0000b0 7a 93 fc 3d 96 68 cc 3e 75 5a 82 bd 5a 35 b6 3d
       0.123328164 0.39923543 -0.063649096 0.08896895
0000c0 39 71 25 bd b5 1b bb ba 93 18 2e 3e 1e 35 d6 3e
       -0.04039118 -0.0014275225 0.17001562 0.418374
0000d0 ff b9 5f bd 08 b8 d2 be 28 84 31 be a7 11 22 be
       -0.05462074 -0.4115603 -0.1733557 -0.15827046
0000e0 de bb 3e be d5 e2 f9 3e e7 f2 95 3e c8 04 9c 3d
       -0.18626353 0.48805872 0.29286882 0.076180995
0000f0 78 4d d7 3e 65 ab 37 bd 4a 69 aa be bd 44 22 3e
       0.4205129 -0.04484119 -0.33283454 0.15846534
000100 e5 e1 fa be 32 70 de 3d 83 c7 9d be 82 ef 13 3f
       -0.4900047 0.10861243 -0.30816278 0.57787335
000110 1e 56 8b bc d4 bb 87 bc 6f 54 48 bf 1b 97 85 3c
       -0.017008837 -0.016569056 -0.78253835 0.016307404
000120 3e cc d5 bd 73 15 7e bd 6e 27 2b 3d 0c c5 ea be
       -0.10439347 -0.062032174 0.04178565 -0.4585346
000130 9c ab 56 3e b0 75 e3 3e 41 c6 10 bf bd 23 81 be
       0.20963901 0.44425726 -0.5655251 -0.2522258
000140 13 14 39 3e 04 16 5c be 43 2e 8c 3e 42 a4 49 bc
       0.18074064 -0.21492773 0.27379045 -0.0123072285
000150 ba 49 f8 be 9e ab 1e be 60 76 10 bf 8b a2 84 3e
       -0.4849375 -0.15495154 -0.56430626 0.2590526
000160 60 bb eb be 0a fb a1 bd 3d 2c 0a bf 96 50 e3 be
       -0.46041393 -0.0790921 -0.5397375 -0.4439742
000170 4d 00 b9 3e 8a c5 99 3e 28 ba 37 bd 12 83 4d bf
       0.36133042 0.30033523 -0.044855267 -0.8027812
000180 ab fc 24 3f 6a 56 01 3f 4e d5 de 3c 13 75 51 bd
       0.6444804 0.5052248 0.027201321 -0.05113704
000190 a6 da 55 3e 0a 18 b4 3d 9c 8b 15 bf bd a9 95 3e
       0.20884189 0.087936476 -0.5841615 0.29231063
0001a0 e5 f5 54 bf e6 3a 93 be 43 8e 45 bf 3f e6 b0 3e
       -0.83187705 -0.28755873 -0.771702 0.34550664
0001b0 7d 92 dd 3e 78 8f db 3e f5 15 dc be 74 ea 18 bf
       0.43275824 0.42882895 -0.42985502 -0.5973275
0001c0 a7 10 c3 be f4 9f f1 3e b8 b2 e8 be 1a 1e 8c 3e
       -0.38098642 0.47192347 -0.45448852 0.27366716
0001d0 ad 78 67 3c 75 86 8e bd 81 0c e7 bd 90 99 e6 bd
       0.014127892 -0.069592394 -0.11281682 -0.112597585
0001e0 da 03 93 be 26 35 26 3e 96 fa 1c 3f 59 19 42 be
       -0.28713876 0.16231212 0.61319864 -0.18954982
0001f0 77 05 2a 3f 63 09 05 be 62 b0 2e be a2 75 21 3d
       0.6641459 -0.12991862 -0.17059472 0.039418824
000200 73 5e 96 bc 4c b2 c3 be c5 05 cb 3e 6f ed 36 3f
       -0.018355584 -0.38221967 0.3965284 0.71456045
000210 af cd 9f be 1c fb ad be c7 a9 03 bf e5 e1 aa bb
       -0.31211612 -0.33980644 -0.51430935 -0.005214917
000220 1d 49 dd bc 47 66 d9 be 5b 19 72 be 0e 5d 72 3e
       -0.027012402 -0.42460844 -0.23642485 0.2366831
000230 97 5a cc be 19 71 95 3e f3 ce 98 3e f9 de 2b 3f
       -0.39912865 0.2918785 0.2984539 0.67137104
000240 48 03 b3 be 76 1f 2d 3f 8b 7f 11 3e 8e 3f 16 3e
       -0.3496344 0.6762613 0.1420881 0.14672682
000250 9a 3d 0d bf 34 c7 b5 bd 6d e4 81 3d 1c fb b2 be
       -0.5517212 -0.088758856 0.06342397 -0.34957206
000260 aa 72 48 bf 86 cd 09 3f 71 9b 2b 3d 9e 55 3a 3e
       -0.78299963 0.5382923 0.041896287 0.18196723
000270 c1 3a 8b be 57 ff 13 3f 54 62 07 be 82 f8 11 bd
       -0.27193263 0.5781149 -0.13221103 -0.035637386
000280 68 fb 4d 3e d6 cc 5e 3e 01 d1 48 3f 1d 4b 3c 3d
       0.20115435 0.21757826 0.78443915 0.04597007
000290 98 ea 64 bd ac 3f cf be 38 fe b7 be a0 f1 40 be
       -0.05588779 -0.40478265 -0.3593614 -0.18842173
0002a0 e6 a2 85 bd 93 88 4a be 05 0e bb bd 21 c5 13 3f
       -0.06525211 -0.19778661 -0.091335334 0.5772267
0002b0 8e c7 6c be bb e9 46 3c 4b de 86 3d b7 53 50 3e
       -0.23122999 0.012140687 0.06585368 0.20344435
0002c0 d1 e2 ee 3e dd d8 3d 3d a4 5a bf 3d 6c 96 e6 3e
       0.46657422 0.046349395 0.0934346 0.45036638
0002d0 8a 67 d5 be fc 6e b2 3e 82 08 ae bd 82 0b 07 bf
       -0.41680557 0.348503 -0.084977165 -0.52751935
0002e0 10 09 ce 3e 65 bb 63 3e 08 ba 4c 3e 4b 51 d6 3e
       0.4024129 0.22239454 0.1999284 0.41858897
0002f0 0f a7 13 bd 75 85 03 bf 2a e9 65 3d 87 1d 95 be
       -0.03604799 -0.51375514 0.056130566 -0.2912409
000300 5a b7 87 3e d6 62 0f 3e 01 01 b2 3e 38 d4 9e 3e
       0.26507074 0.14002547 0.3476639 0.31021285
000310 da 3e 1f bf 2d cc af bd e9 ac 5f bd 30 e3 91 3e
       -0.6220528 -0.08583865 -0.05460826 0.28493643
000320 5a f0 fb bd e5 ff f1 be d1 35 89 be 5d 90 f5 3e
       -0.12301703 -0.47265545 -0.2679887 0.47961703
000330 75 e0 c9 bd 2f 89 04 bf cb 9c 03 bd 38 83 a2 be
       -0.09857265 -0.51771826 -0.03213195 -0.31740737
000340 1a 70 05 bb 52 63 2e be a7 26 08 bf 11 77 0c 3f
       -0.0020361007 -0.17030075 -0.5318398 0.5486918
000350 04 e4 e1 bd a4 c7 4d 3d 02 91 bb 3e f3 42 fb 3c
       -0.11029819 0.05023922 0.3663407 0.030671572
000360 be 1d 02 bf 97 12 83 be e9 b9 03 bf 50 75 c9 be
       -0.5082663 -0.2560012 -0.5145555 -0.39347315
000370 3f 91 6c 3e 21 3e 63 3e 27 0e 87 3e c5 01 9e 3e
       0.23102282 0.22191669 0.26377985 0.30860725
000380 b5 a1 ad 3d f6 b5 4c 3e 28 90 a4 bd b2 47 30 3f
       0.08478109 0.19991288 -0.08035308 0.688594
000390 50 7d 4d 3e 78 00 0b bf 26 89 72 3e e7 59 ae 3e
       0.20067334 -0.5429759 0.2368513 0.34052965
0003a0 71 8b 96 be 58 07 a4 3d a9 83 03 bf 6f a9 dd 3e
       -0.2940326 0.08009213 -0.5137277 0.4329333
0003b0 6d 52 30 be e2 8d 3c 3e 6c 66 9d be fa a2 09 3f
       -0.17218943 0.18413499 -0.30742204 0.5376431
0003c0 08 72 84 be d6 a5 ad bd f1 c0 9a be 38 ea 42 3e
       -0.2586825 -0.08478896 -0.30225328 0.1903466
0003d0 23 47 7f be b3 1e 1d bf 2c 23 dc bc 35 d5 85 be
       -0.2492948 -0.6137497 -0.02687224 -0.26139227
0003e0 78 b1 b7 3e 46 de e3 bd f8 3a 0d 3e bc ae 38 3e
       0.35877585 -0.1112638 0.13792026 0.18035406
0003f0 24 f2 a7 3d 17 cf f6 3e 21 1e a4 be da f2 ac be
       0.082004815 0.48204872 -0.32054237 -0.3377903
