Physics_Informed_Hydrogen_FGM/TrainedMLPs/PIML/WM/W_4.npy (npy, 4208 bytes, 1 tensors)

array f4 [34, 30]
000000 2b a7 af bd f3 bb bf be c7 03 23 be da 14 0d be
       -0.08576807 -0.3744808 -0.1591941 -0.13777485
000010 81 eb 82 3e 14 b4 dc bc c8 58 5b be 9b e3 6b be
       0.255703 -0.026941337 -0.21420586 -0.23036043
000020 8f 78 df 3d d6 ec 85 be 64 03 37 be 88 64 06 3e
       0.109116666 -0.26157254 -0.17872387 0.13124287
000030 21 06 8f be 44 30 58 3e 7c 3e 33 be ba cc 38 3d
       -0.27934363 0.21112162 -0.17504305 0.045117117
000040 dd f4 d2 be 06 e5 0b 3b a7 49 d7 be 1a 5e 14 bf
       -0.4120244 0.0021346225 -0.4204838 -0.5795609
000050 da 36 ac 3e fd 34 b6 be cf 84 cf 3c cc b4 38 bd
       0.33635598 -0.35587302 0.025331883 -0.045094296
000060 cd 1d 56 3e 9f 48 88 bf 9d 0c d3 3c 14 1b f4 bc
       0.20909806 -1.0647162 0.02576285 -0.029798068
000070 e4 7c 86 bd 2c 6c dd 3c 88 4a e3 be ee 6e 96 3e
       -0.0656679 0.02702912 -0.443928 0.29381508
000080 d0 3d d3 3e 4e 40 ef be 3d b9 2b be 87 ac 9e bf
       0.41258097 -0.46728748 -0.16769882 -1.2396401
000090 32 6f 63 3e 1d 9f f6 be a6 79 31 be cd 1d 06 bf
       0.22210386 -0.4816827 -0.17331561 -0.5238922
0000a0 02 a8 13 3e 48 b1 ba bd df 3b 9c bf 74 95 51 bd
       0.14419559 -0.09115845 -1.2205771 -0.05116792
0000b0 62 d4 55 bd 7e 9c a9 bd 0f 79 3e c0 8b e0 a2 bc
       -0.052204497 -0.08281802 -2.9761388 -0.019882461
0000c0 af b0 25 be 5c f8 1f 3e 1f 15 dc bd 0f ea b1 be
       -0.1618068 0.15622085 -0.10746216 -0.34748885
0000d0 c2 49 8d 3d 64 3a b3 bd 1a 07 4a 3e ac fc 84 3e
       0.06898834 -0.087513715 0.19729272 0.25974023
0000e0 c3 5a 5c 3e 81 0f fa 3d 94 6e 2c bf 1b ad 90 3e
       0.21518998 0.122099884 -0.6735623 0.2825707
0000f0 0d 99 72 3e 84 e1 7e 3e 72 a0 ed be c7 48 25 be
       0.23691197 0.24890715 -0.46411473 -0.16141044
000100 e4 32 9e be 97 58 80 be 00 5f 82 bd 14 0b a1 be
       -0.308982 -0.2506759 -0.06365776 -0.31453764
000110 14 a4 99 be 1f 5e 84 be 43 dd 93 3e 64 71 87 be
       -0.30007994 -0.2585306 0.28879747 -0.26453698
000120 2f 3b d1 be 08 8f 22 3e 53 07 02 3f 76 60 d9 bc
       -0.40865466 0.15874875 0.50792426 -0.026535254
000130 d1 7f 63 bf f8 93 51 bd f5 45 5b 3e 08 4f bc 3e
       -0.8886691 -0.051166505 0.21413405 0.36779046
000140 81 4b 0c 3f 8c 8e 8a be 14 b9 9c 3e 95 df 9f 3d
       0.5480271 -0.2706188 0.30609953 0.07806317
000150 c0 eb ae 3e 40 02 de 3e 45 1b 17 3f 45 5f 93 3e
       0.34164238 0.43361092 0.59025985 0.28783622
000160 95 54 ec bd 5f 66 e0 3f cd b9 ff 3d 6e b0 f1 be
       -0.1153957 1.7531241 0.124866106 -0.47204918
000170 93 d9 cb be f4 d4 4a be 32 6a 17 3e 9c 45 52 bf
       -0.39814433 -0.19807798 0.14786604 -0.82137465
000180 7c 5e 8f be 1a c8 05 3e 17 e8 ea 3e ed bd b4 be
       -0.28001773 0.13064614 0.45880195 -0.35301152
000190 5b 93 3e bd 67 d4 94 be 5e eb 8b bd df 41 af 3d
       -0.046527248 -0.290683 -0.06832002 0.08557486
0001a0 4a fa 0e 3f 60 cb 69 3e db 51 1e bf 3a e6 06 3e
       0.5585066 0.22831488 -0.6184365 0.13173762
0001b0 b2 ee da 3e 43 1e 1c 3f 66 ae b2 3e c4 88 36 be
       0.42760235 0.60983676 0.3489868 -0.1782561
0001c0 7a a9 b1 be 80 26 75 3e 22 ac af be b8 a5 ac 3e
       -0.34699613 0.23940468 -0.34311014 0.33720183
0001d0 5c cb ad 3d 38 b8 d9 3e c1 fa 3d 3e bb 12 31 3e
       0.08486053 0.4252336 0.18552686 0.17292301
0001e0 5a c2 22 3c 42 e8 dc 3e 54 74 a1 3e 86 6d 4d be
       0.009934032 0.4314595 0.31534064 -0.20061311
0001f0 55 6e 81 be 38 46 5f 3e ce 01 c6 3e 58 85 ae 3e
       -0.2527949 0.2180413 0.38673252 0.34086108
000200 1e 00 1e bd 0d 27 b9 bd 87 a9 13 3d 1f 1e 78 3d
       -0.03857433 -0.090406515 0.036050346 0.0605756
000210 d5 a3 6a be 8c c1 2c bd 35 7e 65 3e cc 5f 9a be
       -0.2291406 -0.04217677 0.22411425 -0.30151212
000220 03 09 f5 3e d2 33 89 3e 2b f8 c9 bd 60 13 be 3e
       0.47858438 0.26797348 -0.098617874 0.37124157
000230 ba f4 06 be e4 f8 95 be 5b 8c 8d bd 09 35 b9 3d
       -0.13179293 -0.2929145 -0.06911536 0.09043319
000240 c8 f9 68 bd 7d e9 3f be 96 b0 35 3e 3c 26 cc 3d
       -0.056878835 -0.18741412 0.17743143 0.0996823
000250 02 82 1a 3f bf 7d 8a 3d c4 93 ee be 38 84 a2 3e
       0.60354626 0.067622654 -0.4659711 0.317415
000260 c7 80 41 be 6e ac 66 be 23 51 d9 3e b6 25 18 bf
       -0.18896781 -0.22526714 0.42444715 -0.5943254
000270 72 ab 3e bf 8d 43 00 bf ae 6f 42 3d 53 35 00 bf
       -0.74480355 -0.50103074 0.047469787 -0.50081366
000280 63 6b b4 3c 24 ab 55 bd 7f c3 57 3e c5 79 87 be
       0.022023862 -0.052165166 0.2107067 -0.2646009
000290 f2 d6 5f be 01 05 7c be ec ec 9f 3d 3c 54 38 3e
       -0.21859339 -0.24611284 0.07808861 0.18000883
0002a0 7a 83 5c bd 6c 13 da be 2a d1 27 be 2c 1d a4 3e
       -0.053836323 -0.42592943 -0.16388384 0.32053506
0002b0 38 78 d6 3d ae 80 0b bf fb b4 f0 3d 99 7b a8 bf
       0.10472149 -0.54493225 0.11753269 -1.3162719
0002c0 08 32 ff 3b f1 3c 96 bd d7 17 b6 be 96 cd 07 3f
       0.0077879466 -0.073358424 -0.35565063 0.53048074
0002d0 d8 60 6a 3f 21 aa 27 be e4 04 91 be a0 88 ac bd
       0.9155402 -0.16373493 -0.28324044 -0.08424497
0002e0 0b 28 e7 bd 2e 15 c1 3e b2 95 30 3e 6f 4d 60 3d
       -0.112869345 0.3771147 0.17244604 0.054761346
0002f0 4c 9b 46 3e 3e 40 7a 3e 3a 1e 47 bd aa 80 a1 3e
       0.19395179 0.24438569 -0.04861281 0.31543475
000300 0f b3 ee bd b4 40 8e 3d 36 ce c4 3e 56 f8 d7 3e
       -0.116552465 0.06945935 0.38438576 0.42181653
000310 56 5c 70 be 1b 41 e6 be 9b e2 57 be a0 ba 56 3e
       -0.23472723 -0.44971547 -0.21082537 0.2096963
000320 1c 7b 32 3e 51 8b dd bd 69 e4 29 be 56 b6 59 be
       0.17429775 -0.10817588 -0.16591038 -0.21260962
000330 15 f2 9c be ee 62 d9 3e a7 78 fd bd 94 a2 9f bd
       -0.30653444 0.4245829 -0.12376528 -0.07794681
000340 c0 1a 64 be 84 b9 f1 3e 3b 58 b2 bd eb 18 0f 3e
       -0.2227583 0.4721185 -0.08708235 0.13974349
000350 ce fa 0c be e0 48 ad 3c c1 b3 0e be 9e 7f c4 3d
       -0.1376755 0.021152914 -0.13935758 0.095946535
000360 74 c4 fa 3e 55 99 99 3e ed a0 79 3e 2b 2b 29 be
       0.48978007 0.29999796 0.24377795 -0.16520374
000370 31 71 2f 3d 69 9c fe 3c 13 5c 0d 3e d8 3b fa be
       0.042832557 0.031080442 0.13804655 -0.48873782
000380 cd b9 e0 3c a4 1a 81 3e 1f f5 ac 3e 98 a6 f0 bd
       0.027432347 0.25215638 0.33780763 -0.11750525
000390 6e e3 a9 3e 14 29 15 be e4 31 9a be 8a 11 89 be
       0.33181328 -0.14566451 -0.3011619 -0.26771194
0003a0 1b ca a2 3e ed 9a 00 bf 6e 30 6a 3e 4c 83 2f 3e
       0.3179482 -0.502364 0.22870037 0.1713993
0003b0 b8 3c 91 3e ea 4a 59 3e 71 5b 94 3e 2f d7 07 3f
       0.28366637 0.21219984 0.28976014 0.5306272
0003c0 eb 89 6b 3c ec 3b 12 3e fd 77 46 3e 1b c7 e9 3d
       0.014376144 0.14280671 0.1938171 0.114149295
0003d0 e4 e5 ac be e7 1b b9 bd be fc 65 be c2 9b 1a be
       -0.33769143 -0.09038525 -0.22459695 -0.1509848
0003e0 d6 0a c5 3d ff 3c 03 bf ca 4f 01 3f 37 d3 fc be
       0.096212074 -0.5126495 0.50512373 -0.49379894
0003f0 0b e4 50 bf d6 43 18 be 33 9a e3 bd 89 0d d1 3c
       -0.81597966 -0.14869627 -0.111133955 0.02551915
