Chapter2:FGMPINN/TrainedMLPs/DF/Temperature/W_1.npy (npy, 1408 bytes, 1 tensors)

array f4 [16, 20]
00000000: b8d5 b0bd 2573 01be 8a95 86bf 5cef 733f
00000010: 98f5 a33e b17e 1dbf 93a3 933f 316d c2be
00000020: c19e be3e a8cc c1bf 66de 6d3d 6bd6 c43f
00000030: 83e2 15c0 1988 a53f 10d3 c23f 2307 ddbe
00000040: 17e4 8e3e 2ac2 9e3f f531 61bf 0370 fdbe
00000050: ee2c 683e f249 7a3f 06af 643d 0c51 823e
00000060: cdff 903f eccb 0d3f 8181 2bbf 820b 0bbf
00000070: b678 933f 2755 623e 6db4 93bd 40b9 df3d
00000080: 4825 dbbe e287 03bf 3a4f e9be 7734 b33f
00000090: b9a8 063d 4279 f43e 3f00 8bbc 894d 783e
000000a0: 6238 febc 3332 e13e 7641 3abe aeaf 89be
000000b0: 8a8a 9f3b 8456 c83e 7c94 93bd 2251 783e
000000c0: 32bd 493e 1eb4 c6bd 59a6 2d3e 882b e53e
000000d0: f68d 38be 5ddb 99be 6c70 65be 8c86 05bd
000000e0: 9429 0abe fb09 063f 2396 1d3e 0e42 26bd
000000f0: 5545 e93e 5459 1ebd 0e7a 52bf 2867 b03e
00000100: 3638 61be 6dcc e73d e3aa 25be daee 0f3f
00000110: 6d59 a03d 5fcb c7be b01e 43be 61a0 ea3b
00000120: 773a 733c a1e0 54be dbc6 803e 2011 21bf
00000130: 4fc2 dabe 03c8 cd3e f55e 50bf c93c c3be
00000140: 8ef6 7bbc 60c5 07be 44fa 963e 30a0 cb3d
00000150: fa85 eebe 3d9e bbbd 44ab a0be 9b34 943e
00000160: fe0e 23bf ea8b 9abe a3d2 39bf a56e cebe
00000170: a444 983e ee7e 1a3f f034 a63d 1f28 05bf
00000180: 1231 063f 0c43 dd3e 96dd 363d 9a15 d2bd
00000190: ff1a bc3e c869 a3bd d125 eabe 080b f33d
000001a0: 50dc cebe 3759 e1be 306c 9bbe 1e56 093f
000001b0: 6ae8 0c3f 49e8 03be bc8a aa3e 05aa f0be
000001c0: 0cc2 a5be 3e6b e33e 4b51 a5be e6e6 03bc
000001d0: 6a64 febe 2b4d 2ebc 1cfa 4dbe a7e8 82be
000001e0: bc24 ad3e 6ef4 b13e 6e65 303e 1b86 a33d
000001f0: 9815 9e3e 3032 793e c691 5bbe 15ea 653e
00000200: 601d b1be ac1e 02bf 84df 463e c76e 0f3f
00000210: bf2e 04bf c372 0ebf 3a94 6cbe 4d34 06be
00000220: e991 95be 5f53 c3bd d6b6 19bf d7a5 503e
00000230: 18f0 8dbe 5638 b33e 5e45 2b3e 4f6e 323f
00000240: d23a e9be 68c9 2e3f f180 b83e d2fa 14bd
00000250: 3207 43bf 9435 42be 1bb1 17be 01e1 d6be
00000260: 981c 3cbf 97e2 b43e 7069 6b3d ec51 b03d
00000270: 5248 27bf ef94 083f 479b 10be cb59 09be
00000280: e78d d1be ad2d 953c d7ec 263f a399 a63e
00000290: 6e0f 88be c589 ffbe 4067 00bf 2683 e6be
000002a0: 4b7b f93b d103 08be 3612 b23d ce6e 0d3f
000002b0: e502 b1be 4ee6 cc3c c0ad 9f3e 0510 8bbe
000002c0: 0943 093f 6863 8a3c f269 263e 8367 4f3f
000002d0: 3a58 56bf e210 e83e 33ff b13b cc38 e6be
000002e0: 3910 983e 0ed5 4e3e f239 093e c674 be3e
000002f0: 94a3 b1bd 24b1 36bf d53e 39b9 626b b4bd
00000300: 4edb 563e d819 4a3d 45d9 a83e 5def 8d3e
00000310: 0484 a8be 3a53 d6be 4e2c 13be 72c0 3b3e
00000320: 0c37 dcbc 6317 0bbf 9905 d0be 5b10 103f
00000330: c713 1dbe 0944 09bf f120 9d3c edab 44be
00000340: 5324 ccbc 5cc4 00bf 79d1 fbbe db12 1a3f
00000350: af00 86be 89cb 533e d551 2e3f c46b 84be
00000360: bb56 70be 5c0b 2fbe 79a2 4abf ae60 dfbe
00000370: 7a3d 083f 4588 0c3e 9948 01be bd65 8f3e
00000380: e941 d43e 73d1 7bbd 2f6a c93e 5329 473f
00000390: 195a 013f 4263 e7be 8ff2 9b3e d38b e83e
000003a0: dd5b 6cbf 2e02 0c3f e645 05bf 245f aa3f
000003b0: 1e15 3dbf 8ea9 4e3f 4699 03bf 8004 64be
000003c0: 955f 4ebe 06aa 95bd 10f7 eabd 836e 673e
000003d0: a889 02bf d17f 13bf 2916 05bd 2b67 84be
000003e0: 0a7d 0b3e c19a f2bd 98ef 483e a7b7 3f3e
000003f0: fc15 0fbe 9e7e cf3e 0fbe e0be df27 d5be
-0.086345136 -0.1264158 -1.0514386 0.9528711 0.3202331 -0.6152144 1.1534294 -0.3797393
0.37230495 -1.5140581 0.058073424 1.5377935 -2.3419502 1.2932159 1.5220661 -0.43169507
0.27908394 1.2403004 -0.87966853 -0.4949952 0.2267339 0.9776908 0.055830978 0.2545246
1.1328064 0.55389285 -0.6699448 -0.54314435 1.1521213 0.22102796 -0.07212148 0.109240055
-0.4280188 -0.51379216 -0.45568258 1.4000386 0.03287575 0.47748762 -0.01696789 0.24248327
-0.031032745 0.4398361 -0.18189034 -0.26891845 0.00486881 0.39128506 -0.072060555 0.242497
0.19701079 -0.097023234 0.16957988 0.44759774 -0.18022904 -0.30050173 -0.22406167 -0.032599017
-0.13492423 0.5235898 0.15389304 -0.04059034 0.4556071 -0.03865941 -0.8221749 0.34453702
-0.21994099 0.11318288 -0.1617847 0.56223834 0.078295566 -0.39022347 -0.19054675 0.007160232
0.014845482 -0.20788814 0.25151715 -0.62916756 -0.4272637 0.4019166 -0.8139489 -0.38132313
-0.015378607 -0.13258886 0.29487813 0.09942663 -0.4658659 -0.09161041 -0.31380665 0.28946385
-0.6369475 -0.3018487 -0.7258703 -0.4031879 0.2973987 0.6034993 0.08115566 -0.52014345
0.52418625 0.43215215 0.044644915 -0.102580264 0.36739346 -0.079791605 -0.45731977 0.118673384
-0.4040246 -0.44013378 -0.30355978 0.5364703 0.55042136 -0.12881579 0.3330897 -0.47004715
-0.3237461 0.44417757 -0.32288584 -0.008050656 -0.49685985 -0.010638515 -0.2011494 -0.25568125
0.3381709 0.34756798 0.17226192 0.07984563 0.3087585 0.24335551 -0.21442327 0.22452576
-0.34592724 -0.5082805 0.19421202 0.5602841 -0.5163383 -0.5564386 -0.23103419 -0.13105889
-0.29212883 -0.09537386 -0.6004461 0.20375763 -0.2772224 0.35003918 0.1672568 0.6969957
-0.4555269 0.6827607 0.36035874 -0.036372013 -0.76182854 -0.18965751 -0.14813654 -0.4196854
-0.7348113 0.35329124 0.0574736 0.08609375 -0.6534473 0.53352255 -0.14121734 -0.1341316
-0.40928575 0.018210256 0.6520514 0.3253909 -0.26574272 -0.49909797 -0.50157547 -0.45021933
0.0076135746 -0.13282706 0.0869488 0.552472 -0.3457252 0.025012162 0.31187248 -0.2716066
0.5361791 0.016893104 0.16251352 0.8101732 -0.83728373 0.4532538 0.0054320334 -0.44965208
0.29699877 0.20198461 0.1340101 0.37198466 -0.08673778 -0.71364045 -0.00017666382 -0.08809544
0.20982096 0.049341053 0.32978263 0.27721682 -0.3291322 -0.41860372 -0.1437237 0.18335131
-0.026881717 -0.5433256 -0.4062927 0.56274956 -0.15339576 -0.5361944 0.019180747 -0.1920621
-0.024919664 -0.5029962 -0.49183252 0.6018502 -0.26172397 0.20683111 0.68093616 -0.2586347
-0.23470585 -0.17094177 -0.79154164 -0.43628448 0.53218806 0.13723858 -0.1262535 0.28007308
0.41456535 -0.061479043 0.39338824 0.7779743 0.50528103 -0.45192915 0.30458495 0.45419177
-0.9232767 0.54690826 -0.5205978 1.3310285 -0.7386035 0.8072747 -0.5140575 -0.22267342
-0.20153649 -0.0730782 -0.11472905 0.2260075 -0.50991297 -0.5761691 -0.032491837 -0.2585996
0.13621917 -0.11845923 0.19622648 0.18722402 -0.1397323 0.4052629 -0.43895003 -0.41631982
