Chapter4:HPOptimization/TrainedMLPs/OPT/Group1/W_5.npy (npy, 3008 bytes, 1 tensors)

array f4 [30, 24]
000000 b7 63 2e 3e 29 1d 42 3e 11 d5 19 be 49 7d 0b be
       0.17030226 0.18956436 -0.15022685 -0.13622011
000010 27 a2 76 be de 79 a7 bc f0 fe 3a 3e e0 32 1c 3e
       -0.24085294 -0.020443853 0.18261313 0.15253782
000020 ef 95 96 3e 00 c7 9d be d3 2c 58 be b0 21 34 be
       0.29411265 -0.30815887 -0.21110849 -0.17590976
000030 45 5b 53 be d2 58 59 bd b4 a5 98 be ee f4 dc be
       -0.20640285 -0.05306322 -0.2981392 -0.43155617
000040 38 b6 3d be 70 34 64 3b f8 f5 44 be 7f 5b 93 bd
       -0.18526542 0.0034821294 -0.19234455 -0.07195186
000050 dc f7 a9 be c5 68 e7 3e 4b ff d8 bd e2 ce 80 3e
       -0.33196914 0.4519712 -0.10595568 0.2515784
000060 4b 6b 13 bd 2d 17 91 3e 77 ec 31 bf b3 08 a3 3b
       -0.035990994 0.28337994 -0.6950144 0.0049754023
000070 71 c6 d3 3e 3f ab a1 be cc d8 2f be 79 63 85 bb
       0.41362336 -0.31575963 -0.17172545 -0.004070696
000080 99 e0 8f 3d be 16 8d 3e 01 b6 2c bf 03 63 19 3f
       0.070252605 0.27556413 -0.67465216 0.59916705
000090 4e 36 e1 3e 5d b3 0f 3e cd 3f 63 be ab 88 c1 be
       0.43986744 0.14033265 -0.22192307 -0.37799582
0000a0 2e ea df bd 5c 09 8f 3e cf c7 0c 3e 03 7d 1a 3e
       -0.10933338 0.27936828 0.13748096 0.1508675
0000b0 34 18 d3 3d 48 90 c6 be e4 e5 35 3e 1e c0 0e bf
       0.10307351 -0.38781953 0.17763478 -0.557619
0000c0 29 aa 2b 3d 28 41 1f bf d1 28 23 bf fe e0 88 be
       0.041910324 -0.62208796 -0.63734156 -0.26734155
0000d0 d5 38 06 3c 2f f1 a4 3e d9 2d f6 3d 2b e1 66 3d
       0.008192261 0.32215258 0.120204635 0.05636708
0000e0 6c a6 88 3e f8 b7 ba 3e fd 22 d7 be fb 1f d3 3e
       0.2668947 0.36468482 -0.4201888 0.41235337
0000f0 8c 1f 9f bd ec c3 90 be bb 66 2f 3e c6 ed c9 3d
       -0.07769689 -0.28274477 0.17129032 0.09859805
000100 9f cb 2e 3d 4b 3c aa 3d 06 0a fc 3c 2e e4 f4 3f
       0.042674657 0.08312281 0.030766498 1.9132135
000110 f1 57 82 be 9f 21 f3 bc dd d1 b9 3d 1a ef d3 3e
       -0.2545772 -0.029679118 0.09073231 0.41393358
000120 59 9b 10 3d d5 07 7e 3e 0a da 31 bc b4 3f 8f 3d
       0.0353044 0.24807675 -0.010855207 0.06994572
000130 50 20 fe bd 0a 31 48 bc 7f 4e cf be 1e ca 32 3d
       -0.12408507 -0.012218723 -0.40489575 0.043649785
000140 0c 3d e6 bc 5c cd c8 be 6b c7 fe be 12 65 0d 3e
       -0.028105281 -0.39219177 -0.4976152 0.13808087
000150 22 4f 00 bf cf 55 9e be d2 d0 9f 3e c0 47 ee be
       -0.5012075 -0.30924842 0.31214005 -0.46539116
000160 da 71 a3 3d e5 c0 c6 3e 06 18 45 3c 06 67 a9 3e
       0.079807 0.38819042 0.012029653 0.33086413
000170 60 a9 df 3e c8 73 24 3e 95 ec 11 3e bc d7 20 be
       0.4368391 0.16059792 0.14250405 -0.15707296
000180 07 4c 20 bf 2b 6d 51 3c cb 0c 98 be 2c fe 7f 3e
       -0.6261601 0.012782375 -0.2969726 0.24999303
000190 e5 0e 2b be fb 38 c4 3d 70 21 d8 3d c3 da 82 3e
       -0.167049 0.09581181 0.10553253 0.25557527
0001a0 3b 95 24 bf f9 be 6c be 86 aa be 3e 11 e4 1c be
       -0.6429021 -0.23119725 0.37239474 -0.15321375
0001b0 d9 15 44 be bb 9e 30 be 76 b3 b0 be 58 ae 6f be
       -0.19148959 -0.17248051 -0.34511918 -0.2340635
0001c0 2a cf 30 3f 4d de c3 3e 89 93 0a be 75 5a 47 bf
       0.6906611 0.3825554 -0.13532843 -0.778724
0001d0 0b 8c 4e 3e 51 9b 49 be bc 46 24 3c e6 51 9b 3e
       0.2017061 -0.19688155 0.01002663 0.3033592
0001e0 f1 13 51 3e 13 a2 e0 3d c2 89 91 bd ec ea 9b 3e
       0.20417763 0.10968413 -0.07106353 0.3045267
0001f0 46 38 4d 3e 3c 65 e4 3d c8 0c fa be e1 6d a1 3e
       0.20040998 0.111521214 -0.48837876 0.31529143
000200 3c b4 41 bd d1 2c b2 3e ad 15 c0 bd 24 69 8f be
       -0.047291026 0.34799817 -0.09379134 -0.28009903
000210 d4 4b 47 be 2f 86 9c 3e 92 8d 56 be b2 5c e7 3e
       -0.1946252 0.30571124 -0.20952442 0.45187908
000220 c2 ae cd 3e 6b 9d f8 bc 54 a4 3c 3e f5 7b ad 3e
       0.40172392 -0.0303485 0.18422061 0.33883634
000230 11 cb 65 be 40 0f f8 3d 94 f8 9c 3c 57 98 24 bc
       -0.22440745 0.12112284 0.0191615 -0.010046086
000240 11 b6 16 bf 09 35 a7 be 69 d1 ab bf c2 ce 13 3f
       -0.5887156 -0.3265765 -1.3423282 0.5773736
000250 26 f7 24 bc d7 ff ba 3e 7a 5c 8b bd 69 86 bc 3e
       -0.01006869 0.36523315 -0.06804748 0.36821297
000260 9e 23 8f 3c 7d f8 4f 3e a1 a8 be be 82 48 04 3f
       0.017473038 0.20309635 -0.3723803 0.5167314
000270 88 7f f0 3e 7f eb f6 bd 68 3f 30 3e e5 bd 52 be
       0.469723 -0.12056636 0.17211688 -0.20580252
000280 b6 02 76 3e 08 ed 26 bd 9f ba 1d 3c 41 7c 8c be
       0.24024472 -0.040753394 0.0096270135 -0.27438548
000290 83 a0 d5 be 27 d7 5b be ac 9b 1c bf 61 ef ba 3e
       -0.41724023 -0.21468793 -0.61175036 0.36510757
0002a0 55 06 bb be de 57 9e be 7a a4 b5 be 43 e7 20 bf
       -0.36528268 -0.30926412 -0.35477048 -0.6285288
0002b0 e6 db 98 3e 67 34 55 bd b0 be 5c be e9 87 7e be
       0.2985527 -0.052051928 -0.21557117 -0.24856533
0002c0 e7 96 9e 3e 8c 66 84 be 09 35 c2 3d 58 f7 8b be
       0.30974504 -0.25859487 0.09482772 -0.27337146
0002d0 5f dd 40 3e ca f6 5f be 88 39 13 bc b8 66 b5 3e
       0.18834446 -0.21871486 -0.0089858845 0.3542993
0002e0 ea 5c 14 3e bb a2 f9 bd 20 11 65 bd 70 d9 80 bd
       0.14488569 -0.121892415 -0.055924535 -0.06291473
0002f0 80 59 b3 3d 14 78 05 3d 18 3b 07 bf c8 35 25 3d
       0.08757305 0.03258522 -0.52824545 0.040334493
000300 41 9b 89 be b5 94 e9 be 84 84 ba 3d 7c 79 ec be
       -0.26876262 -0.45621267 0.091073066 -0.46186435
000310 c4 a9 3b be 1c d7 09 be 92 29 1b be 5c ec 0d 3e
       -0.18326479 -0.13460964 -0.15152577 0.13859695
000320 b0 72 bf 3e 77 ae 89 bd 51 bd 95 3d 86 58 0b bd
       0.37392187 -0.0672273 0.073115 -0.03401997
000330 f5 12 c2 3e 41 f8 aa 3e 80 61 8c 3e 7e 44 0e bf
       0.37905088 0.33392528 0.27418137 -0.5557326
000340 d1 27 4a be 4f b3 7f be 6e ff 09 3e 9c bf bb bf
       -0.19741751 -0.24970745 0.13476345 -1.466785
000350 4f a7 45 be 19 82 9d be ca 76 46 bd c7 af 2d 3e
       -0.19302104 -0.3076332 -0.04845313 0.16961585
000360 56 58 e2 3d ac 37 01 be b7 cf c8 bd 6c 31 45 be
       0.11052005 -0.12618893 -0.098052435 -0.19257134
000370 8d 83 86 be 26 72 2f bf 38 d4 33 be e8 9c a4 3e
       -0.2627224 -0.6853355 -0.17561424 0.3215096
000380 72 6d 1b 3e 1c 47 1a be 95 8e 07 3d 54 bf c6 3e
       0.15178469 -0.15066189 0.03309496 0.38817847
000390 8c 62 02 3f 32 31 29 be 82 e4 28 3e 07 7c 78 be
       0.5093162 -0.16522673 0.16493419 -0.24266063
0003a0 60 22 2b be a5 59 8e 3e ca 35 2f bf 16 ca 2f 3d
       -0.16712332 0.27802768 -0.6844145 0.042917334
0003b0 8e 8d c2 be 39 ed 76 be 48 aa f1 bc 08 bf 1c 3e
       -0.37998623 -0.24113931 -0.029500142 0.15307248
0003c0 43 1a a1 bc 30 d8 8a be 0a 8c e0 be 13 28 81 3e
       -0.019665843 -0.27118063 -0.4385684 0.25225887
0003d0 4a 1c 07 3e 2b 49 37 3e 09 e0 c9 be 57 a8 9e be
       0.13194385 0.17899005 -0.39428738 -0.30987808
0003e0 4c 0e a1 3b 93 2d 2f 3e 02 1c ad bb d1 1e 19 be
       0.0049150344 0.17107229 -0.00528288 -0.14953162
0003f0 82 1a 82 be 54 fd 9f bc 1e 77 b5 3c 18 38 98 3e
       -0.2541085 -0.019529976 0.022151526 0.29730296
