Chapter2:FGMPINN/TrainedMLPs/PIML/WM/W_6.npy (npy, 2048 bytes, 1 tensors)

array f4 [24, 20]
00000000: 1006 013d 6655 86be 5729 80be fa93 5dbe
00000010: fa49 053e 070d 573e 5968 7cbd 8335 38be
00000020: 8143 193e 3b40 d8be 9ae5 0dbd 40ed 3f3e
00000030: aa24 eebe 4cc2 083e b30c 0ebf 34f4 efbb
00000040: 866b 7abe b1ab 003d 6689 b9bd 7757 67bd
00000050: b246 863d be37 38bd 300b 363d 71d9 bc3d
00000060: 6c81 0e3f 9869 933c 15c8 4f3d 0dce ba3d
00000070: 35b5 ea3d 7603 18bf e780 61be 9694 3c3f
00000080: b4cb a53e 76d1 43be d7d7 f7be 1129 b2bd
00000090: df30 de3d 0d4e a4be d7c1 0f3e fac8 a9be
000000a0: 79db 6a3d 3136 ec3e ab20 4f3e 1d8e ccbe
000000b0: 89f6 a7bd ff72 c53e 64a0 2abe 02b6 94be
000000c0: 23da 03be 97b7 ccbe 39c6 e83d 66ba 3abe
000000d0: 5158 503f 9c5f 1dbe f5a5 d83e 452c 773e
000000e0: d96d 5c3f 92a5 503e beb0 2bbf 5c81 a33d
000000f0: 19de 32bd 981e 8dbe 6adf 44bf 5ae7 39be
00000100: a4cb 23be 90a6 943d 7807 24bf 6b1d 08bf
00000110: 69d0 92be 35ad 23bf 7949 00bd 3c02 35be
00000120: 5523 d0be f697 d23e 3aa2 3c3e 95ad 6a3d
00000130: fe42 13bc 0a43 f63d d9df 073f 5f32 183e
00000140: 4025 52bd ca2b bebe 69b8 e33e 43ea 6dbe
00000150: 9c59 893e fb4a 233f ddc0 3a3f b919 ccbd
00000160: ea76 193e 74eb 153e 8ad2 aa3c 8ca6 e2be
00000170: fffa 31bf 9532 c73d 802a 4b3e 789d 6abd
00000180: 8170 37bf 436f d23d 7d36 9f3e 2b97 34be
00000190: 9d22 91bd 62c8 9a3e 6075 dcbd a661 cc3e
000001a0: 1b02 393e 0a6a 573e b4fb a23e 235c f13e
000001b0: f1fa 783d d48e fb3e 1345 18be 189e e1bd
000001c0: 2d4d 56bc 31d0 7bbc 56c9 92be a74d 993e
000001d0: ba13 79be 53f7 8d3d fa3e b83e 2de8 893e
000001e0: 5190 a23d ec89 063e fc1e b93e 61c1 c8be
000001f0: d59b 10be 55ab 203f c5bf f53e 600a fa3d
00000200: 0a48 38be d5d7 adbe 82d4 33bd a51b b2bd
00000210: b316 b9be c265 ae3e 4bf3 a2be b5a5 91bc
00000220: 1638 8f3d 65cf fb3d de82 cd3c d6a0 ec3e
00000230: 80be a13d 87e5 64bf fcd9 88be 05bf cebe
00000240: da31 b7be 1c6a bbbe 0213 b1be 98ac b7be
00000250: 57e2 a03e c933 46be 4ca5 4ebd 10f4 a13e
00000260: 5bea b1be 80c9 a7be 1f22 973e b18e 99be
00000270: 05e5 21bf 5ff7 e2bd 6482 bcbd de8f 8e3e
00000280: 44c9 003e 0100 3dbe 18e7 4a3d af5d eebd
00000290: ce09 76be 3714 8bbe 3d6d 033e a22c c03e
000002a0: 32da 5a3e bf63 99be 9819 debd 2a9a 563e
000002b0: f867 dbbe da64 eabe cfaf ffb9 e9b8 a2be
000002c0: 18ff 80be 5d58 47be 54cc f3be f3a3 0c3c
000002d0: 49e8 dd3d 5a39 fcbe 1a14 a7be 1e25 8bbf
000002e0: f91d 70be cd53 113e 7e7a a5bd d102 4ebf
000002f0: 7f48 ae3e f65d 1d3b b4e6 e9ba 5516 bd3d
00000300: d595 97bb f1ca d6bd 65c6 4a3e 97da 943e
00000310: fd48 14bf 488b 2dbe 790d 82be 2ca5 9bbe
00000320: 0805 4cbd 3fc0 b6bd 8c84 22be 6dd4 39be
00000330: 7b01 12bf dc04 af3e f707 bfbe 3d65 7bbe
00000340: ce09 98be 1f88 60be 19c4 17be 9abf d23e
00000350: f8b6 97be edcf 0c3d ff44 c4bd 4cbc 96bc
00000360: df53 943d f2e8 943e 7e63 413e 67e4 d1be
00000370: adcb 563d 55c0 a4be 6fff 88bd 211c 82bf
00000380: fcfc fabd 0401 413e 1a7c bcbe 53bf 3ebf
00000390: 1db4 c73e c8a2 8cbe f679 13be a254 2ebc
000003a0: 9847 043f cc62 0ebf 95bc aa3e 25c4 78be
000003b0: 04df 9d3e b4be 123e 7c54 093f 84f2 973e
000003c0: 0381 d6bd c691 b83e ddf7 c53e 9f46 913d
000003d0: 3e2b c6be a1c1 11be 649c 85bd b90a 1abe
000003e0: 6fb2 dd3e f300 abbe 5d5b 893d 915f aebd
000003f0: 3887 aabe ec90 92bd c3e8 20be b15f c63d
0.031499922 -0.2623703 -0.2503154 -0.2163848 0.13016501 0.21001063 -0.06162295 -0.17989163
0.14967157 -0.42236504 -0.034642793 0.18742847 -0.46512347 0.13355368 -0.5548813 -0.0073228125
-0.2445508 0.031413738 -0.0905941 -0.056479897 0.06556453 -0.044975035 0.044444263 0.09221161
0.5566623 0.017994687 0.050727922 0.09121332 0.11460344 -0.5938028 -0.22021829 0.73664224
0.32381976 -0.19122872 -0.4840686 -0.08699239 0.10849165 -0.32090798 0.14038788 -0.33161145
0.05733821 0.46135095 0.20227306 -0.39952174 -0.0820132 0.38564298 -0.16662747 -0.2904511
-0.12876181 -0.39983818 0.11365933 -0.18235168 0.8138476 -0.15368503 0.42314115 0.24137981
0.86105114 0.2037566 -0.6706656 0.07983658 -0.04366884 -0.27562404 -0.769034 -0.1815466
-0.15995651 0.07258332 -0.64073896 -0.5316989 -0.2867463 -0.6393617 -0.03132007 -0.17676634
-0.40651956 0.41131562 0.1842126 0.057294447 -0.00898814 0.120245054 0.5307594 0.14862965
-0.051305056 -0.37142783 0.4447663 -0.23233895 0.2682618 0.63786286 0.72950536 -0.09965844
0.14986768 0.146406 0.020852346 -0.4426769 -0.69523615 0.09726445 0.19840431 -0.05727908
-0.7165604 0.10275128 0.3109626 -0.17635791 -0.0708668 0.30231005 -0.10764575 0.3991825
0.1806721 0.21036544 0.3183266 0.47140607 0.06078619 0.49132407 -0.148701 -0.11016482
-0.013079924 -0.015369461 -0.28669232 0.29942057 -0.24323931 0.06931939 0.35985547 0.2693495
0.079376824 0.1313855 0.36156452 -0.39210036 -0.14121945 0.6276143 0.4799787 0.1220901
-0.1799623 -0.3395373 -0.043903835 -0.08696679 -0.3615013 0.3406201 -0.31826243 -0.01777921
0.069931194 0.12295417 0.025086816 0.46216458 0.07897663 -0.8941273 -0.2672881 -0.4038011
-0.3578022 -0.36604393 -0.34584814 -0.35873866 0.31422684 -0.19355692 -0.050450608 0.31631517
-0.34749112 -0.3277092 0.2951822 -0.29991677 -0.6324008 -0.110823385 -0.092045575 0.27844137
0.12576777 -0.18457033 0.049536794 -0.116389625 -0.24027178 -0.2716386 0.1283464 0.37534052
0.21372297 -0.29958913 -0.10844725 0.20957246 -0.4285276 -0.4578007 -0.00048768378 -0.317817
-0.2519462 -0.19467302 -0.47616827 0.00858401 0.108353205 -0.49262506 -0.32632524 -1.0870702
-0.23448934 0.14192124 -0.08080004 -0.8047305 0.34039685 0.0024012304 -0.0017845244 0.09232775
-0.0046260157 -0.10487927 0.19802244 0.2907302 -0.5792387 -0.16947663 -0.25400904 -0.30399454
-0.049809486 -0.08923387 -0.15870875 -0.1814744 -0.5703351 0.34183395 -0.37310764 -0.24550338
-0.2969498 -0.21926926 -0.14820899 0.41161805 -0.29631782 0.03437798 -0.095834725 -0.018400334
0.0724256 0.29083973 0.1888561 -0.4099457 0.052440334 -0.32177988 -0.06689345 -1.0164834
-0.12255284 0.18848044 -0.36813432 -0.7451069 0.39004603 -0.27467942 -0.14401993 -0.010640295
0.51671743 -0.556195 0.33347002 -0.24293573 0.3083421 0.1433056 0.5364454 0.29677212
-0.10473826 0.36048716 0.38665667 0.07093548 -0.38704866 -0.1423402 -0.0652397 -0.15043153
0.43300197 -0.33399162 0.06706879 -0.085143216 -0.3330629 -0.07156548 -0.15713792 0.096862204
