Chapter4:HPOptimization/TrainedMLPs/PCA/Group9/W_2.npy (npy, 2368 bytes, 1 tensors)

array f4 [20, 28]
000000 a2 40 85 3e 5d b7 38 3e 86 f3 f3 be 9a 27 17 bf
       0.26025873 0.18038698 -0.4764673 -0.590448
000010 35 e8 31 3e 6d e8 ce be d6 6e 92 be 8f f5 29 3d
       0.17373736 -0.40411702 -0.28600186 0.04149395
000020 22 83 f0 3e 2c 47 15 bf 76 02 9c bd 2a c9 60 3e
       0.46975046 -0.58311725 -0.07617657 0.21951738
000030 00 1d aa be 4f a4 56 3e 44 d1 04 be 9c 9b ca be
       -0.3322525 0.20961116 -0.12970454 -0.39571846
000040 6c 8d 61 bf 63 51 36 be 0b c0 32 3c 0e 6f 64 bd
       -0.8810642 -0.17804484 0.010910044 -0.055769973
000050 2d 53 b6 b9 4b aa a5 be bc 9d f6 be 39 b6 3e be
       -0.00034775716 -0.32356486 -0.48167217 -0.186242
000060 a5 e2 71 3d 1f fb e3 be 9f 1e a9 bd 14 c6 16 3e
       0.059054036 -0.44527528 -0.08257794 0.14723998
000070 f7 ef 8b 3c 87 8b 2f bc c5 41 dc 3e da 90 9d be
       0.017082198 -0.010714418 0.43018928 -0.30774575
000080 34 f1 75 3e 35 b9 ec 3d b4 cb ea bd 7c 5b d7 3e
       0.24017793 0.11558763 -0.114646345 0.42061985
000090 a7 62 de bd f2 cb 06 be 96 85 ea bd b3 e0 23 3e
       -0.1085866 -0.13163736 -0.11451261 0.16003685
0000a0 12 b6 09 bf 9b d3 f4 3e b7 49 1c bf a2 5a 46 bf
       -0.5379344 0.47817692 -0.6104998 -0.77482045
0000b0 bb fb fe 3d 76 70 c2 be 0f ae 5c 3e f9 37 9c 3e
       0.124503575 -0.37976426 0.21550773 0.30511454
0000c0 39 08 04 bf 4c 64 fb be 2a 46 ca be c0 b5 b4 be
       -0.51575047 -0.49099958 -0.39506656 -0.35294914
0000d0 a9 3e 7a 3e 69 6f 08 bf ed 52 b9 3e b5 34 0b bf
       0.24437965 -0.53295 0.3619608 -0.543773
0000e0 92 10 dd 3b f4 20 dc 3c c1 61 3b 3d ab 63 f0 bd
       0.00674636 0.026871182 0.045747522 -0.1173776
0000f0 84 19 0c 3e 19 26 92 3f 91 30 98 3c c1 02 22 bd
       0.13681608 1.1417876 0.018577846 -0.039553408
000100 56 58 30 be 22 32 a6 3e 8d c2 d7 3e 07 2d 4b be
       -0.17221197 0.32460123 0.42140618 -0.19841395
000110 45 9c 51 3e 3c 8f 12 3e 58 d9 c0 3e 33 45 24 3e
       0.20469768 0.14312452 0.3766582 0.16042022
000120 62 47 f0 3e fe 90 d0 3e cc dc 18 3f 5f f8 c3 3e
       0.4692946 0.4073562 0.5971191 0.3827543
000130 c1 95 e1 3b ef 01 bd 3e 49 a1 df 3e 51 b0 e3 be
       0.006884307 0.36915538 0.43677738 -0.44470456
000140 e3 54 c1 be 71 39 a7 3d 58 96 cb be 30 0a 03 3e
       -0.37760076 0.08165253 -0.3976314 0.12796855
000150 c9 a9 0d bf 24 4f dd bd 81 01 e7 be 37 cf 22 3f
       -0.55337197 -0.108061105 -0.45118335 0.63597435
000160 70 fc af 3e d6 65 9d be 7a 79 f3 be ef ea ab 3d
       0.34372282 -0.30741757 -0.47553617 0.083944194
000170 c5 40 8b 3d 26 27 1f 3f 90 e6 65 3e e7 f4 b1 be
       0.06799463 0.6216911 0.22451234 -0.34757158
000180 a7 e9 36 be fb b9 37 3f 3b 0d 84 be d0 9d 81 3d
       -0.17862569 0.7176816 -0.25791344 0.063289285
000190 52 1f ca 3e ad 45 46 3f af d7 8b 3e f6 b3 bd 3f
       0.3947702 0.77450067 0.2731299 1.4820545
0001a0 21 a3 92 3e f5 df 13 bf 0a b5 91 3e 8b 68 c4 be
       0.28640082 -0.57763606 0.28458434 -0.3836101
0001b0 ee 0d b5 3e 3d 0f 7b be d6 b8 85 be f9 6d 80 be
       0.3536219 -0.24517532 -0.2611758 -0.25083902
0001c0 39 03 55 3e 0b 82 43 be 11 09 cb be f0 a2 06 bf
       0.2080201 -0.19092576 -0.39655355 -0.5259237
0001d0 f2 90 23 3e 40 31 b7 bd aa 70 b5 be 2a 03 95 3e
       0.15973261 -0.089449406 -0.35437518 0.29103976
0001e0 68 6a b3 be 65 06 ac 3d 8d 9e 74 3e 38 2a 16 3f
       -0.3504212 0.08399657 0.23888607 0.5865817
0001f0 21 0f fb be 04 cd c5 be 31 80 c7 3e 5d fd c6 be
       -0.4903498 -0.38632977 0.3896499 -0.38865176
000200 70 1f 30 3f 53 7a fe 3e 0a 85 fb be 1c 07 4f 3e
       0.6879797 0.497027 -0.49124938 0.20217556
000210 f3 11 b3 be 74 15 d3 3e 3f 1c 49 3d 60 fe f3 3d
       -0.34974632 0.41227305 0.049099203 0.119137526
000220 a6 e0 58 3e 35 86 b7 3b e0 07 e9 be 13 7b 84 be
       0.21179447 0.0056007155 -0.4551382 -0.25875148
000230 09 fb 82 3e 63 99 e0 be 77 0f 66 3e d8 03 ce 3e
       0.2558215 -0.43867025 0.22466837 0.40237308
000240 5e d2 37 3e 56 08 c2 3e 5f a0 68 3e aa d7 97 3e
       0.17951342 0.37896985 0.22717427 0.29656726
000250 1c 6b 48 3d 67 ce ce be b6 bf 24 bf d0 57 ea 3d
       0.048930272 -0.40391847 -0.6435503 0.1144253
000260 05 23 75 be 0f 2c b9 be 52 2b 36 3f d4 67 15 3e
       -0.2393914 -0.36166427 0.7115985 0.14590389
000270 e9 28 8e bd ff 61 07 3f 0f 5d 79 3d e4 08 88 3e
       -0.06941397 0.52883905 0.060879763 0.26569283
000280 bd 9d cb 3e 48 f7 92 3e 21 16 37 be c7 67 a5 3e
       0.39768782 0.28704286 -0.17879535 0.32305738
000290 55 8e 42 3e 96 6f 5f be 38 2d c5 3c 50 3a 47 3e
       0.18999608 -0.2181991 0.024069414 0.19455838
0002a0 3f a4 f8 bd 41 23 5e bd ed 9b a4 be a4 b7 42 3f
       -0.121407025 -0.05423284 -0.32150212 0.76061463
0002b0 28 8b 64 3e c2 d9 61 3f 98 48 ef 3e a6 92 a2 be
       0.22318709 0.882229 0.46735072 -0.3175251
0002c0 58 66 7f be df 44 5b be 6f 89 c8 3d a4 00 78 be
       -0.24941385 -0.21412991 0.097918384 -0.24218994
0002d0 07 78 5f bf 97 15 fa bc c6 24 11 bf 43 f9 ea be
       -0.8729252 -0.030527873 -0.56696737 -0.45893297
0002e0 d2 9c 5d 3d 0e c6 30 3e d0 f8 1a 3f 8c 82 98 3e
       0.054104634 0.17263052 0.6053591 0.297871
0002f0 44 a6 27 3f 30 7e c6 3e 61 36 20 bd f5 fa 18 be
       0.65488076 0.38768148 -0.03911436 -0.14939483
000300 c7 93 9f 3e 9e c1 99 be 08 fd c1 be 73 44 c6 be
       0.31167433 -0.3003053 -0.3788836 -0.38724098
000310 e6 f1 5b 3e 07 4b 61 be bb 23 b0 3e 89 4b 9c 3e
       0.21478996 -0.22001277 0.3440226 0.3052638
000320 62 52 3e be 93 e5 64 3b e4 02 d6 3e 1f a0 15 3c
       -0.18586114 0.0034926876 0.4179908 0.009132414
000330 c2 0e e5 3e d5 e6 cd 3b f6 77 f7 3e 2f db 0b 3e
       0.44737822 0.006283621 0.4833371 0.1365783
000340 96 73 b6 3e 0e ac 46 be 45 96 cc bc 9d ab 95 be
       0.3563506 -0.19401571 -0.024973998 -0.29232493
000350 dc 10 d1 bd 52 94 59 be d3 c5 03 bf 33 89 f3 be
       -0.10208294 -0.21247986 -0.5147373 -0.47565612
000360 e3 95 88 be 03 e7 a3 be e1 68 28 bf c0 8a 0b 3d
       -0.26676854 -0.32012185 -0.6578503 0.03406787
000370 71 cd fe bd b5 f8 00 3f 7a fc df 3d c9 57 1a 3f
       -0.124415286 0.50379497 0.10936828 0.602902
000380 7b d7 b7 3d 42 a8 9e 3d 22 16 5e 3e cf 3b 29 bf
       0.089766465 0.077469364 0.2168813 -0.66106886
000390 3b 25 0a 3d ce e0 81 be f6 14 69 3e cb b7 0d bf
       0.033726912 -0.25366825 0.22761902 -0.5535857
0003a0 c6 6e d2 3e a6 e4 d3 3e 99 79 65 3e 9b 89 04 be
       0.41100138 0.41385382 0.22409667 -0.12943117
0003b0 75 dc b1 be c1 77 b6 3e 1c 7e f0 bd ca 34 40 bc
       -0.34738508 0.3563824 -0.117428035 -0.011731336
0003c0 22 e0 99 be c9 fd 2d bd 18 52 15 bd ef 95 39 bf
       -0.30053812 -0.042478357 -0.036455244 -0.72494406
0003d0 ec f3 a6 3e 86 fb 6d 3e a4 d0 21 bf 36 72 99 3d
       0.32607973 0.2324048 -0.63208985 0.07492487
0003e0 4d d4 a4 3e 85 f3 db 3d 83 9c 6d bd 44 2f 1e bf
       0.32193223 0.10739807 -0.05801059 -0.6179087
0003f0 3b a4 24 be 47 5c 7f be 49 4e ac 3e 55 c8 b7 3e
       -0.16078274 -0.24937545 0.33653477 0.3589503
