Chapter4:HPOptimization/TrainedMLPs/PCA/Group9/W_3.npy (npy, 3936 bytes, 1 tensors)

array f4 [28, 34]
-0.03738836 0.29362905 -0.51825047 -0.35690823 0.27227756 -0.32192367 -0.36363146 0.15071587
0.40550926 -0.26959312 -0.29545218 0.085014574 -0.22079748 0.155582 -0.12786381 -0.2898601
-0.32218644 -0.24207051 0.06555674 0.12031091 -0.06141784 -0.2371939 -0.34381545 -0.32149598
0.036463365 -0.43403256 -0.20573854 0.37761304 0.075918026 0.03876697 0.41761103 -0.11063585
0.107511975 -0.20664565 -0.09116722 0.6314507 -0.073010884 0.057705555 0.11325384 0.03507692
-0.14268641 0.29741666 -0.22954597 -0.3863159 0.016502913 -0.21875095 0.20916383 0.12953065
-0.31995538 0.1611855 -0.64293027 -0.31266612 0.22495987 -0.34634614 -0.35890645 -0.57508755
-0.13440917 -0.12888886 -0.07549858 -0.14520924 0.45104364 0.6677919 0.051451303 0.0023332231
-0.13842006 0.4538782 0.026342645 -0.22360353 -0.1448125 0.021150507 0.39904433 0.29293936
0.05572575 -0.16999196 0.053864755 0.14480703 -0.1422399 0.35540956 0.20188527 -0.54681814
-0.2516748 0.22874111 -0.23290014 0.41430432 -0.34197173 0.21604325 -0.6648145 0.2731595
-0.062143885 -0.19428994 -0.31721473 -0.30837998 0.0062157917 0.6490661 0.061524697 -0.3567392
-0.3468373 0.4364891 -0.2509997 -0.1265683 -0.021499483 -0.12895544 -0.03673449 0.29501116
-0.1203825 0.1720285 -0.21277393 -0.32840326 -0.038308706 -0.3125405 -0.5141708 -0.45034727
0.46525723 0.22240429 -0.15882683 -0.6367475 -0.046622604 0.52824956 -0.49412203 0.10116535
-0.3150579 -0.1594147 0.5691674 0.5974675 -0.0008206968 -0.38283423 0.35458022 -0.27141553
0.41254884 0.1266505 -0.42327777 -0.19944821 -0.49394363 0.36075756 0.110504285 0.023311235
0.22803102 -0.32486293 -0.43666247 -0.45118633 0.24241441 0.06091486 0.3063194 0.13045977
0.15960304 -0.4229806 0.14376636 0.03569767 0.035014283 -0.27112076 -0.6109844 0.21008839
-0.19065067 -0.28030905 0.118335724 -0.09091515 -0.380463 0.09423822 -0.54880714 0.068034835
0.010385123 0.40824735 -0.111544386 0.20620187 0.33327433 -0.19093893 -0.04539623 0.30592164
-0.45207223 -0.3835174 -0.25246644 0.59826565 0.51485044 0.52717286 0.47762454 -0.42942867
-0.2113467 -0.1825891 -0.40391263 -0.045864347 0.07816992 -0.025926463 -0.29483348 -0.19604242
0.09545082 0.14255828 0.45368525 0.08958601 0.49780595 0.55653787 0.087257735 -0.4357143
0.45896134 -0.46013427 -0.27266452 -0.18072939 0.21788692 -0.27666238 0.30374712 0.115575746
0.1971322 0.10568555 0.9167192 0.33433524 0.48223966 -0.09014588 0.83688235 0.20031047
0.3203872 -0.10729297 -0.013785993 -0.21915065 -0.38016275 -0.33900118 -0.34837645 -0.5327199
-0.047806278 -0.12177468 -0.4304541 0.24944246 0.06367237 0.21882549 -0.21635412 0.21722978
-0.33711 0.1451219 0.3596993 -0.43628833 0.12728077 -0.1967672 -0.01636532 -0.2599561
0.3675201 0.40285212 0.15429395 0.021162404 -0.57538086 0.40426567 0.056149967 0.15339503
0.030542113 0.21670428 -0.23815382 -0.15612341 0.29975352 0.17043586 -0.23845008 0.04142008
0.11526335 -0.19236451 -0.028147755 -0.12471931 0.29466075 -0.16907611 0.40986118 0.24411146
00000000: 8924 19bd 8c56 963e 10ac 04bf adbc b6be
00000010: f767 8b3e 2ed3 a4be e72d babe 4355 1a3e
00000020: e99e cf3e 1c08 8abe 8245 97be 1f1c ae3d
00000030: bc18 62be e350 1f3e bbee 02be 8b68 94be
00000040: 9ff5 a4be 55e1 77be 9d42 863d 9165 f63d
00000050: 4691 7bbd f5e2 72be 9408 b0be 1f9b a4be
00000060: 9c5a 153d 8439 debe 20ad 52be 7f56 c13e
00000070: e97a 9b3d 1dca 1e3d 1dd1 d53e 0c95 e2bd
00000080: 3d2f dc3d eb9a 53be e1b5 babd c1a6 213f
00000090: bb86 95bd a95c 6c3d a1f1 e73d d1ac 0f3d
000000a0: 631c 12be ff46 983e 190e 6bbe 33cb c5be
000000b0: 1e31 873c 4000 60be 0b2f 563e afa3 043e
000000c0: 31d1 a3be d00d 253e 1497 24bf c615 a0be
000000d0: e15b 663e 4854 b1be 96c2 b7be f038 13bf
000000e0: 8fa2 09be 71fb 03be 009f 9abd bbb1 14be
000000f0: 31ef e63e 69f4 2a3f 9abe 523d fde8 183b
00000100: fdbd 0dbe b962 e83e 88cc d73c 53f8 64be
00000110: ba49 14be d443 ad3c 8a4f cc3e 26fc 953e
00000120: af40 643d 5f12 2ebe 4aa1 5c3d 4b48 143e
00000130: 56a7 11be 3ef8 b53e 03bb 4e3e 46fc 0bbf
00000140: 85db 80be 1c3b 6a3e 607d 6ebe b21f d43e
00000150: eb16 afbe 713a 5d3e 4831 2abf 90db 8b3e
00000160: 968a 7ebd f1f3 46be f869 a2be fbe3 9dbe
00000170: d7ad cb3b 3229 263f 5201 7c3d 85a6 b6be
00000180: a994 b1be 807b df3e 0883 80be 1f9b 01be
00000190: af1f b0bc e50c 04be e876 16bd b40b 973e
000001a0: 1a8b f6bd 3d28 303e 69e1 59be 7924 a8be
000001b0: 97e9 1cbd 4f05 a0be b3a0 03bf eb93 e6be
000001c0: 3236 ee3e f3bd 633e 80a3 22be e201 23bf
000001d0: 58f7 3ebd 5d3b 073f 90fd fcbe c72f cf3d
000001e0: 454f a1be 9b3d 23be f4b4 113f a1f3 183f
000001f0: 0824 57ba d902 c4be 8a8b b53e faf6 8abe
00000200: 9a39 d33e abb0 013e ddb7 d8be 273c 4cbe
00000210: 2ee6 fcbe 37b5 b83e 1250 e23d 34f7 be3c
00000220: f780 693e 6f54 a6be 3992 dfbe e501 e7be
00000230: 7c3b 783e dc81 793d e5d5 9c3e 3f97 053e
00000240: fb6e 233e ea90 d8be 7d37 133e b837 123d
00000250: 236b 0f3d 57d0 8abe 7969 1cbf 6921 573e
00000260: ee39 43be ab84 8fbe 005a f23d b931 babd
00000270: 0ccc c2be f8ff c03d a07e 0cbf d955 8b3d
00000280: 5d26 2a3c cc05 d13e 6271 e4bd 9526 533e
00000290: efa2 aa3e 7f85 43be 66f1 39bd c3a1 9c3e
000002a0: 0376 e7be 655c c4be 4843 81be f027 193f
000002b0: 3dcd 033f cdf4 063f 348b f43e 13de dbbe
000002c0: 456b 58be a3f8 3abe a3cd cebe 41dc 3bbd
000002d0: 8d17 a03d bc63 d4bc 6af4 96be 58bf 48be
000002e0: b87b c33d ccfa 113e 6f49 e83e df78 b73d
000002f0: 6ce0 fe3e 4479 0e3f 2fb4 b23d f215 dfbe
00000300: fbfc ea3e b896 ebbe af9a 8bbe 2011 39be
00000310: c01d 5f3e b1a6 8dbe be84 9b3e fab2 ec3d
00000320: 06dd 493e aa71 d83d 1cae 6a3f fd2d ab3e
00000330: 1ee8 f63e 679e b8bd ec3d 563f 301e 4d3e
00000340: cb09 a43e 6bbc dbbd a5de 61bc 0769 60be
00000350: b1a4 c2be 9091 adbe 665e b2be 5560 08bf
00000360: 84d0 43bd 0165 f9bd 7b64 dcbe d86d 7f3e
00000370: a966 823d ca13 603e ef8b 5dbe 7c71 5e3e
00000380: af99 acbe d69a 143e 822a b83e 2f61 dfbe
00000390: e455 023e 577d 49be 9010 86bc f718 85be
000003a0: 982b bc3e a242 ce3e 3cff 1d3e c75c ad3c
000003b0: 294c 13bf e9fb ce3e 82fd 653d 9613 1d3e
000003c0: 7433 fa3c bae7 5d3e 98de 73be d1de 1fbe
000003d0: 4b79 993e bd86 2e3e 422c 74be 1aa8 293d
000003e0: 310f ec3d 34fb 44be 1f96 e6bc d66c ffbd
000003f0: c6dd 963e 4a22 2dbe 53d9 d13e 5bf8 793e
