Chapter4:HPOptimization/TrainedMLPs/PCA/Group1/W_2.npy (npy, 2368 bytes, 1 tensors)

array f4 [20, 28]
000000 e4 80 0c 3e 5d 86 1e bf 46 a7 98 bd cc c8 8e bf
       0.13721043 -0.6192377 -0.0745378 -1.1155028
000010 f1 1a 6e be 40 b7 03 bf 56 51 4a 3f 87 f7 8f be
       -0.23252465 -0.5145149 0.7903036 -0.28118536
000020 a1 c5 42 bf 75 b8 93 3d 80 84 0a 3f 13 58 f3 3c
       -0.7608281 0.07212917 0.5410843 0.029705083
000030 c6 ac fe 3e f2 38 d0 be 99 b6 28 be 8c fb ae 3c
       0.4974119 -0.40668446 -0.16475905 0.021360181
000040 b6 4d 23 3f ae b5 0c be 5e c4 ef be 77 ed 7e be
       0.6379045 -0.1374118 -0.46829504 -0.24895273
000050 30 5f 64 3e 5b c5 f3 3d 22 09 28 3e f4 70 12 3f
       0.22301936 0.11902877 0.16409734 0.572036
000060 11 c4 06 3f 30 f5 b3 bf 18 54 47 3e be eb ae 3e
       0.52642924 -1.40592 0.19465673 0.34164232
000070 6c bd 13 3f 25 fa 65 bf ed 74 a7 be fc 03 bb be
       0.5771091 -0.89834815 -0.32706395 -0.36526477
000080 22 55 f1 3a 45 0e 75 be 94 43 ce bd fe 34 eb 3d
       0.0018412212 -0.23931225 -0.10071483 0.11484717
000090 cc 20 69 bd 9a 60 8c be 59 4d 03 bf 71 91 1d be
       -0.056916043 -0.2741745 -0.512899 -0.15387513
0000a0 d8 4a 19 3e f5 98 71 3f 16 7a 29 3f 9c 8a 0a be
       0.14969957 0.9437402 0.66201913 -0.13529438
0000b0 24 f3 13 3f fe 30 82 3e 4a 87 10 3e 71 53 a4 bd
       0.5779288 0.25428003 0.14114109 -0.08023728
0000c0 dd e6 e6 be e9 c4 41 3f 75 06 d1 3e 6c ec 03 3e
       -0.4509801 0.75691086 0.4082524 0.12883157
0000d0 05 95 d3 be 10 b6 6e 3e be 69 de 3e c3 b9 0d 3e
       -0.4132463 0.23311639 0.4344005 0.13840394
0000e0 05 e9 4e be 2d a1 ac 3e 2a 5f ed be b3 c3 84 be
       -0.20206077 0.33716717 -0.46361667 -0.25930557
0000f0 eb 16 6e be 55 bb b5 bd 23 f3 b4 3e c3 68 ed 3e
       -0.2325093 -0.088736214 0.3534175 0.4636899
000100 b4 9f 5a be 42 71 59 bf a8 4f f3 3e 2b 41 c5 3d
       -0.21349984 -0.8493844 0.4752171 0.096315704
000110 4b 3b eb 3e fe 82 a2 be 5a 88 fe be 0b 80 d8 3e
       0.45943674 -0.31740564 -0.49713403 0.4228519
000120 a4 20 31 be 73 fb f9 bd 4b e4 87 be 61 ee f3 be
       -0.17297608 -0.12206163 -0.2654136 -0.47642806
000130 65 cf 33 3e e0 07 c6 be c5 74 bf 3d 20 29 66 3e
       0.17559583 -0.38677883 0.09348444 0.22476625
000140 df e2 98 be 54 25 49 3e 4a 81 cc be 65 2d 03 3f
       -0.2986059 0.19643146 -0.3994239 0.5124114
000150 f6 fe 25 3f 0a eb 89 bd 13 93 1b 3e ed dd 05 bf
       0.64842165 -0.06734283 0.15192823 -0.52291757
000160 9e d8 02 be 16 8f d2 3d c7 a5 4e bf 5d 26 fe 3d
       -0.12777945 0.10281198 -0.80721706 0.12409661
000170 10 03 98 3e 3d 83 97 bc 85 b1 10 be d8 bc 7b 3d
       0.29689837 -0.018495196 -0.14130218 0.061459392
000180 e6 2a a6 3e 4b 30 0a be 23 68 7a be 92 63 b7 be
       0.32454604 -0.13494985 -0.24453788 -0.35818154
000190 0e 04 38 3f 86 0d b0 bd 82 d3 8b bd 47 1a 64 3e
       0.71881187 -0.085963294 -0.06827451 0.22275649
0001a0 11 0d f2 3d ac 15 88 be c0 d9 80 be 69 fd 1d 3f
       0.118188985 -0.26579034 -0.2516613 0.617148
0001b0 48 66 cc 3e 3d de 31 bf 41 cc 82 ba c7 69 fc be
       0.39921784 -0.69479734 -0.0009979085 -0.49299452
0001c0 4f 35 fb 3e f0 23 42 3f b6 f4 4d be b2 90 36 bf
       0.4906411 0.75836086 -0.20112881 -0.7131454
0001d0 89 dc c4 be 66 1d b8 bd d0 10 80 3e 71 5c dd bc
       -0.38449505 -0.08989982 0.25012827 -0.027021619
0001e0 80 33 61 bf 10 c9 09 3f 45 7d 69 3e b8 8c 12 3d
       -0.8796921 0.5382242 0.22801693 0.03577873
0001f0 17 db 98 be 0e ca bc bf bb 7c 19 bf 29 a7 c0 3e
       -0.29854652 -1.4749162 -0.5995595 0.37627533
000200 74 9c 0e 3f 95 7d 65 3e 45 ac dc bd 93 d5 02 3f
       0.5570748 0.22411187 -0.10775045 0.5110714
000210 9a b5 96 3d 7b d1 f5 3e 2f b5 0a be 3c 8c be 3e
       0.073588565 0.48011383 -0.13545679 0.37216365
000220 28 22 12 3f 9e fe 01 bf a1 fe e4 be 8f 56 9b be
       0.5708337 -0.5077914 -0.44725516 -0.30339476
000230 0c b1 15 3f 44 b3 16 bc cd 52 34 be 40 f4 96 3e
       0.5847328 -0.009198014 -0.17609711 0.29483223
000240 0f 38 e2 bd 44 a5 94 3d 6b 9e 7f 3e ea 5f d6 3e
       -0.110458486 0.072580844 0.24962775 0.41870052
000250 a3 fe 1e bf 4d b1 8d be 61 21 eb 3e 62 6f 1f bf
       -0.62107295 -0.27674332 0.45923904 -0.6227933
000260 d2 64 40 3e 90 b8 1f 3f 63 18 3b bb 8d ab 58 be
       0.1878846 0.62390995 -0.002854847 -0.21159191
000270 98 02 c3 bd da e9 e2 3e ce de 38 3e 7c 79 be 3d
       -0.09521979 0.4431904 0.18053743 0.09300515
000280 95 f7 00 be 54 ce 89 bd 33 7a f2 bd 6c ec 33 3f
       -0.12594445 -0.06728807 -0.11839714 0.70282626
000290 4d 35 a1 be 3f b9 38 3e 79 f4 7f 3e b5 45 b0 3e
       -0.31485978 0.18039416 0.24995603 0.34428182
0002a0 30 8d 17 bf 44 86 2d bf 73 01 b2 3e 8f f1 af 3e
       -0.5919981 -0.67783 0.3476673 0.34363982
0002b0 5b 7f 12 3e c4 62 06 bf 65 9f f1 bd bb 63 e8 3e
       0.14306395 -0.52494454 -0.1179798 0.45388588
0002c0 63 64 a1 3e 11 eb 60 3e d4 c1 c9 3e ac 37 70 3e
       0.315219 0.2196467 0.39405692 0.23458737
0002d0 89 34 ec be b0 c6 51 be 39 21 58 bf e0 c2 69 be
       -0.4613383 -0.2048595 -0.84425694 -0.22828245
0002e0 aa b0 04 be 69 5e cc bd d7 37 ab 3e 5b 3c 10 3d
       -0.12958017 -0.09978945 0.3344104 0.03521381
0002f0 b0 ee 38 be 42 20 65 be 64 5d 07 bf b5 3d d5 be
       -0.18059802 -0.22375587 -0.5287688 -0.4164864
000300 0e 4b f0 3e 39 ef 11 be 3e 7e f8 3d 3d 5a 10 bf
       0.46932262 -0.14251412 0.12133454 -0.5638769
000310 81 f9 04 be 6d 59 62 bf dd 0d 46 be 08 86 2b bf
       -0.12985803 -0.884177 -0.19341226 -0.6700139
000320 fb 58 31 3e 75 f6 c2 3e bf 52 6f 3f 48 9e 88 be
       0.173191 0.38078657 0.93485636 -0.2668326
000330 85 9a ab bf 5b c4 b8 be d1 02 50 be 4c 44 a0 bd
       -1.3406531 -0.36087307 -0.20313574 -0.078255266
000340 35 da b8 3e 67 71 52 bf 72 a3 51 bf ea 7a ba 3e
       0.3610398 -0.8220429 -0.8189002 0.364219
000350 27 02 1a 3f b0 42 41 3e 1a d4 b9 bd 94 97 ec bd
       0.60159534 0.18873096 -0.09073658 -0.11552349
000360 dc 3e c9 be 86 24 6f 3e d0 33 d7 3e ea ac 12 be
       -0.3930577 0.23353776 0.42031717 -0.14323774
000370 08 09 bf be 6e 9b 30 bf 98 60 06 bf 94 fc c7 3e
       -0.37311578 -0.68987167 -0.5249114 0.3905989
000380 d0 1d 09 bf d2 29 c9 3e 2b ce 3c 3d 5d 0d db 3c
       -0.53561115 0.3928972 0.046095055 0.02673977
000390 64 4c 87 3e da e8 24 bf 70 de 12 3f 86 85 26 3e
       0.2642547 -0.64417803 0.5737066 0.16261873
0003a0 10 81 17 3e 35 0a 93 be 23 2c bb be 1b a9 31 3c
       0.14795327 -0.28718725 -0.3655711 0.010843541
0003b0 79 7a df be 27 2a 38 bf ac 21 d8 bd 3f a3 7d be
       -0.43648127 -0.7193932 -0.105532974 -0.24769305
0003c0 32 92 08 be 60 f7 f7 bd 31 5a 0a 3e f2 42 84 3e
       -0.13337019 -0.1210773 0.13510968 0.25832325
0003d0 cf c0 b4 3d b7 4f c4 be fa 1a b6 3e 82 80 ed be
       0.08825838 -0.38342068 0.35567456 -0.46387106
0003e0 46 39 05 3e 9e f2 ed 3d 63 22 89 bf d0 57 c2 be
       0.1301013 0.11618541 -1.0713619 -0.3795762
0003f0 b9 49 4b 3e e9 c0 f9 3e a4 db 93 3d 4d 11 c1 be
       0.19852342 0.4877999 0.072196275 -0.37708512
