Chapter4:HPOptimization/TrainedMLPs/PCA/Group1/W_6.npy (npy, 2048 bytes, 1 tensors)

array f4 [24, 20]
-0.26243412 -0.26879376 -0.120230526 0.046945106 -0.13924873 0.14716332 0.0056421566 -0.09858376
0.14060931 0.019934274 0.11345893 0.11922831 -0.08682958 0.333341 -0.20058805 -0.094486795
-0.057016592 -0.13360192 0.099703304 0.069002405 0.25458267 -0.24850634 0.2988861 -0.19457829
-0.13439032 -0.035563342 0.042625535 0.34673744 0.286588 0.26261175 0.31293905 0.029813357
-0.41367415 0.46587297 -0.27523372 0.029468706 -0.17485306 0.009929821 -0.13820873 -0.44807643
0.42601272 0.08979639 -0.05933997 0.14960517 0.226012 -0.19415101 -0.33535326 0.04953046
-0.036176633 0.019401483 -0.011996698 -0.02731689 0.2679375 0.19528009 -0.28107506 0.096861996
-0.009315642 -0.21374068 -0.13251904 -0.07062501 0.107846096 -0.15917979 0.0048970706 0.0024662844
0.093857855 0.04793481 0.1898592 -0.011607207 -0.02033909 -0.16877337 -0.40896475 0.021790782
0.10551946 0.032711472 -0.030591138 -0.0831103 0.015883878 0.1291686 0.03378022 0.00063458865
0.022202607 -0.15905726 0.044037182 -0.05144761 0.25681734 0.0074259695 -0.24159668 0.33739272
0.16118266 0.26275632 0.33569172 -0.61541474 -0.726892 -0.4001747 -0.25621247 0.067702636
-0.32934374 -0.35054457 -0.1267065 0.23957677 -0.4844485 -0.22152282 -0.2890999 0.1310407
0.52024996 0.04471858 -0.24238402 0.103612766 0.28970948 -0.03986995 0.0754361 -0.038733497
-0.09694022 0.03905469 0.12019746 0.05607089 -0.2674082 -0.4114768 -0.016972542 -0.4054274
-0.1336701 0.5896757 -0.115121245 0.11593732 -0.070585325 -0.043169145 -0.15861814 -0.0689911
0.025871677 -0.11533717 0.0032180129 0.006442616 -0.21785331 0.045470648 -0.34752977 -0.011733753
-0.023160696 -0.042273782 0.047757346 0.044830747 -0.11679365 -0.5717903 -0.09268647 -0.057402696
0.4292764 0.040875506 -0.024753127 -0.15380652 -0.15143064 -0.092084676 -0.044888865 0.06090879
0.089192376 0.25727654 -0.08996016 -0.041592404 0.20201191 -0.061853673 0.094868794 0.16384444
-0.104086176 -0.0634211 -0.09740057 0.112162866 -0.29200247 0.03531433 0.054731183 -0.23113264
0.5615593 -0.21218781 -0.20022856 -0.34533265 -0.33826584 -0.123760305 0.16843529 -0.039298307
0.25467485 0.09243853 0.0925284 0.2135799 -0.09273832 0.25539726 -0.021380339 0.011219573
-0.32392636 0.015536029 -0.056651324 -0.05680129 -0.6858414 -0.071151845 0.03914815 -0.16711505
0.2555327 0.30920276 -0.36071035 -0.031059485 -0.45137808 -0.06809992 0.029484453 0.118009165
0.2185172 -0.059407678 0.16743743 -0.13951096 -0.115617126 -0.04136232 -0.079947785 -0.049070902
0.679757 0.27916732 0.2966869 -0.50546026 0.40450472 -0.33008236 -0.10670177 0.060491093
0.26580468 -0.16329537 -0.17140584 -0.20136099 -0.4419414 0.29348227 -0.014378774 0.006747673
-0.28776857 0.1391769 0.036683142 0.06190525 0.040763363 0.22885586 0.3437154 -0.090887085
0.26109987 -0.15312509 0.078451246 -0.024448918 -0.14514144 -0.0897835 -0.08460669 -0.045085516
0.07497884 0.29765236 0.06899607 -0.04734189 -0.08300823 0.006683332 -0.0298879 -0.08015794
-0.09335185 0.0006063128 0.049230803 -0.39131522 -0.4110858 0.4477623 -0.3028265 -0.073882684
00000000: c45d 86be 569f 89be 6c3b f6bd 8349 403d
00000010: 3897 0ebe fbb1 163e d7e1 b83b 48e6 c9bd
00000020: e3fb 0f3e 344d a33c 285d e83d f92d f43d
00000030: b5d3 b1bd acab aa3e f466 4dbe 4b82 c1bd
00000040: 3b8a 69bd f1ce 08be 3f31 cc3d 2251 8d3d
00000050: a958 823e 7278 7ebe 9907 993e 883f 47be
00000060: 9e9d 09be deaa 11bd 1d98 2e3d 9287 b13e
00000070: aabb 923e 0c75 863e 8c39 a03e 243b f43c
00000080: 19cd d3be e786 ee3e 6feb 8cbe 5b68 f13c
00000090: ae0c 33be b0b0 223c 9786 0dbe 466a e5be
000000a0: 571e da3e 2be7 b73d 780e 73bd 1932 193e
000000b0: b16f 673e 86cf 46be 6cb3 abbe 74e0 4a3d
000000c0: f32d 14bd dcef 9e3c cc8d 44bc acc7 dfbc
000000d0: 1b2f 893e 81f7 473e 12e9 8fbe 955f c63d
000000e0: a2a0 18bc d6de 5abe 12b3 07be d8a3 90bd
000000f0: 6ade dc3d 0700 23be 9b77 a03b 63a1 213b
00000100: 8c38 c03d 4b57 443d 736a 423e 282c 3ebc
00000110: 2a9e a6bc edd2 2cbe d463 d1be 9582 b23c
00000120: 961a d83d 77fc 053d 449a fabc bc35 aabd
00000130: e81e 823c c644 043e 215d 0a3d 865a 263a
00000140: 3ee2 b53c e8df 22be 5560 343d bbba 52bd
00000150: 907d 833e 8c55 f33b 1f65 77be bdbe ac3e
00000160: 110d 253e ff87 863e c9df ab3e d28b 1dbf
00000170: 9815 3abf b3e3 ccbe 482e 83be aea7 8a3d
00000180: be9f a8be 947a b3be 59bf 01be 9d53 753e
00000190: a209 f8be e1d6 62be e704 94be 892f 063e
000001a0: 1a2f 053f d42a 373d 8433 78be ee32 d43d
000001b0: cd54 943e ac4e 23bd 3e7e 9a3d 04a7 1ebd
000001c0: 9888 c6bd d0f7 1f3d 162a f63d 97aa 653d
000001d0: bae9 88be 16ad d2be 000a 8bbc 2e94 cfbe
000001e0: d1e0 08be fdf4 163f b0c4 ebbd 8c70 ed3d
000001f0: 0a8f 90bd 21d2 30bd cb6c 22be 354b 8dbd
00000200: d7f0 d33c e535 ecbd 4ce5 523b 951c d33b
00000210: f014 5fbe 6e3f 3a3d 6cef b1be ed3e 40bc
00000220: 80bb bdbc 4627 2dbd 359d 433d 72a0 373d
00000230: 8231 efbd d960 12bf 67d2 bdbd 171f 6bbd
00000240: 1eca db3e 136d 273d 12c7 cabc 757f 1dbe
00000250: a210 1bbe e496 bcbd 63dd 37bd 7f7b 793d
00000260: 7eaa b63d c0b9 833e 083d b8bd cc5c 2abd
00000270: 36dc 4e3e 475a 7dbd 924a c23d d6c6 273e
00000280: 222b d5bd ece2 81bd f379 c7bd a5b5 e53d
00000290: 5981 95be c2a5 103d ce2d 603d 09ae 6cbe
000002a0: 5ac2 0f3f c347 59be b708 4dbe 71cf b0be
000002b0: 2e31 adbe 0b76 fdbd 4d7a 2c3e 43f7 20bd
000002c0: be64 823e 6950 bd3d 887f bd3d b0b4 5a3e
000002d0: 97ed bdbd 6ec3 823e d225 afbc 4dd2 373c
000002e0: add9 a5be d48a 7e3c 380b 68bd 78a8 68bd
000002f0: 4d93 2fbf 0fb8 91bd cf59 203d 3520 2bbe
00000300: 2fd5 823e d34f 9e3e 07af b8be 7670 febc
00000310: 071b e7be f977 8bbd 6189 f13c caae f13d
00000320: f9c2 5f3e 7755 73bd b874 2b3e f6db 0ebe
00000330: acc8 ecbd 896b 29bd aabb a3bd 92fe 48bd
00000340: 8e04 2e3f 05ef 8e3e 58e7 973e d865 01bf
00000350: 3e1b cf3e 8e00 a9be 7586 dabd 82c5 773d
00000360: 8d17 883e e736 27be 0385 2fbe 9331 4ebe
00000370: 2546 e2be 4f43 963e f394 6bbc 951b dd3b
00000380: 6756 93be 6484 0e3e 1041 163d 5c90 7d3d
00000390: 7cf7 263d 3159 6a3e 77fb af3e 0223 babd
000003a0: e2ae 853e d3cc 1cbe 0cab a03d 1949 c8bc
000003b0: f59f 14be 69e0 b7bd 4646 adbd 97ab 38bd
000003c0: 828e 993d e465 983e d04d 8d3d 92e9 41bd
000003d0: 3800 aabd daff da3b 78d7 f4bc d929 a4bd
000003e0: 412f bfbd f7f0 1e3a 3da6 493d 785a c8be
000003f0: d779 d2be 1a41 e53e 130c 9bbe ce4f 97bd
