Chapter4:HPOptimization/TrainedMLPs/PCA/Group3/W_5.npy (npy, 3008 bytes, 1 tensors)

array f4 [30, 24]
00000000: 51ab 1a3e 18c6 443e 353c 19be 7862 cf3e
00000010: 0c56 7f3e 3c40 aa3e 90fe 6f3d 3c07 783e
00000020: 2fa8 203e 4765 5bbf 1e06 e4be f880 bdbb
00000030: e9c7 bdbe 1f5f 2cbf 2720 bb3d 4758 d9be
00000040: 1333 173e 2160 c93b a348 e0be 87c9 63bd
00000050: 53ab 4d3e f552 3fbf e919 1abe ad16 7bbd
00000060: f009 0f3f a2b5 113f 516a c23e f789 403c
00000070: 097e 24be 2c54 cf3c 2366 0a3d 150b 963e
00000080: c8ea 293e f326 5c3d efb7 2fbf 5373 b5be
00000090: d7c1 57be 363c 02be 3bb7 f93e c2e9 3bbe
000000a0: f70e 54bf 147a dc3d ad19 f53d 84d6 f03e
000000b0: 2d45 9e3e 748f 31be b244 a53e 36ed 43be
000000c0: 0393 ea3e 048d 4e3e 758f b53e da36 b13d
000000d0: 5f20 303f 9013 5c3f a878 58be 182b 1a40
000000e0: 1ee5 bdbd fd98 80be 99bf 8bbd 9e4a 56be
000000f0: ca63 b2be 1196 2dbf 4e41 f63e 2dff f9bd
00000100: 3c8f 39be ce27 48bf f607 9e3e c248 bbbd
00000110: 6a26 68bf fd45 a4be 93f5 f63e bde8 a63e
00000120: 58bb 11bf c167 bdbe 490b 203e 4b99 0cbf
00000130: e35a b43e a7da 3d3d 05ba 853e b206 89bd
00000140: 62fc 4a3e 4b21 02be 09e4 553e 46ee dcb9
00000150: 83b2 ee3e 4a2d 23bf 6e59 12be 065d 9abe
00000160: 8f09 92bd 081b b7bd 141a 11bf f312 ba3e
00000170: fe3a 88bd a2fe 33be 61a9 8fbd 9a0c 773e
00000180: 1757 273f eac8 303e 4189 07bf 5f74 32be
00000190: aeda 1cbb 1cbc 213f 2070 5bbe f2a5 e73e
000001a0: ee8a ebbe e779 33bf 900b 86be d5c2 3ebf
000001b0: 4e40 28bf b13a b9be e3c8 7dbe f127 af3f
000001c0: 7761 6b3d 18d0 d3be d04a d53e 9086 37bd
000001d0: b46a 5ebe 20da 963c 5383 c0bd 6c73 34be
000001e0: ac34 c2be ffa0 ff3d 950a d33c 8943 153e
000001f0: ed67 f3be 8ded ddbe b9e7 b23e ce5f 1cbe
00000200: 3089 06bd 5965 7bbe 2dcd d03e 4d43 43be
00000210: 6e5f f7bd ac94 d3be ebd9 68be ad96 0a3e
00000220: f5ac 7cbe f8ca 4f3e 7438 b73e a722 823c
00000230: 53d3 39be 4a1a cfbe 7ea1 a2be 7758 053c
00000240: 718f 453e 9b23 d8be 4bac 36bf 8a46 f6be
00000250: 1c78 8dbe 4f18 c63e 84a5 c0be 918d 4fbf
00000260: 7770 1c3e 22f9 e53e f6a7 0bbd 3e2f 6fbc
00000270: 2bff 3e3e 2de5 83be 7040 28be 89a4 a4be
00000280: b280 c3bc c650 fb3d daab a1bd eaed 203d
00000290: e531 e1be 28f1 2e3e 5c6b 78be 98d3 8a3e
000002a0: 8de4 043f 0115 0f3e f445 093f 7915 5b3e
000002b0: e282 9a3e d923 9dbc a310 c0bd 3c13 093e
000002c0: 8722 47be 4a27 93be 0b83 b63e 3ebd 5f3f
000002d0: b1e8 bebe 3fa9 103d 72fa 85be e405 563f
000002e0: 5873 1bbe be47 64be 102c 84bc 12aa 163e
000002f0: 6535 0f3e d527 a83e 7676 083f 4e4c 8fbd
00000300: e531 76be b049 0a3e 344e b83c c6d5 aebe
00000310: fa2c 8dbe 142e 313f 4f39 86be 82df 6f3e
00000320: 23e8 78be 009a 96bd 53c6 5ebe bc1f b03d
00000330: 2917 0cbe a38f 6cbe 7488 853e 963e a4be
00000340: ecf9 cfbd 9484 b43e 8286 d1bc 21b5 e63e
00000350: bbd7 a8be 4fcb 1c3f 6e22 c33e cb8d cdbd
00000360: cc19 82be d9b8 f53e 48ec 42be c108 24ba
00000370: 761a 123f 45e4 003f 3e4f eebe 402e db3e
00000380: 2868 9f3c 0595 10be ae62 d23e 00bd 123f
00000390: e60c 1ebf c3cd 1c3f 68f8 efbd aba9 d73e
000003a0: c007 68be 0da3 c03e c3d6 1cbf 6679 253f
000003b0: f879 253e 074a 50bd f310 4cbe 6da2 033f
000003c0: bae1 0e3f 8696 8ebe 4cc9 02bf abf9 d6be
000003d0: 9a5d 48be 0146 28be aa54 ecbe 06bd 043f
000003e0: e9bc fc3e 6260 a3be 9a9d 133e 09d3 af3e
000003f0: 11b7 e6bd 8e46 d6bc 7907 f63e 460b 01bb
0.15104415 0.19216192 -0.14964373 0.40504813 0.24935168 0.33252132 0.05859238 0.2422151
0.15689157 -0.8570141 -0.44535917 -0.0057831965 -0.37066582 -0.67332643 0.09136992 -0.42450163
0.14765577 0.0061454927 -0.43805417 -0.055612113 0.20084886 -0.7473596 -0.15048946 -0.061300922
0.5587454 0.56917775 0.37971738 0.011751643 -0.16063704 0.025308691 0.03378881 0.2930533
0.16593468 0.053748082 -0.68640035 -0.35439548 -0.21070038 -0.12718281 0.48772606 -0.1835089
-0.82835335 0.10765472 0.11967788 0.47038662 0.30912152 -0.1733988 0.32278973 -0.19133458
0.45815286 0.2017098 0.35461012 0.0865304 0.68799394 0.8596735 -0.21139777 2.4088802
-0.09272216 -0.2511672 -0.06823654 -0.20926902 -0.34841758 -0.6780711 0.480967 -0.12206874
-0.18121046 -0.7818574 0.3086545 -0.09144737 -0.90683615 -0.32084647 0.48234233 0.3259944
-0.5692649 -0.3699322 0.15629305 -0.54921407 0.3522559 0.0463511 0.26118484 -0.0669073
0.19822839 -0.12708013 0.2088777 -0.00042139197 0.4662057 -0.6374098 -0.14291927 -0.30149096
-0.071307294 -0.08940703 -0.5668042 0.36342582 -0.06651877 -0.17577603 -0.07014728 0.24125901
0.65367264 0.17264143 -0.5294381 -0.17427205 -0.0023934054 0.6317766 -0.21429491 0.45243794
-0.46004432 -0.70107883 -0.26180696 -0.7451604 -0.6572312 -0.3617759 -0.24783663 1.3684064
0.057465997 -0.413697 0.4165864 -0.044806063 -0.21720392 0.018414557 -0.09400048 -0.17622155
-0.3793081 0.124818794 0.025761882 0.14576544 -0.47540227 -0.433453 0.34942415 -0.15270922
-0.032845676 -0.2455038 0.40781537 -0.19068642 -0.12078749 -0.41324365 -0.22739379 0.13534041
-0.24675353 0.2029227 0.35785258 0.015885664 -0.1814702 -0.40449744 -0.31763834 0.008138767
0.19293 -0.42214665 -0.7135665 -0.48100692 -0.276307 0.3869042 -0.37626278 -0.8107539
0.15277277 0.44916636 -0.034095727 -0.014598666 0.18652026 -0.25760785 -0.16430831 -0.3215678
-0.023865078 0.12271266 -0.07894106 0.039289393 -0.4398338 0.17084181 -0.24259704 0.27114558
0.5191124 0.13972856 0.53622365 0.2139491 0.3017798 -0.019182133 -0.09378173 0.13386244
-0.19446765 -0.28740913 0.35646853 0.87398136 -0.37286904 0.035317656 -0.26167637 0.8360274
-0.15180719 -0.22292992 -0.016134292 0.14713314 0.13985212 0.3284289 0.5330576 -0.06996976
-0.24042471 0.13504672 0.022498228 -0.3414747 -0.27573377 0.69210935 -0.26215598 0.23425105
-0.24307303 -0.07353592 -0.21755342 0.08599803 -0.1368071 -0.23101668 0.26080668 -0.32079
-0.10155091 0.352574 -0.025576834 0.45060065 -0.3297709 0.61247724 0.38112205 -0.100368105
-0.25410306 0.4799259 -0.19035447 -0.0006257408 0.57071626 0.5034831 -0.46544832 0.42808723
0.019458845 -0.14119346 0.41090912 0.5731964 -0.6173843 0.6125147 -0.117173016 0.42121634
-0.22659206 0.37624398 -0.612652 0.64638364 0.16159809 -0.050851848 -0.1992834 0.5141972
0.5581318 -0.27849215 -0.51088405 -0.41987357 -0.19566956 -0.16432954 -0.46158344 0.51850927
0.49362877 -0.31909472 0.14415589 0.34340695 -0.11265386 -0.02615669 0.48052576 -0.0019690557
