Chapter4:HPOptimization/TrainedMLPs/OPT/Group6/W_3.npy (npy, 3936 bytes, 1 tensors)

array f4 [28, 34]
000000 32 99 3b 3d 8e 36 28 3f 17 dc bb 3e 95 73 f2 3c
       0.045800395 0.65708244 0.36691353 0.02959613
000010 ab 43 80 3d 1f 85 a0 3e c2 a9 10 3f 49 6d 41 3e
       0.06262907 0.31351563 0.5650903 0.18889345
000020 d7 f2 de 3e 60 06 18 be 1e da a0 3e 5d 89 14 3f
       0.43544647 -0.14846182 0.3141641 0.580221
000030 b0 df 38 3e c9 d2 b4 3c 24 96 0f bd cd b8 5b be
       0.1805408 0.022073166 -0.035055295 -0.21457215
000040 25 4d 7f 3e 25 48 1b bf 34 30 5c be 2b 41 ad be
       0.24931772 -0.6065696 -0.21502763 -0.33838782
000050 0a 1e 52 3e d2 69 6f bd 6b 13 9e be 61 73 90 3e
       0.20519271 -0.058450527 -0.3087419 0.28213027
000060 e0 46 6c be b4 98 c0 3c 10 1e 0a 3e c2 c5 86 3e
       -0.23073912 0.023510315 0.1348803 0.26322752
000070 1b 76 60 be e3 e4 2f be 11 ae e0 3e 06 a0 4f 3e
       -0.21920054 -0.17177157 0.43882802 0.20275888
000080 fe a5 1f 3f cb 7d 9d 3e bb 30 f2 3c aa 1c ce 3d
       0.6236266 0.30760035 0.029564252 0.10064061
000090 08 89 91 3c f3 24 58 3e 11 56 9e 3e 7d d6 99 3e
       0.017765537 0.21107845 0.30925038 0.30046454
0000a0 5f b6 28 bd 5f 32 af be f6 8c 9f be 95 4b cb be
       -0.041189548 -0.34218118 -0.31162232 -0.39706102
0000b0 4a 5a 08 3e f6 9d 91 be a1 da c8 3e 6b 47 83 3f
       0.13315693 -0.28440827 0.392293 1.025617
0000c0 be 87 e9 bb d8 3c 09 bf 6f 81 36 3c 6a 91 f7 bd
       -0.0071267774 -0.53608465 0.011139258 -0.120882824
0000d0 e6 41 64 3c 48 b4 73 be 8d dc 8b 3e aa 45 ee 3e
       0.013931727 -0.2379924 0.27316704 0.46537524
0000e0 a6 47 28 3f f2 9b 21 3f d6 c7 28 3d 1c 1e 2a be
       0.65734327 0.6312858 0.041206203 -0.16613048
0000f0 aa 88 e9 bd 96 bc 02 3e 4b 0f c5 bd 37 fd 1a 3e
       -0.1140302 0.12767252 -0.096220575 0.15135656
000100 6c ce cb 3e b1 04 05 3f d0 d2 0c be 6c 0e 4a 3f
       0.39805925 0.51960284 -0.13752294 0.78928256
000110 8a c7 6c 3e 5f c3 80 be 6d 3a 66 ba e3 7b e7 bd
       0.23122993 -0.25149056 -0.000878251 -0.113029264
000120 ca 32 ff 3d fb 4b 8c 3e 03 85 1c be ed 99 1d bc
       0.12460859 0.27401718 -0.15285115 -0.009619218
000130 85 28 e4 3e 9d e6 bd bb 1f 93 22 be e0 16 9b be
       0.44562164 -0.0057953135 -0.15876435 -0.3029089
000140 30 84 92 be 2c 4b a9 be ed 08 90 bd 66 c4 a8 3e
       -0.28616476 -0.33065164 -0.070329525 0.3296234
000150 fb 3d af be d4 a1 bd be 64 39 ae 3d c9 98 b9 3d
       -0.34226975 -0.37037528 0.0850704 0.090623446
000160 90 7d 6e be f3 10 8b 3e f5 4c c4 be 4e f2 a2 be
       -0.23290086 0.2716137 -0.38339964 -0.3182549
000170 f4 78 18 3e eb e7 e0 bc b6 56 11 3e d9 b5 b9 3d
       0.1488989 -0.027454337 0.14193234 0.09067888
000180 1b d4 a4 3e 96 bf f2 be e9 f3 3d 3e eb 1a 34 bf
       0.32193074 -0.47411793 0.18550076 -0.70353574
000190 81 bc 47 be e5 0b dc be 1d 26 82 be 3d 5e 81 be
       -0.19505502 -0.42977825 -0.25419703 -0.2526721
0001a0 b0 9a 64 be 19 63 1d 3e 41 ee a8 3e 11 a7 86 be
       -0.22324634 0.15369834 0.32994273 -0.26299337
0001b0 04 e8 78 3f 6e 78 80 bf a4 28 d0 bd f4 a5 d3 be
       0.9722903 -1.0036752 -0.101640016 -0.4133755
0001c0 4c 3b c0 bd 26 65 0c 3e 63 bc 19 be 71 e5 5c bd
       -0.0938631 0.1371046 -0.1501327 -0.05392975
0001d0 bd f8 ab bd 67 56 e7 3d 09 8f dc bd 0b ca b1 bd
       -0.083970524 0.11295777 -0.10769469 -0.08681115
0001e0 77 0d b9 be 36 cc e2 3c 80 33 e4 bd 99 0e b0 3e
       -0.36143085 0.027685266 -0.11142635 0.34386137
0001f0 81 d8 7c be e3 aa 4e 3e f8 e7 da bc 4a 53 85 be
       -0.24691965 0.20182376 -0.02672194 -0.26040107
000200 cc fc 5f 3e b9 ae e9 3e 49 64 1d 3e 4d 88 81 3e
       0.21873778 0.45641115 0.15370287 0.25299302
000210 e0 ee af 3e aa 55 7d be ba f9 35 3f 28 6b 24 3f
       0.34361935 -0.2473971 0.7108418 0.6422601
000220 60 14 d5 3d 52 5a d4 be 39 65 fe bd 18 80 83 be
       0.10404277 -0.4147516 -0.124216504 -0.25683665
000230 12 a6 62 3e e2 3e ec be d1 08 06 bf 98 2d a8 be
       0.22133663 -0.46141726 -0.523572 -0.32847285
000240 e3 fa 0a bf 56 58 a1 3e 10 40 9c bb 58 10 9f be
       -0.5428907 0.31512707 -0.004768379 -0.31067157
000250 36 e7 ba bf 39 2a ab bc 62 56 dd 3d 79 80 cc 3e
       -1.460181 -0.020894157 0.10807492 0.39941767
000260 69 e3 8f 3e 89 50 72 3e 95 5e 86 3d 37 0c a9 3d
       0.28103188 0.23663534 0.06561009 0.08254283
000270 04 a4 12 bf 26 2f 25 3e 28 25 c1 be 7f 87 1e bf
       -0.5728152 0.16131267 -0.3772366 -0.619255
000280 fb 93 e5 be 80 cb 2b 3f a7 86 ea 3e b8 92 16 3e
       -0.44839463 0.6710739 0.45805857 0.14704406
000290 1a 6b fc be 8a 2a 52 3c 03 58 56 bf df 77 f1 3c
       -0.49300462 0.012827525 -0.83728045 0.029476104
0002a0 4b 23 c0 be ae 6b 34 be a0 cc 15 3e b4 0c 3a 39
       -0.37526926 -0.17619202 0.1462884 0.00017743075
0002b0 ef 10 45 bf f0 93 dc 3e d5 09 cb 3d ae 0c 41 be
       -0.76978964 0.43081617 0.09913985 -0.18852493
0002c0 1f 4d 20 bf 8e ce 1c 3f d9 6c 35 bf 28 a2 a7 3e
       -0.6261768 0.6125268 -0.70869213 0.32740903
0002d0 2a d8 db bd 48 a0 80 be af 58 82 be 61 21 e0 3e
       -0.107345894 -0.25122285 -0.25458285 0.43775466
0002e0 ce fe ce be 1c 5f cf 3e 48 54 8a bd 37 58 32 3f
       -0.40428776 0.4050225 -0.067543566 0.69665855
0002f0 68 45 96 be 74 f9 7f 3f b5 3d 01 bf 87 7e 95 be
       -0.29349828 0.9999001 -0.5048478 -0.29198095
000300 08 ca d5 bd 99 36 96 3c d7 32 5f be e4 53 b3 3e
       -0.10438925 0.018336581 -0.21796738 0.3502494
000310 01 d1 22 bf aa 5a 01 bf 6c d5 2b 3e 63 c6 a2 be
       -0.63600165 -0.5052897 0.16780633 -0.31791982
000320 dc 16 c1 bc 19 88 c9 3e e8 bc a9 3d 28 8c 40 3d
       -0.02357047 0.39361647 0.08287984 0.047008663
000330 16 c8 92 be d7 89 d6 be 3f d6 94 3e d4 c0 9b be
       -0.28668278 -0.41902038 0.29069707 -0.30420554
000340 9b 21 c1 3d 61 56 9a 3e 21 f0 d1 3e 44 18 14 bf
       0.09430238 0.30144027 0.41003516 -0.57849526
000350 ea 8b 74 bd a6 a9 74 3e b0 57 42 be 05 8b e3 3d
       -0.059703745 0.2389284 -0.18978763 0.111105
000360 28 64 f8 3e e0 ca d1 3d fc 44 29 be c5 6e 3d 3e
       0.48513913 0.102437735 -0.16530222 0.18499286
000370 be bd ba 3e 65 ee 0b be 6a fd fe 3d c6 58 0d be
       0.36472887 -0.13665159 0.12450679 -0.13803396
000380 6f fc b1 be 6b 30 37 be 72 89 40 3e 25 b8 e5 3e
       -0.34762904 -0.17889564 0.18802431 0.44867054
000390 73 67 cd be 3c 03 be 3e d3 c4 12 be f6 3c 20 be
       -0.40117988 0.37111843 -0.14332895 -0.15648255
0003a0 7b b8 fb 3d c1 0f 85 3e 4f 46 37 3d 6a 04 85 bd
       0.12291046 0.25988582 0.044744786 -0.064949825
0003b0 0f 15 c5 3e fd a5 4e be f0 9e d6 3e 9b a5 10 3f
       0.3849263 -0.20180507 0.41918135 0.56502694
0003c0 e6 72 b4 be 03 8c 7e 3e fa 1e 7e bd 7c 46 27 3c
       -0.3524391 0.24858098 -0.06204126 0.010209676
0003d0 cc d5 58 3d ab 60 80 bd 8f b4 19 3f 7a 17 cd be
       0.052938268 -0.06268438 0.60041136 -0.40056974
0003e0 73 b3 80 3e 27 1d b0 3e bb be a0 3f e7 ea df 3e
       0.2513691 0.3439724 1.2558206 0.43733904
0003f0 bd 1f 8b be f0 12 59 be d8 36 9b 3e 0d 55 cf bd
       -0.27172652 -0.2119863 0.3031528 -0.10123644
