Chapter4:HPOptimization/TrainedMLPs/OPT/Group6/W_6.npy (npy, 2048 bytes, 1 tensors)

array f4 [24, 20]
0	0x3eaae7c2	0.33379942
1	0x3ed33172	0.4124866
2	0x3ea441d5	0.32081476
3	0x3ecde795	0.40215746
4	0x3ce302e9	0.027711349
5	0x3ee15396	0.44009084
6	0x3ed51940	0.41620827
7	0x3ea3751b	0.31925282
8	0x3eb75307	0.35805532
9	0x3e715978	0.23569286
10	0x3ed8a6dc	0.42314804
11	0x3ed87f4b	0.42284617
12	0xbe151628	-0.14559233
13	0xbc430e9d	-0.01190534
14	0x3e28bb1a	0.16477624
15	0xbd6add86	-0.057340167
16	0x3ec2a821	0.38018897
17	0xbe9f7659	-0.3114498
18	0x3fa71fc6	1.3056571
19	0x3e044ef4	0.12920743
20	0xbd680389	-0.056643996
21	0xbeae93e5	-0.3409721
22	0xbdba3493	-0.09092059
23	0x3e96fcff	0.29489896
24	0x3e69e044	0.22839457
25	0x3d5215de	0.051290385
26	0xbe998abb	-0.29988655
27	0xbc0e6b34	-0.008692551
28	0xbd624da1	-0.055249814
29	0xbd8f4abb	-0.069966756
30	0xbc430981	-0.011904121
31	0xbf107ad1	-0.564374
32	0x3ec9a463	0.3938323
33	0xbbd3793d	-0.0064536617
34	0xbd467e2c	-0.04846017
35	0x3dc92894	0.09822193
36	0x3d772746	0.06034019
37	0x3ef3ebaa	0.47640735
38	0x3d54d10c	0.051957175
39	0x3ee3544d	0.44400254
40	0x3d86e839	0.06587262
41	0xbe8a2c0f	-0.2698674
42	0xbea02936	-0.3128144
43	0x3e9ee468	0.31033635
44	0x3e89a149	0.26880863
45	0xbe9e34ea	-0.30899745
46	0x3e77a40e	0.24183676
47	0x3ea35a7e	0.31904978
48	0x3ef13bea	0.47116023
49	0xbd09892d	-0.033578087
50	0x3e42530c	0.18976992
51	0xbd6ffd45	-0.058591146
52	0x3eb39e66	0.35081786
53	0xbe828e9a	-0.2549942
54	0xbe10c23b	-0.14136593
55	0x3f3a0cf8	0.7267604
56	0x3eea3306	0.45742053
57	0x3e6cf5a8	0.23140585
58	0x3e87ebda	0.26547128
59	0xbf3280db	-0.6972787
60	0x3e81d463	0.2535735
61	0x3e003468	0.12519991
62	0xbce49c6a	-0.027906615
63	0xbd4ccd1a	-0.050000288
64	0x3e6b80cd	0.22998352
65	0x3e84f034	0.2596451
66	0x3d9bce62	0.07607724
67	0x3eef4eea	0.46739894
68	0x3e51bdee	0.20482609
69	0x3ac1adb0	0.0014776494
70	0xbde77d00	-0.11303139
71	0xbe8dc0b7	-0.27686092
72	0x3ddff36d	0.10935102
73	0x3eaa11e7	0.33216783
74	0xbcc6be5c	-0.024260692
75	0xbee4d612	-0.44694573
76	0x3ed6d6c3	0.41960725
77	0xbdd9f2d6	-0.106420204
78	0xbd0a3fe1	-0.033752326
79	0xbea9fd45	-0.33201042
80	0x3eaa1d6e	0.33225578
81	0xbea58476	-0.32327622
82	0x3d617456	0.055042587
83	0x3f800c9a	1.0003846
84	0xbe361dc7	-0.17784797
85	0xbeb2b11a	-0.34900743
86	0x3ec267fb	0.37969956
87	0x3efe92ff	0.49721524
88	0xbe48eb35	-0.19620974
89	0xbecd167a	-0.4005621
90	0xbd7fcf63	-0.06245364
91	0xbeb0df9b	-0.34545597
92	0xbec5475d	-0.38531008
93	0xbc300387	-0.0107430285
94	0x3f00f629	0.5037561
95	0x3e662499	0.22474898
96	0x3ec3b67b	0.3822516
97	0xbebf816d	-0.37403432
98	0x3fcc8efb	1.5981134
99	0xbe60536f	-0.21906827
100	0xbc12fd9a	-0.008971596
101	0xbed7aa43	-0.42122087
102	0xbb80d29f	-0.003931358
103	0x3e4654e8	0.19368327
104	0x3e7c3e0f	0.24633048
105	0x3d23dac2	0.040003546
106	0x3e9cb6da	0.30608255
107	0xbeb217e0	-0.3478384
108	0x3f7ca64a	0.98691237
109	0x3b43ab4e	0.0029856744
110	0x3e2bc69c	0.16774982
111	0xbeaa3e19	-0.33250502
112	0xbcb428c1	-0.02199209
113	0xbc72d819	-0.0148220295
114	0xbec6ae36	-0.38804787
115	0x3f2af507	0.6678013
116	0xbe44415e	-0.1916556
117	0x3ddcb588	0.10776812
118	0x3e212fa5	0.15740831
119	0xbec76368	-0.38943028
120	0xbecb98c1	-0.3976498
121	0xbe05058f	-0.12990402
122	0xbeb3a151	-0.35084012
123	0x3f6065b6	0.876552
124	0xbe030abe	-0.12797067
125	0x3d10bb63	0.035334956
126	0x3df8fb92	0.12157358
127	0xbd15faf0	-0.036616266
128	0x3ec90312	0.39260155
129	0xbdef80e4	-0.11694506
130	0x3e849d12	0.25901085
131	0xbe0a0560	-0.13478613
132	0x3ea1a122	0.31568247
133	0xbe459e12	-0.1929858
134	0x3f0574e4	0.52131486
135	0x3ea97ca9	0.3310292
136	0x3e26c433	0.16285782
137	0xbeb123f4	-0.34597743
138	0x3f9003e7	1.1251191
139	0xbe6e40f3	-0.23266964
140	0xbdfb1388	-0.12259585
141	0xbec9e2f4	-0.39430964
142	0xbdbd8ad5	-0.09254996
143	0xbe8cbb21	-0.27486518
144	0xbe1a2eb6	-0.15056881
145	0x3e9651c5	0.2935926
146	0xbd137c0b	-0.03600697
147	0xbe80acfe	-0.25131983
148	0xbe8c8371	-0.27444032
149	0x3c542fd9	0.012950861
150	0x3dce4eac	0.10073599
151	0x3ece40a0	0.4028368
152	0x3e94f0ab	0.29089865
153	0x3ebd07a2	0.36919886
154	0x3dfb32d8	0.12265557
155	0xbdc549f4	-0.09633246
156	0xbec41b4d	-0.3830208
157	0xbe4e1794	-0.20126182
158	0xbe6d619e	-0.23181769
159	0xbecaa088	-0.395756
160	0xbdc1161c	-0.09428045
161	0x3eba31b1	0.36366037
162	0x3e3ed46e	0.18635723
163	0xbe14b070	-0.1452043
164	0xbed9dd5d	-0.425517
165	0x3cdb2c28	0.026754454
166	0xbed5ab84	-0.4173242
167	0x3d8441be	0.06457852
168	0xbdd0ecd9	-0.10201425
169	0xbca2b2a4	-0.019860573
170	0x3dd0e041	0.10199023
171	0xbeb6242d	-0.35574475
172	0xbd6da88c	-0.058022067
173	0x3eee4b0d	0.46541634
174	0x3e1a8fe8	0.15093958
175	0xbe053d33	-0.13011627
176	0xbed678c5	-0.41889015
177	0x3efb8a51	0.49128965
178	0xbc0f0f7b	-0.008731718
179	0x3ec61ab3	0.38692245
180	0x3e49426b	0.19654243
181	0x3dd9a44a	0.10627039
182	0xbf3a93f4	-0.7288201
183	0xbcca4dd0	-0.024695307
184	0xbedec6c5	-0.43511024
185	0x3ed0aa49	0.40754917
186	0xbe45468a	-0.1926519
187	0x3eb4f776	0.35345048
188	0x3eafb876	0.3432042
189	0x3e9b8166	0.3037216
190	0xbe9fd919	-0.3122032
191	0x3e28f518	0.16499746
192	0xbd748271	-0.05969471
193	0x3cdfd4ce	0.027323153
194	0xbeb45c0b	-0.35226473
195	0xbecc4673	-0.39897498
196	0xbedaf376	-0.4276387
197	0xbe0990e9	-0.13434185
198	0xbe364fd5	-0.17803891
199	0x3e2d8559	0.169454
200	0x3e741e70	0.23839736
201	0x3f0de60a	0.55429137
202	0xbdd3dd70	-0.1034497
203	0xbe675e28	-0.22594512
204	0xbed71700	-0.42009735
205	0xbef2fe83	-0.47459802
206	0x3e571505	0.21004112
207	0xbf05f192	-0.5232173
208	0xbe2f29a0	-0.17105722
209	0x3d58a90b	0.052895587
210	0x3dacf108	0.084444106
211	0xbf0139da	-0.504789
212	0xbdf212c4	-0.118199855
213	0x3d895ea2	0.06707503
214	0xbeae2685	-0.34013763
215	0xbe5d8731	-0.21633603
216	0x3e808392	0.2510038
217	0x3d279b7f	0.040919777
218	0xbea0a156	-0.3137309
219	0x3e0c52fe	0.13703534
220	0xbdce80d3	-0.10083165
221	0x3e076e76	0.13225731
222	0x3d5e9367	0.054339793
223	0xbd9c9c89	-0.07647044
224	0xbf603a09	-0.87588555
225	0xbea4f9b3	-0.32221755
226	0x3d7906e4	0.060797587
227	0x3ec118d9	0.3771427
228	0xbd381721	-0.044943932
229	0xbd500b3b	-0.05079196
230	0x3d1efaa8	0.038813263
231	0xbe9f79a1	-0.31147483
232	0xbb9ef1d3	-0.004850605
233	0x3e3b3689	0.18282522
234	0xbe52f6af	-0.20601915
235	0xbe43ccfe	-0.19121167
236	0x3f0f532d	0.5598629
237	0xbd837916	-0.0641958
238	0xbc8bec1c	-0.01708036
239	0x3de3b1a8	0.111178696
240	0xbe8218e9	-0.2540963
241	0x3e82704b	0.25476298
242	0x3dccc12d	0.09997783
243	0x3e253b0d	0.16135807
244	0xbeb33541	-0.35001567
245	0x3d31cda4	0.043409005
246	0x3dde6176	0.10858433
247	0xbe178198	-0.1479553
248	0x3e8babd2	0.27279526
249	0xbe01e415	-0.12684663
250	0x3eeec123	0.46631727
251	0x3f0415ab	0.5159556
252	0xbed733ee	-0.42031807
253	0xbebce879	-0.36896113
254	0x3f1894b4	0.596019
255	0x3b772d91	0.0037716369
