Chapter4:HPOptimization/TrainedMLPs/OPT/Group11/W_2.npy (npy, 2368 bytes, 1 tensors)

array f4 [20, 28]
000000 a8 be 9d be 25 30 02 3e d8 c5 e7 3e fa 2f 0e 3f
       -0.30809522 0.12713678 0.4526813 0.55541956
000010 5f 12 fc 3d c6 24 10 3e 67 ee aa be c3 78 db 3d
       0.123081915 0.14076528 -0.33385012 0.10716393
000020 47 96 60 bc 12 55 ab bf 3d 7b 87 be cc a4 83 3d
       -0.013707704 -1.3385336 -0.2646121 0.06427917
000030 67 f8 27 3f aa 23 00 bf 0d 99 de be 58 8d 3f be
       0.65613407 -0.5005442 -0.43476143 -0.18706262
000040 bc ec ee 3e c0 af 14 be e0 6f 60 3e 57 2d e4 3e
       0.4666499 -0.14520168 0.21917677 0.44565842
000050 c9 69 72 3d 20 5c 8a 3e a0 7b 06 3e ca e0 00 bf
       0.059182916 0.2702341 0.13133097 -0.50343
000060 9b 41 94 bf 4b df a9 3e 6d 9c 63 bf dc 73 00 3f
       -1.1582521 0.33178172 -0.8891056 0.5017679
000070 95 a0 16 bf df be f4 bd 3b 3d 26 3e 1e 2c 08 3f
       -0.5883878 -0.11950468 0.16234295 0.5319232
000080 bc 87 c6 bd 86 29 e9 3e ac 81 07 bf 4b 95 a7 be
       -0.09693858 0.45539492 -0.5293224 -0.3273109
000090 63 73 89 3e b0 1a 2f bf ac ad a4 be 98 d7 e2 be
       0.26845846 -0.68400097 -0.3216375 -0.4430511
0000a0 0f 16 da 3e 5c b2 32 3d 12 76 12 be 93 d4 a2 bf
       0.42594954 0.043627128 -0.14302853 -1.2721123
0000b0 10 31 ae be 23 c2 64 bf 8f 4d 7b bf da 7f 1b be
       -0.34021807 -0.8935873 -0.9816522 -0.1518549
0000c0 6c 5d 21 bf c3 cd 58 be 94 83 d1 be 0a 59 70 bf
       -0.63033175 -0.21172242 -0.409207 -0.9388586
0000d0 20 be 0e 3f 91 90 12 bd cc 19 fd be 7a 9b 7c be
       0.5575886 -0.0357824 -0.49433744 -0.24668685
0000e0 84 9a be bd 48 2c 93 3f 00 cb f8 be 6a a2 82 3d
       -0.09306815 1.1497889 -0.48592377 0.06378634
0000f0 26 26 ae be d8 d0 0c 3f e1 9c 6e 3c 66 57 86 be
       -0.3401348 0.5500617 0.01456377 -0.26238555
000100 72 9a 16 3f ca cd c5 3e a3 74 91 3e 5a 90 48 3f
       0.58829415 0.38633567 0.284093 0.78345263
000110 ce ce 61 3f 56 05 d2 3e fa e1 90 3f 74 11 2a 3e
       0.88206184 0.41019696 1.1318963 0.1660822
000120 06 dc f8 bd be e0 03 3d 44 35 2f 3f 19 95 fa bd
       -0.12151341 0.032196753 0.6844065 -0.12235469
000130 f7 bc 2f bd fc 22 88 be de 57 7d 3f e2 94 12 3e
       -0.04290482 -0.2658919 0.989622 0.14314607
000140 ba 66 1c 3f c1 fe f0 bc d0 8f bf 3e f8 09 02 bf
       0.6109425 -0.029418351 0.37414408 -0.5079646
000150 49 39 09 3e cc 51 0b bf 65 17 a6 3d bd 1f e8 be
       0.13400759 -0.5442169 0.08109931 -0.45336714
000160 9f 2c 95 3d 2e 15 d4 3e e8 f0 a5 bf 91 7a 4c 3f
       0.072839014 0.4142241 -1.2964144 0.7987452
000170 e0 74 2a 3f 6d 2f 8d 3f 1d e6 62 be 88 80 f2 bd
       0.6658459 1.1030098 -0.22158094 -0.11840922
000180 69 a2 85 3e da 5f 79 3e 86 5d 0a bf f8 da 16 3e
       0.26100472 0.2435297 -0.54048955 0.14731967
000190 63 60 f5 bd 42 5b b1 3d 74 cf 83 be c0 a6 25 3f
       -0.11981275 0.08659984 -0.25744212 0.64707565
0001a0 68 68 04 3e 3a c9 59 3e de 68 90 bf 60 8e e0 bf
       0.12930453 0.21268168 -1.1282003 -1.7543449
0001b0 2f 79 1c 3f be 24 a1 be ef cd 79 bf b0 22 a3 3e
       0.6112241 -0.31473345 -0.97579855 0.31862402
0001c0 7c 85 0a bf 90 1b 19 be 89 7e 5a 3e 34 1c 9b be
       -0.5410993 -0.1495192 0.21337332 -0.30294955
0001d0 e6 4d 36 3f 3d 1e e1 3e 1c 66 ce be 50 5c 1c 3d
       0.71212614 0.43968382 -0.40312278 0.038173974
0001e0 85 d1 6e 3e be c0 a7 3e 55 1f c3 bd e6 88 53 3d
       0.23322113 0.32764238 -0.095274605 0.05164423
0001f0 24 63 f5 be 59 53 63 3c ac 9e 71 3e ee 66 45 be
       -0.479272 0.013874852 0.23595685 -0.19277546
000200 c9 8f 09 3f f0 74 de 3e 17 97 9a 3d 70 74 30 3d
       0.53735024 0.4344859 0.07548349 0.043079793
000210 4e 1d 14 3f a2 ff 97 3e d6 e1 e8 bd a3 e8 62 3d
       0.57857215 0.2968722 -0.113712 0.05539764
000220 ee 9c 39 be c3 d1 46 3c b2 39 f3 bd d4 1a a5 3d
       -0.1812627 0.012134972 -0.11876239 0.08061758
000230 22 7e 07 be 7e 06 0f bf 3a 42 80 3f 33 5d 7c bf
       -0.1323171 -0.5586928 1.0020211 -0.9857971
000240 85 36 10 3f fa 9c 5f be 4c 61 82 bf 5f 3e 96 3e
       0.5633319 -0.21837226 -1.0185943 0.2934446
000250 21 d0 23 3f bf c0 91 3e 64 e4 84 be 84 6f d2 3d
       0.63989455 0.28467366 -0.25955498 0.10275176
000260 d0 f9 54 bf 95 c3 2c 3e b2 b9 9e bf 66 15 a7 be
       -0.83193684 0.16871484 -1.240042 -0.32633513
000270 72 6d 7e 3f c3 4d 94 3e c0 52 39 bf 6a 8f ac bd
       0.9938575 0.28965577 -0.7239189 -0.084257916
000280 81 61 4c 3f 11 fa 47 3f 3a 46 3f 3f 55 53 8e be
       0.7983628 0.78115946 0.7471653 -0.27797952
000290 67 40 0c 3f 79 64 be 3f 92 cd 94 3e ab 90 17 3f
       0.5478577 1.4874412 0.29063088 0.5920512
0002a0 ac 22 3e bf b0 10 0d 3f b7 7e e9 3e 80 95 aa 3f
       -0.74271655 0.5510359 0.45604488 1.3326874
0002b0 b4 c0 df be e2 ea 12 bf ce 1e f5 3e c6 1e c2 3c
       -0.43701708 -0.5738965 0.47875065 0.023696315
0002c0 a0 ab c6 3e 08 56 06 bf dc 16 10 3f 59 1d 27 3f
       0.38802814 -0.52475023 0.5628488 0.65279156
0002d0 ec ad f4 bd 2d 79 1e 3e 12 6c 98 3e 79 7a c6 be
       -0.119472355 0.15475912 0.2976995 -0.38765314
0002e0 95 19 47 3e 9f fb ec be 4c f7 de be 53 f4 8b 3e
       0.19443353 -0.46285722 -0.43548048 0.27334842
0002f0 69 f7 d4 3d 71 10 cc be 27 85 ea 3e 71 4d 82 3e
       0.10398752 -0.39856294 0.45804712 0.25449708
000300 82 11 b1 be b3 29 e2 3c 36 80 f6 3d ef 13 a9 3e
       -0.3458367 0.027607774 0.12036173 0.3302302
000310 74 ef 66 3f 35 69 00 3f 83 b0 97 bf b3 7f 63 3f
       0.90209126 0.50160533 -1.1850742 0.8886673
000320 3b 4b 0f bf c7 fb ce be 4c de 9d 3e 43 89 83 be
       -0.5597417 -0.40426466 0.30833662 -0.2569066
000330 1d ab 0b be 1f 4c 49 3f a2 f9 87 3f ca 83 44 3f
       -0.13639493 0.78631777 1.0623057 0.76763594
000340 6a 76 df 3e 2d 4f 5a 3f 5c 9d 07 3f 9b f9 21 3f
       0.4364503 0.8527706 0.52974486 0.6327149
000350 a7 35 7d bf 23 5a 26 bf 0e d8 64 3f 45 0e ff be
       -0.9890999 -0.6498129 0.89392173 -0.49815574
000360 9f 33 5e bf 13 63 03 bf 66 b5 4c 3f ec ef 76 3f
       -0.8679752 -0.5132305 0.7996429 0.9645984
000370 ac c8 73 be 1f 6d 8d bf 9d 23 52 3f d6 ae b6 be
       -0.23807019 -1.1048926 0.8208559 -0.35680264
000380 1b c5 e0 be 25 81 9f be 74 a3 54 be 3c 8f 0e be
       -0.4390038 -0.31153217 -0.20765477 -0.13921827
000390 79 05 a5 3d e3 58 be be e8 32 14 bf 39 0a 75 be
       0.080576845 -0.3717719 -0.57890177 -0.23929681
0003a0 ff 7b 10 be ee f8 24 bd 9a 3c 1c bf 8e 53 10 bf
       -0.14109801 -0.04027646 -0.6102997 -0.56377494
0003b0 f5 ca 03 3f df c6 af 3d 10 b7 62 bf a1 3f 8e bf
       0.5148156 0.085828535 -0.8856058 -1.1113168
0003c0 68 34 15 be 43 bb 89 bf a2 f1 e8 bd a2 79 a3 be
       -0.14570773 -1.0760273 -0.11374213 -0.31928736
0003d0 55 61 98 3c c4 14 12 bf 1d bf 26 3e ab 9f e4 be
       0.018601099 -0.57062936 0.16283841 -0.44653067
0003e0 0c 66 f4 be e4 14 a0 be a5 93 26 bf a9 fa 0f be
       -0.47734106 -0.31265938 -0.6506904 -0.14060463
0003f0 e6 e7 ab bd 56 87 b1 3c d8 64 db be fa 55 8a bf
       -0.083938405 0.021670979 -0.42850375 -1.0807488
