Chapter4:HPOptimization/TrainedMLPs/PCA/Group8/W_4.npy (npy, 4208 bytes, 1 tensors)

array f4 [34, 30]
-2.1212661 -1.013283 -0.018693347 -0.30344573 -1.0214086 0.10228239 -1.1645043 -1.6881484
-1.5327916 -0.5731688 -0.02405005 0.082454704 -0.25437403 -0.7670019 -2.0644739 -0.09912839
0.12716985 -2.7565148 0.2400388 -0.11248095 0.12651412 -0.25407535 -1.2297183 0.1990998
0.3489908 0.057575982 0.070864916 -0.8487259 -0.06069721 0.13193998 0.2427506 -0.70714986
-0.21200025 0.4312677 0.39705235 -0.09842126 -0.09549616 -0.23929587 -0.11020395 -0.2406073
-0.39678574 -0.5084598 -0.3853395 -0.11916873 -0.18558657 -0.1485075 0.07972536 0.108303085
0.2686387 0.08484592 0.24418518 -0.15463313 0.324984 0.3985292 -0.06993831 0.4952217
-0.29707083 0.30506337 -0.55619055 -0.49849164 -0.7758361 -0.39783287 -0.9471773 -0.41055265
-0.8914381 -0.4230705 0.95861083 0.2032071 -0.1038571 0.24480274 0.4017636 -0.196156
1.3492244 -0.1924316 -0.88837564 0.070747346 -0.76104856 0.08759782 -0.31127444 -0.5397854
0.2233417 -0.64858514 -0.9795852 -0.93059397 -0.14155538 -0.45914906 0.59022856 0.37923002
-0.35279077 0.8695253 -0.23486641 -0.49239948 -0.16530521 -0.13671881 -0.40477183 -0.71130556
0.43956643 -0.5196652 0.102980636 0.07604665 -0.10163987 -0.10036585 0.33998987 0.09067194
0.6451393 0.44300854 -0.7712914 0.091914795 -0.11470445 0.23495358 -0.15724856 0.085232995
0.32894388 -0.12301676 -0.5437701 -0.15713759 0.1527546 0.07886697 1.2248607 0.43676195
-1.1849351 0.29575652 -0.9813439 -0.20858373 -3.080612 0.19196898 -0.70832646 -0.39361924
-0.44067267 -0.06558704 -1.2560936 0.5959133 0.96528906 0.09127079 0.7982961 0.59059775
0.2655725 0.034812674 2.1697228 -0.07819305 -0.78644335 -0.23139574 0.6318878 0.24338189
1.6122562 -0.56608 -0.107786775 0.17623156 0.77941173 -0.91862345 -1.2752156 0.023177434
-0.59555054 0.10603307 -1.3829463 -0.54003465 -0.64788747 -0.65719277 0.14042178 0.5949573
0.6609271 0.048523754 -0.61372685 0.69251394 -0.49323425 0.22599913 -0.33362114 -0.46276876
-0.38328618 0.21634647 -0.6751956 -0.3555682 -0.95852554 -1.3027971 -0.15808505 -0.7221814
0.18913245 -0.4412038 0.74121267 -1.0939999 -0.32337692 -0.24361631 0.43568525 0.24110313
-0.36837798 -0.5689518 -0.34675813 -0.6302557 0.31444705 0.43878832 -0.14582124 0.40089282
0.5410067 0.2275019 -0.08921194 0.32087654 -0.039926976 -0.23992594 -0.23269254 0.54092866
-0.89063656 -0.42875364 -0.64763904 -0.18963782 0.001177765 -0.47724834 -0.020383129 -0.053536307
0.037199404 0.37572566 0.32350054 -0.016002256 0.6903187 0.029203089 0.049615078 0.09178239
0.23497808 -1.1863614 0.0054675844 0.41075763 -0.62288 0.0099820895 -0.29661247 0.27917695
0.57958174 -0.15304855 0.5618782 0.5332222 -0.026676634 -0.2588033 0.16548851 -0.6172702
-0.11263659 -0.016941337 0.5481795 0.15454127 0.40644854 -0.30498624 0.099610955 -0.2666646
-0.77374154 0.71053684 0.12842134 0.27714646 -0.39076886 -0.22885191 0.37219265 -0.074903026
-0.0519685 -0.29727572 -0.13366784 1.1503804 0.43044093 -0.11113425 -0.97028625 0.5105126
00000000: d3c2 07c0 42b3 81bf ca22 99bc 3d5d 9bbe
00000010: 84bd 82bf 6e79 d13d 7a0e 95bf 3f15 d8bf
00000020: 8432 c4bf 31bb 12bf 9c04 c5bc 03de a83d
00000030: 503d 82be 3d5a 44bf 5720 04c0 d303 cbbd
00000040: d038 023e bd6a 30c0 bbcc 753e 6a5c e6bd
00000050: eb8c 013e 2a16 82be 6967 9dbf d1e0 4b3e
00000060: ecae b23e cbd4 6b3d a021 913d 1a46 59bf
00000070: a39d 78bd 461b 073e 9d93 783e c607 35bf
00000080: 9816 59be 1fcf dc3e 724a cb3e 1691 c9bd
00000090: 7e93 c3bd fa09 75be 9cb2 e1bd c361 76be
000000a0: 8027 cbbe 6c2a 02bf 384b c5be bc0e f4bd
000000b0: 680a 3ebe 5a12 18be 0d47 a33d 02ce dd3d
000000c0: 038b 893e b3c3 ad3d ae0b 7a3e 2658 1ebe
000000d0: 4e64 a63e 050c cc3e d13b 8fbd b38d fd3e
000000e0: ab19 98be 4431 9c3e 8162 0ebf 4c3a ffbe
000000f0: 329d 46bf c0b0 cbbe 367a 72bf f533 d2be
00000100: 4a35 64bf b29c d8be 8567 753f 8615 503e
00000110: 08b3 d4bd 92ad 7a3e f5b3 cd3e 1edd 48be
00000120: 63b3 ac3f ca0c 45be 966c 63bf fce3 903d
00000130: 14d4 42bf 7c66 b33d 5d5f 9fbe 602f 0abf
00000140: b0b3 643e ad09 26bf 18c6 7abf 683b 6ebf
00000150: e5f3 10be 9615 ebbe 3819 173f 702a c23e
00000160: fea0 b4be 3699 5e3f d280 70be c91b fcbe
00000170: c545 29be 0400 0cbe 413e cfbe 1f18 36bf
00000180: da0e e13e c708 05bf 83e7 d23d 59be 9b3d
00000190: 9028 d0bd 9c8c cdbd 2713 ae3e 36b2 b93d
000001a0: d927 253f 04d2 e23e 5a73 45bf d33d bc3d
000001b0: 2bea eabd ac97 703e c405 21be a38e ae3d
000001c0: 556b a83e 36f0 fbbd 8434 0bbf ade8 20be
000001d0: b46b 1c3e 0285 a13d 3cc8 9c3f 439f df3e
000001e0: f4ab 97bf 666d 973e 5b39 7bbf f996 55be
000001f0: bf28 45c0 8493 443e e254 35bf 7688 c9be
00000200: d99f e1be 7f52 86bd adc7 a0bf c68d 183f
00000210: 2f1d 773f 2eec ba3d 225d 4c3f 6a31 173f
00000220: 1ef9 873e bc97 0e3d bddc 0a40 ae23 a0bd
00000230: 5a54 49bf 01f3 6cbe 66c3 213f 1a39 793e
00000240: 695e ce3f 9eea 10bf 50bf dcbd 0c76 343e
00000250: 8787 473f e82a 6bbf 443a a3bf 9ade bd3c
00000260: 0076 18bf de27 d93d 6204 b1bf b63f 0abf
00000270: f4db 25bf c93d 28bf baca 0f3e 1f4f 183f
00000280: 8532 293f d8c0 463d 341d 1dbf 9848 313f
00000290: 3389 fcbe 516c 673e 64d0 aabe 07f0 ecbe
000002a0: 163e c4be ee89 5d3e 9ed9 2cbf 090d b6be
000002b0: ee61 75bf 0ec2 a6bf 0ce1 21be e1e0 38bf
000002c0: f0ab 413e 77e5 e1be 1dc0 3d3f 3008 8cbf
000002d0: a991 a5be 8e76 79be 2312 df3e bde3 763e
000002e0: 0a9c bcbe d3a6 11bf 488a b1be 7058 21bf
000002f0: 34ff a03e dda8 e03e 2a52 15be d341 cd3e
00000300: 6a7f 0a3f 42f6 683e c0b4 b6bd ee49 a43e
00000310: 788a 23bd 25af 75be f446 6ebe 4d7a 0a3f
00000320: c200 64bf 9985 dbbe accb 25bf 6b30 42be
00000330: 3c5f 9a3a e559 f4be 85fa a6bc e348 5bbd
00000340: 675e 183d 1d5f c03e dda1 a53e 2a17 83bc
00000350: bab8 303f 513b ef3c 2e39 4b3d 68f8 bb3d
00000360: 189e 703e b1da 97bf 6c29 b33b d34e d23e
00000370: 1075 1fbf eb8b 233c 97dd 97be 48f0 8e3e
00000380: 785f 143f c2b8 1cbe 40d7 0f3f 4081 083f
00000390: f588 dabc de81 84be d275 293e 6b05 1ebf
000003a0: 03ae e6bd 8fc8 8abc 7e55 0c3f 1140 1e3e
000003b0: 061a d03e 2827 9cbe d400 cc3d 4388 88be
000003c0: ed13 46bf bee5 353f e280 033e 24e6 8d3e
000003d0: db12 c8be 2858 6abe 0990 be3e c266 99bd
000003e0: ecdc 54bd 8634 98be 39e0 08be aa3f 933f
000003f0: c162 dc3e 5b9a e3bd ae64 78bf f4b0 023f
