Chapter4:HPOptimization/TrainedMLPs/WRP/Group5/W_3.npy (npy, 3936 bytes, 1 tensors)

array f4 [28, 34]
0	0x3f055c91	0.5209437
1	0xbde06142	-0.109560505
2	0xbf21fbd8	-0.6327491
3	0xbdd37023	-0.10324123
4	0xbe834a75	-0.25642744
5	0x3f8a5e59	1.0810043
6	0xbe4baf37	-0.19891058
7	0xbf74c8a1	-0.95618635
8	0xbdb327fc	-0.08747861
9	0x3dc3924d	0.09549389
10	0xbdaf608b	-0.08563336
11	0xbd380f85	-0.044936676
12	0xbebecb90	-0.3726468
13	0x3e56dc3d	0.20982452
14	0x3ea3072c	0.3184141
15	0xbf31f046	-0.69507253
16	0x3e946af0	0.28987837
17	0x3ed97807	0.42474386
18	0xbf7803c1	-0.9688073
19	0xbda5728e	-0.0807849
20	0xbe79d555	-0.24397786
21	0x3e82520d	0.25453225
22	0x3e5dbaf4	0.21653348
23	0xbf82a7d1	-1.0207464
24	0x3e80c372	0.25149113
25	0x3e053e84	0.13012129
26	0xbf9bf07d	-1.2182766
27	0xbfa82301	-1.3135682
28	0xbf8dedff	-1.1088256
29	0xbf639c58	-0.88910437
30	0x3da27e88	0.0793429
31	0x3f0786aa	0.52939856
32	0x3f7eb175	0.9948953
33	0x3f1aec90	0.60517216
34	0x3eb65a17	0.35615608
35	0xbe5180d7	-0.20459305
36	0x3f045dd2	0.5170566
37	0xbf5e1dca	-0.86764205
38	0xbc2d2d06	-0.010569816
39	0xbe10c08b	-0.1413595
40	0x3f478813	0.7794201
41	0x3d565876	0.052330457
42	0xbf39be64	-0.7255614
43	0xbdf11fe2	-0.11773659
44	0x3b9546d1	0.004555561
45	0x3ceddf04	0.029037006
46	0x3e85a7e3	0.2610465
47	0xbe9d6f07	-0.3074877
48	0x3f0a578f	0.54039854
49	0x3eb6d11a	0.35706407
50	0xbe59d4f4	-0.21272641
51	0xbecf8427	-0.40530512
52	0x3e7371f6	0.23773941
53	0xbc7b1b76	-0.015326371
54	0xbcb3ca5e	-0.021947082
55	0xbe0a8565	-0.13527448
56	0x3eadf0c3	0.3397275
57	0x3f88d613	1.069033
58	0xbe1a4352	-0.15064743
59	0xbe02a625	-0.12758692
60	0xbf5aa666	-0.85410154
61	0x3f3ed5d8	0.7454505
62	0x3e904eb1	0.28185037
63	0xbf24b1c3	-0.6433374
64	0x3c859d13	0.01631025
65	0x3f133149	0.5749708
66	0x3d39169b	0.045187574
67	0x3f3ba8fe	0.73304737
68	0xbf21eae7	-0.6324906
69	0xbfbecb23	-1.4905742
70	0xbf023a70	-0.5087042
71	0x3d16be7c	0.036802754
72	0xbf2ee8cd	-0.68323976
73	0x3f4e72db	0.80644006
74	0xbf9754ef	-1.1822795
75	0xbe33af57	-0.17547356
76	0xbf95a82a	-1.1691945
77	0xbdbdfe3c	-0.09277007
78	0x3eabce0e	0.33555645
79	0xbeffffae	-0.49999756
80	0x3e3c4f08	0.18389523
81	0x3e9ba8dd	0.3040227
82	0xbf1624af	-0.58649725
83	0xbf74ea33	-0.9566986
84	0x3e19a6c0	0.15005016
85	0x3e297c33	0.16551284
86	0xbea017d0	-0.31268167
87	0xbea65aab	-0.3249105
88	0xbf2d2b42	-0.6764413
89	0xbfa6f981	-1.3044893
90	0x3e0f584e	0.1399853
91	0xbee36abd	-0.44417372
92	0xbf121d93	-0.57076377
93	0xbf47ce20	-0.78048897
94	0x3e50b4eb	0.20381515
95	0xbe91f98d	-0.28510705
96	0xbf324359	-0.69634014
97	0xbaabd94d	-0.0013111025
98	0xbd9d51be	-0.07681607
99	0xbe724721	-0.23659946
100	0x3e6b33c1	0.22968961
101	0xbf15fd5f	-0.5858974
102	0xbf3efa82	-0.74600995
103	0xbf80536f	-1.0025462
104	0x3e0b849a	0.13624802
105	0xbe1173ed	-0.14204378
106	0xbe5a1c72	-0.21299914
107	0xbe83dc94	-0.25754225
108	0xbea32e56	-0.3187129
109	0xbe6f7322	-0.23383763
110	0xbdb2e301	-0.08734704
111	0xbe2efacb	-0.17087857
112	0x3ec3330a	0.38124877
113	0x3ec5e651	0.3865228
114	0x3f301dce	0.6879548
115	0x3ea822d8	0.32839084
116	0xbecfbc8e	-0.40573543
117	0xbd14f084	-0.036362186
118	0x3ef0b979	0.47016504
119	0x3d96a0d4	0.07354894
120	0xbf3204e0	-0.6953869
121	0xbeb66e43	-0.35630998
122	0x3e7a6ea3	0.24456267
123	0xbf17a94f	-0.5924272
124	0xbe837a3f	-0.25679204
125	0x3d4cf54d	0.050038625
126	0xbf11e278	-0.5698619
127	0xbecc4c2a	-0.3990186
128	0xbe4f7e7f	-0.20263098
129	0x3f1e278e	0.61779106
130	0x3e604725	0.2190214
131	0xbebbb632	-0.36662441
132	0xbd427916	-0.047478758
133	0x3ee55b6f	0.4479632
134	0xbf402ae9	-0.75065476
135	0xbef7b71a	-0.48381883
136	0x3daee134	0.08539048
137	0xbee67009	-0.4500735
138	0xbe831597	-0.2560241
139	0xbe69a9c0	-0.2281866
140	0xbeecf10a	-0.46277648
141	0xbf3eaa6f	-0.7447881
142	0xbf5f3fde	-0.8720683
143	0xbefab51a	-0.48966295
144	0x3f2d32e0	0.67655754
145	0x3ebc0a60	0.36726665
146	0x3eca337b	0.394924
147	0x3f2dff58	0.6796775
148	0x3edc6a5e	0.43049902
149	0x3ec9d51a	0.39420396
150	0xbf1f12dd	-0.6213816
151	0x3e4964bb	0.19667332
152	0xbf87fc65	-1.06239
153	0x3e176b05	0.14786918
154	0xbf2ed952	-0.68300354
155	0xbe68eb34	-0.22745973
156	0xbf298137	-0.6621279
157	0x3eeee820	0.46661472
158	0xbefc9ce4	-0.49338448
159	0x3f891a70	1.0711193
160	0x3dd06138	0.10174793
161	0xbda0fbde	-0.0786054
162	0x3eca9551	0.39567044
163	0xbed6e89a	-0.41974336
164	0xbf103bc4	-0.56341195
165	0xbe45238e	-0.19251844
166	0xbea388ac	-0.3194021
167	0x3bb01106	0.005373123
168	0xbf3bf5a6	-0.73421705
169	0xbe0c0c08	-0.13676465
170	0x3db11fed	0.086486675
171	0xbeb4b1a3	-0.35291776
172	0x3e95aa8a	0.29231673
173	0xbf3c8604	-0.7364199
174	0x3ec691c8	0.38783097
175	0xbe977e13	-0.29588374
176	0x3e81b360	0.25332165
177	0x3e1be437	0.15223776
178	0x3f16ab48	0.58855104
179	0xbf2fffb1	-0.6874953
180	0x3ed00a9c	0.40633094
181	0xbea45168	-0.32093358
182	0x3eb2c7f5	0.3491818
183	0x3e2813c1	0.16413786
184	0xbeb592d9	-0.35463598
185	0x3e6a6116	0.22888598
186	0xbf0f1ace	-0.55900276
187	0x3e326946	0.17422971
188	0xbf02eaf6	-0.5113977
189	0xbf3a7e1f	-0.72848696
190	0xbe26790e	-0.16257116
191	0xbcb36421	-0.021898331
192	0x3ecb3bc0	0.39694023
193	0x3f5d2255	0.8638051
194	0x3f46fd06	0.77729833
195	0xbe2130d9	-0.1574129
196	0x3ea4f7ac	0.3222021
197	0xbdc02c93	-0.09383502
198	0x3ed607ee	0.41802925
199	0x3e29e357	0.1659063
200	0x3ed98afc	0.4248885
201	0x3ede2f3a	0.43395406
202	0xbe495247	-0.19660293
203	0x3d88d47a	0.06681152
204	0x3e9dae7c	0.30797184
205	0x3f22d923	0.63612574
206	0xbd8284bd	-0.06372974
207	0x3e754093	0.23950414
208	0xbe55eafd	-0.20890422
209	0x3f4e3863	0.8055479
210	0x3ea07123	0.31336316
211	0x3f0ea161	0.55714995
212	0x3f0a6235	0.540561
213	0x3b01b3d0	0.0019791014
214	0xbeb6326c	-0.35585344
215	0xbd6bfdc1	-0.057615045
216	0xbf436e48	-0.7634015
217	0x3e51e092	0.20495823
218	0xbdce65e6	-0.10078029
219	0x3e9e1687	0.30876562
220	0xbd2ac8f3	-0.041695546
221	0xbe822786	-0.2542078
222	0xbf06c7a0	-0.52648354
223	0x3f2060d6	0.6264776
224	0x3f8eca39	1.1155463
225	0x3c346f58	0.011012875
226	0x3faa508c	1.3305831
227	0x3e835ac1	0.25655177
228	0xbe599aeb	-0.21250503
229	0x3e4cf4c3	0.20015244
230	0xbf6487a4	-0.8926947
231	0xbed0aacc	-0.40755308
232	0xbe6488d8	-0.22317827
233	0x3d09da86	0.033655666
234	0xbf08271a	-0.53184664
235	0xbecb27e8	-0.39678884
236	0x3f1619f8	0.58633375
237	0x3ec0bc65	0.37643734
238	0x3f424784	0.75890374
239	0xbedc77df	-0.43060204
240	0xbedebd4a	-0.4350379
241	0x3f6eb4e1	0.9324475
242	0x3ec3907a	0.38196164
243	0x3f81be87	1.0136269
244	0x3effa8d7	0.49933502
245	0x3f128b1e	0.57243526
246	0xbf56b43b	-0.8386876
247	0x3e8a2af5	0.269859
248	0x3ed4811f	0.41504762
249	0xbf414420	-0.75494576
250	0xbe49697d	-0.19669147
251	0x3f2a811c	0.66603255
252	0x3f339e81	0.7016373
253	0xbfb931bb	-1.4468302
254	0x3f2f7af7	0.68547004
255	0xbdc0bfbe	-0.09411572
