Chapter2:FGMPINN/TrainedMLPs/PIML/CP/W_5.npy (npy, 3008 bytes, 1 tensors)

array f4 [30, 24]
00000000: 14a6 33bf dc40 9c3e 7804 6c3d f695 013f
00000010: ce2b 363d d97a 82bf e4f1 b53e 8572 5f3e
00000020: f3f6 793e 1691 cebd 73fb 09bf 0c2a 853e
00000030: 50d6 dd3d 733b de3e be66 f83d 65ba d23e
00000040: 848b 46be 56ca 02bf a51a a93b 456a 29bf
00000050: 8bde ce3d 4119 9f3e f3ed 653d 81c1 9abe
00000060: 3503 193e 250a 393e 50ab 1c3e 116e c83d
00000070: 20b7 f43e 6061 afbd ce73 08be 28e2 1d3f
00000080: 838d 9abe 31bd 2fbe 0961 7d3e 06c4 343e
00000090: c62c af3e 3864 173f 3a03 f5be b0ec 8cbe
000000a0: 6107 83be 72c0 593e 79ed 0d3f 8c8f 083f
000000b0: 48c6 b23e 4764 0a3f 3e97 0bbe 400e 97bd
000000c0: 4b20 523e 5a6e 7f3e f308 8abe 74fd 66be
000000d0: 96a5 4bbe 17f6 a2bd 2914 8dbd 7b77 0ebf
000000e0: fc37 d83d 0085 9e3e 22c7 0e3f 2164 0fbf
000000f0: ee35 9c3e aa63 92be 1c95 323e c580 ba3d
00000100: 9236 2cbe 217c ca3e 6de0 4bbe 7b70 0a3f
00000110: 7de3 d4be 1afd cabe 0ba2 a9be 4b61 64be
00000120: 9006 303f 2c99 063d 858c 1a3e 2515 893f
00000130: 119f 913e e119 263f c69d 693e a1fd e8be
00000140: e902 96be 3d21 a2bd 3b2e f13e 5db1 c93e
00000150: 2b5a 943d c6f2 ad3e aafd 75bd e90c bd3d
00000160: ce91 f9bd feb1 3cbf 3b3b 46bd 3072 80bf
00000170: f53b adbd 70e3 8bbd fa85 20be 92b5 adbe
00000180: 8e0e 26be a5c9 0dbf 6186 133e 0efd 24bf
00000190: 101e 0f3d ec84 c8bc 6ed6 2f3d c3f5 95bc
000001a0: 66e2 53be 64a2 dc3e 22fa e0b8 344c 0d3e
000001b0: 5df8 97be e20e 9dbe 603c 62be ff18 f33d
000001c0: 78a0 1cbf 25fe fbbe 0c41 c53d 9733 393e
000001d0: 624d 8e3e e6a7 4d3e 00e5 3ebe 204a fdbe
000001e0: 9475 22bf cfbd 653c b0fa 2e3e f777 babe
000001f0: 34fa efbe 90d5 0fbe 4b49 e93c 82a9 793e
00000200: 9630 ebbd d52a 78bd 044b fc3d 15bc 7c3d
00000210: a105 80be fd9b 5cbe 6756 ec3e 8e20 023e
00000220: 70ad 2ebe 685b 1b3f 49f9 0fbf 056d 613e
00000230: d546 633e 7fbf 653d e322 983e de19 2d3e
00000240: aa82 a0be 34ca a9bd 1ae9 91be 6254 d23d
00000250: ec83 323e 50b7 1fbe 1880 ee3d a4d1 9a3e
00000260: 8da0 8bbe 1a2e 91bc 9da9 903e e9e8 8d3e
00000270: a9e6 11be 51cc 5d3e 6871 81be 4f64 193e
00000280: 358d 65be 6ab5 343f 1fe7 febd 777b 533f
00000290: 1034 96bd c11f ad3e 1f7e 8abd 3dbf 913d
000002a0: d3d6 cfbd 9d0d b73e 1500 2fbf 77b3 54bf
000002b0: 5cbc 92bc 6b34 6d3e bea6 8fbe 8830 d0be
000002c0: 96b0 2d3e 395a 743e e06e 473f cbab 6c3e
000002d0: 18c6 42bd 548c 60be 1f4f 933e 15d4 9dbd
000002e0: 342b d5bd c3ee b43e 2044 213e f259 3c3f
000002f0: 3d4a 04bf f87c 74be 892f e9be baf9 73bd
00000300: 2aed 97bf 149f 97be db45 123d b575 97be
00000310: bd33 b73b cf8e f6bd 3b18 183e e7e7 d4bd
00000320: 5b3b e53e b500 c23c cbf5 513e 16eb 9d3e
00000330: 8881 8c3b 195e ee3d 120d ecbd 8c30 583f
00000340: 94b0 133e a1f6 373e e3bc afbe 8cd1 babe
00000350: 0a0e c2bd 7ef6 f43d b64e a33e f77a 203d
00000360: 4b86 8fbc 1ec1 083e e941 1bbd 56a5 d53b
00000370: 0827 513e d82f 50bd 7b98 dcbc 8b4c 80bb
00000380: c19f 21bc ab34 9cbe a48d 033e 37be 64bd
00000390: aaf1 013d 371c 6f3e 1d2f a23e 70fc 5a3d
000003a0: f703 263e 119d c9bd b7c8 e6be 285c 9cbd
000003b0: 2258 d4be c402 a8bd 5e6c 5abc f4b9 63be
000003c0: adc0 d3be f0e7 773e 88c1 813e 30d8 8a3e
000003d0: 727e f43d 8016 a63e 52c8 09be 8f56 9cbe
000003e0: 25d8 673e 4a0a 98be 8af0 8abe 4e4c b7be
000003f0: a811 47bd dd46 03bf 63e5 c33e 3a1c 3c3e
-0.7017529 0.30518234 0.05762145 0.5061945 0.04447537 -1.019374 0.3553611 0.2182103
0.2441061 -0.10086267 -0.53899306 0.26008642 0.108318925 0.4340473 0.121289715 0.41157833
-0.19389158 -0.5108999 0.005160647 -0.6617778 0.101010405 0.31073955 0.05613513 -0.30225757
0.1494263 0.18070276 0.15299726 0.097866185 0.47795963 -0.08563495 -0.13325426 0.6167321
-0.3018609 -0.17162015 0.24744047 0.17652902 0.34213847 0.59137297 -0.47854024 -0.27524328
-0.25591567 0.21264818 0.5544048 0.53344035 0.34916902 0.5405926 -0.13631913 -0.07375765
0.20520131 0.2494444 -0.26959953 -0.22557622 -0.19887385 -0.07957094 -0.06888611 -0.5565106
0.10557553 0.30960846 0.557726 -0.5601216 0.30509895 -0.28591663 0.17439693 0.09106592
-0.16817692 0.39547828 -0.1990983 0.5407788 -0.4157981 -0.39646226 -0.3313144 -0.2230274
0.68760014 0.03286092 0.15092666 1.0709578 0.2844167 0.6488324 0.22814092 -0.45506003
-0.29299095 -0.07916496 0.47105584 0.3939313 0.07243761 0.33974284 -0.060056366 0.09230978
-0.12186013 -0.73709095 -0.04839633 -1.0034847 -0.084587015 -0.0683049 -0.15676108 -0.3392759
-0.1621649 -0.5538581 0.1440673 -0.6444863 0.03494078 -0.024477445 0.042929105 -0.018305665
-0.20691833 0.43092644 -0.00010727743 0.137986 -0.29681674 -0.30675417 -0.22093344 0.11870002
-0.61182356 -0.49217334 0.09631547 0.18086086 0.27793413 0.2008358 -0.18642044 -0.49470615
-0.6346066 0.014022305 0.17087817 -0.3641965 -0.46870577 -0.14046311 0.028477332 0.24381068
-0.114838764 -0.060587723 0.123189956 0.061702807 -0.25004295 -0.2154388 0.4615967 0.12707731
-0.17058349 0.6068635 -0.56239754 0.22014244 0.22194989 0.056090828 0.29714116 0.16904399
-0.3134969 -0.0829052 -0.28498155 0.10270001 0.17433137 -0.15597272 0.11645526 0.30238068
-0.27270928 -0.017722178 0.28254405 0.2771676 -0.14248146 0.21659972 -0.25281835 0.14979671
-0.22417147 0.70589316 -0.124464266 0.8261027 -0.07334149 0.3381329 -0.06762337 0.07116554
-0.10148396 0.35752574 -0.683595 -0.8308634 -0.017912082 0.23164527 -0.28056902 -0.40662026
0.16961893 0.23862542 0.77903557 0.23112409 -0.0475522 -0.21928531 0.28771302 -0.07706467
-0.10408631 0.3533841 0.15748644 0.73574746 -0.5167578 -0.23875797 -0.4554408 -0.05956433
-1.1869252 -0.29613554 0.03571115 -0.2958199 0.0055908845 -0.12038957 0.14852993 -0.10395794
0.44771847 0.023681978 0.20503919 0.3084342 0.0042879023 0.116390415 -0.115259305 0.84449077
0.14422828 0.17965175 -0.34323797 -0.36487997 -0.09475334 0.11961077 0.3189599 0.03917977
-0.01752009 0.13354918 -0.037904654 0.0065199537 0.20425045 -0.050826877 -0.026928177 -0.0039153746
-0.009864748 -0.30508932 0.12847 -0.055845466 0.03172461 0.23350607 0.3167657 0.0534634
0.1621245 -0.09844411 -0.45075008 -0.07634765 -0.4147349 -0.082036525 -0.013331501 -0.22238904
-0.41357937 0.24209571 0.25342965 0.27118063 0.1193818 0.3243904 -0.13455322 -0.3053479
0.22641046 -0.2969535 -0.27136642 -0.35800403 -0.048600823 -0.51280004 0.38260946 0.18370143
