Chapter2:FGMPINN/TrainedMLPs/PIML/BetaZ/W_5.npy (npy, 3008 bytes, 1 tensors)

array f4 [30, 24]
0	0x3e3a238e	0.18177626
1	0x3e1380c6	0.14404592
2	0xbea4bf55	-0.32177225
3	0xbcd98f96	-0.026557725
4	0x3e3f7493	0.18696813
5	0xbdd4cc8a	-0.10390575
6	0x3e879e2c	0.26487863
7	0xbd804b4e	-0.06264363
8	0x3f125291	0.57157236
9	0xbe7543c4	-0.23951632
10	0xbe7c321c	-0.2462849
11	0xbd7d5b31	-0.061854545
12	0xbea137ac	-0.31487787
13	0xbeb3b4f7	-0.35099003
14	0xbeb4d82a	-0.3532117
15	0x3e7a1f89	0.24426092
16	0x3e1f3159	0.15546168
17	0xbe222386	-0.15833864
18	0x3e6f8cc0	0.23393536
19	0x3e08917d	0.1333675
20	0xbe3b616a	-0.1829888
21	0xbe7e6164	-0.24841839
22	0xbea9142e	-0.33023208
23	0xbf23c3d7	-0.639707
24	0xbe39295d	-0.18082185
25	0xbd8a5446	-0.06754355
26	0x3edbc3ea	0.42922908
27	0x3ea396a9	0.31950882
28	0xbd7a1250	-0.06105262
29	0x3df2de9b	0.11858865
30	0x3ddf37a9	0.10899288
31	0x3b5fc727	0.0034145804
32	0x3e3e0915	0.18558152
33	0xbce8626d	-0.028367246
34	0x3eb6d6b5	0.35710683
35	0xbee9de2c	-0.45677316
36	0x3e875ecd	0.26439515
37	0xbc7ad634	-0.015309859
38	0xbf0154da	-0.505201
39	0xbf02b083	-0.51050586
40	0x3b05d705	0.002042235
41	0x3e0a4be2	0.1350551
42	0x3e890af1	0.2676616
43	0x3ed7793b	0.4208468
44	0x3e0acbf0	0.13554358
45	0xbdec7522	-0.11545779
46	0x3efe9f20	0.49730778
47	0xbc1507d9	-0.009096109
48	0xbe206710	-0.15664315
49	0xbd646537	-0.05576059
50	0x3d51bc6f	0.051205095
51	0xbf3e1738	-0.7425418
52	0x3eae6d1b	0.34067616
53	0xbe80acc0	-0.25131798
54	0xbde8e099	-0.113709636
55	0xbee48fb9	-0.44640902
56	0xbcac06f0	-0.020999402
57	0x3cb255bb	0.021769395
58	0x3df68da6	0.12038736
59	0x3eb2a83e	0.34893984
60	0xbec2a304	-0.38014996
61	0x3dbc7ca7	0.09203463
62	0x3e8b3368	0.27187657
63	0x3e7f54d3	0.24934702
64	0xbe5e38ab	-0.21701305
65	0x3e81b20f	0.2533116
66	0x3eb8ebbb	0.36117348
67	0x3cda61fa	0.026658047
68	0x3e49d2d5	0.19709332
69	0x3e0ee614	0.13954955
70	0xbe2fbcef	-0.17161916
71	0xbe9f8539	-0.31156328
72	0xbe35e949	-0.17764772
73	0x3e541da8	0.20714438
74	0xbed65768	-0.4186356
75	0xbe026bb3	-0.12736396
76	0xbd875e3b	-0.0660977
77	0x3f2fc9f6	0.6866754
78	0x3e9faf7c	0.3118857
79	0x3f17cd56	0.5929769
80	0x3d365d00	0.044522285
81	0xbe302449	-0.17201342
82	0x3eb82dce	0.35972446
83	0x3e0f8b60	0.14018011
84	0xbeb143d0	-0.3462205
85	0xbdc0aef8	-0.09408373
86	0x3e0b92aa	0.13630167
87	0xbea99f67	-0.33129427
88	0xbeb71fe2	-0.35766512
89	0x3db84385	0.08997253
90	0x3e25ea50	0.16202664
91	0x3ea5e230	0.3239913
92	0x3d77204d	0.06033354
93	0xbf361b6b	-0.71135587
94	0xbd124e11	-0.03571898
95	0x3eb3ec40	0.35141182
96	0x3e2ff13a	0.17181864
97	0xbd619cb3	-0.05508108
98	0xbe20a955	-0.15689595
99	0xbe979ae1	-0.2961035
100	0xbdf9d6bb	-0.1219916
101	0xbed043c6	-0.40676707
102	0xbf28bc21	-0.6591206
103	0xbec2e538	-0.38065505
104	0x3e9f82b7	0.31154415
105	0xbeb6708d	-0.35632744
106	0xbee5541c	-0.44790733
107	0x3e8663c0	0.26247978
108	0x3e9ae0f3	0.30249748
109	0x3d648298	0.055788606
110	0xbd8c518d	-0.06851492
111	0xbf4fa2ff	-0.8110809
112	0xbf05324b	-0.52029866
113	0x3dd5e8b9	0.10444779
114	0xbf03cd1c	-0.5148485
115	0xbd8bbc4e	-0.06823026
116	0x3f0224ee	0.508376
117	0x3e983dac	0.29734552
118	0x3e2f764e	0.17134973
119	0xbd66715b	-0.056260448
120	0xbe4fbb70	-0.20286345
121	0xbd98f89a	-0.07469292
122	0x3d3da215	0.04629715
123	0xbf24680e	-0.64221275
124	0xbe761d0d	-0.2403452
125	0xbedc47a0	-0.43023396
126	0x3dd2065c	0.10255119
127	0xbefb85c0	-0.4912548
128	0xbc83aaf0	-0.01607272
129	0x3bab2336	0.0052227033
130	0xbe687d42	-0.22704032
131	0x3eb77e25	0.35838428
132	0x3eae4d2b	0.3404325
133	0xbf0766ce	-0.5289124
134	0x3e267ff6	0.1625975
135	0xbe9e73ec	-0.30947816
136	0xbea97477	-0.33096668
137	0x3de16dfc	0.11007306
138	0x3e486d0c	0.19572848
139	0xbd72fee4	-0.059325114
140	0xbe432ea6	-0.19060764
141	0xbe7348f2	-0.23758295
142	0x3e3bdb70	0.18345428
143	0xbe04ae0f	-0.12957023
144	0x3acb3e19	0.0015506177
145	0xbe4bc2eb	-0.19898574
146	0xbd323086	-0.043503307
147	0x3b1d61b1	0.0024014527
148	0xbd376594	-0.044774607
149	0xbf00c82f	-0.50305456
150	0xbeeea6ea	-0.4661172
151	0x3b852037	0.004062678
152	0x3dc290cc	0.09500274
153	0xbf828e8a	-1.019975
154	0x3d984872	0.07435693
155	0x3b8060be	0.0039177826
156	0x3e639fca	0.22228923
157	0xbd3465cf	-0.044042405
158	0x3db51c85	0.0884333
159	0xbef92e48	-0.48668122
160	0x3cfbabc4	0.030721553
161	0xbe5882d3	-0.21143655
162	0xbdd136e1	-0.102155454
163	0x3b85c81b	0.0040826923
164	0xbede3757	-0.43401596
165	0x3de48679	0.11158461
166	0xbe75c5af	-0.24001192
167	0x3e1443ff	0.14479063
168	0x3f023f66	0.5087799
169	0xbe91195f	-0.2833967
170	0x3d908e2a	0.07058366
171	0xbe9230ed	-0.28552952
172	0xbe0bb738	-0.13644111
173	0x3f0312e6	0.5120071
174	0x3e924128	0.28565335
175	0xbeb1e9f1	-0.34748796
176	0x3da40552	0.08008827
177	0xbe1c2e7b	-0.15252106
178	0xbeaac92e	-0.33356613
179	0x3da01c19	0.07817859
180	0xbbbf6e58	-0.0058420114
181	0x3e78d4bf	0.24299906
182	0xbe61cff6	-0.22051987
183	0x3e539396	0.20661768
184	0x3dfccb88	0.12343508
185	0xbf2a35d7	-0.66488403
186	0xbd66904d	-0.05628996
187	0x3e03ffcd	0.12890549
188	0xbea9e041	-0.33178905
189	0xbf0edf02	-0.5580903
190	0x3e01da30	0.12680888
191	0xbe11632b	-0.14197986
192	0x3f0018d8	0.5003791
193	0x3ed20dc0	0.41026115
194	0x3ea95e55	0.33079782
195	0x3efaea8b	0.49007067
196	0x3eb2f54f	0.3495278
197	0x3f0321e4	0.5122359
198	0x3ca473c4	0.020074733
199	0x3e8dde72	0.27708775
200	0xbe002461	-0.12513877
201	0x3e718c72	0.23588732
202	0x3e2095ef	0.15682195
203	0x3cb4293d	0.02199232
204	0xbe5f640d	-0.2181551
205	0x3eaa232d	0.33229962
206	0x3d12fda9	0.03588644
207	0x3ecc4a18	0.3990028
208	0xbd00deac	-0.031462356
209	0xbe13c039	-0.14428796
210	0x3cef631b	0.029222062
211	0x3e03d366	0.12873611
212	0xbeaf6d4b	-0.3426307
213	0xbe71e5c0	-0.23622799
214	0x3e81227c	0.25221622
215	0x3ed09957	0.4074199
216	0xbe82d80f	-0.25555465
217	0xbe817db0	-0.25291204
218	0xbe344cde	-0.17607448
219	0xbdfa5c6f	-0.122246616
220	0xbdc1e150	-0.09466803
221	0xbe860dc3	-0.26182374
222	0xbf0e9a9a	-0.55704653
223	0x3a3dfa71	0.00072470965
224	0xbea58e5c	-0.32335174
225	0x3e3feb28	0.18742049
226	0x3eca4536	0.3950593
227	0x3c9e4141	0.019318225
228	0xbe7858b2	-0.24252585
229	0xbdf20c23	-0.11818721
230	0x3e4b57b0	0.19857669
231	0xbe0c9155	-0.13727315
232	0x3e3f1b73	0.18662815
233	0x3e90f708	0.2831347
234	0x3d5b815a	0.053590156
235	0xbdf7fcc2	-0.121087566
236	0xbea67f46	-0.32518977
237	0x3eb1cfa4	0.3472873
238	0xbec5d22c	-0.3863691
239	0xbeb3b32f	-0.35097644
240	0xbea8b4f7	-0.32950565
241	0xbeed90e7	-0.46399614
242	0xbe14be40	-0.145257
243	0xbf108434	-0.56451726
244	0x3d8c89c2	0.06862213
245	0xbddb26e7	-0.107007794
246	0x3dd0812e	0.10180889
247	0xbe3ea73d	-0.18618484
248	0x3ed032a9	0.4066365
249	0x3d0a8775	0.03382059
250	0x3de7a1e1	0.11310173
251	0xbe364b33	-0.17802124
252	0x3eb9a644	0.36259663
253	0x3e6eccaf	0.23320268
254	0xbe375a81	-0.17905618
255	0xbe84c000	-0.25927734
