Chapter4:HPOptimization/TrainedMLPs/PCA/Group2/W_4.npy (npy, 4208 bytes, 1 tensors)

array f4 [34, 30]
0.29891115 -0.19068263 0.7447549 -0.28537914 -0.114718564 -0.2934 0.50059193 0.29296997
-0.49569163 -0.11227135 0.66627234 -0.26588988 0.23823291 0.12468066 -1.2287717 -0.3547482
-0.006785757 -0.25737268 0.23569515 -0.6134261 0.28672487 0.32560647 0.3238056 -0.0746883
-0.5863879 -0.32804558 0.017196069 -1.0851872 0.20535153 0.104826495 0.029945415 0.2534105
-0.40216285 -0.16453382 -0.26329148 -0.752906 -0.26971033 -0.5900855 -0.18490134 0.13858518
0.46010178 0.27931663 0.6522061 0.13873966 -0.052909244 -0.16828239 -0.39037615 0.18775356
0.62903076 0.037708815 -0.20453174 -0.41037375 -0.34590325 -0.55709994 -0.043501016 -0.34503067
-0.0720323 -0.72356427 0.31146747 -0.1475381 0.007216881 0.5399451 0.23454295 0.041747723
-0.047574583 0.25863355 0.31687114 0.025824957 0.0013746716 0.758807 0.66390216 1.3907436
-0.12765156 0.15436547 0.09101261 0.41082785 -0.16874927 0.3109122 -0.4305018 0.093912944
0.14221539 -0.2552208 0.011659396 -0.2220846 0.27157605 0.1612565 0.35102886 0.006590324
-0.23728736 0.72200614 -0.28514054 -0.66854155 0.3496117 -0.12860566 0.54286486 -0.30040166
0.55427974 -0.1000532 -0.5772159 0.42519277 -0.3896578 -0.14956129 0.12774193 0.29890028
-0.3366868 -0.9055669 0.55881536 -0.11579301 0.5847771 0.015806202 0.5411005 0.88288087
0.460052 0.06198824 -0.19033124 0.6222034 0.41168892 0.4836847 -0.024148706 0.33329275
-0.15045011 -0.17261982 -1.3948203 -0.37974715 -0.069602385 0.048963744 -0.28748906 0.079952836
-0.21446098 -0.58619535 -0.17593135 -0.21107286 -0.053632047 -0.20353772 -0.019426713 -0.38692898
-0.10464154 -0.08248139 0.048514534 0.080887906 -0.29173642 -1.5322578 -0.85284275 -0.11499384
-0.06776362 -0.89361554 0.17092063 -0.14775974 0.1778891 -0.5554391 -0.21076056 0.87734693
0.4880429 0.45923206 0.2269283 0.31801468 -0.57121927 -0.70314145 -0.802879 0.6106595
0.8404675 -0.5732771 0.17618151 -0.5605631 0.018253373 0.40018186 -0.23600632 0.14036497
0.11979737 -0.6198188 0.8389882 -0.024914496 0.33783644 0.2258869 0.16318347 0.5405592
0.6784962 -0.3882461 -0.18867947 -0.25668177 0.32574973 -0.5296018 -0.23002692 0.2520606
0.2204679 0.076407626 -0.6084419 -0.49845323 -0.502716 0.12861118 -0.06649629 -0.58336115
-0.37967178 -0.12326896 -0.4181091 -0.25585905 -0.10568797 0.13308296 -0.63658035 0.053882733
0.49351293 -0.042163238 -0.011020904 0.4022086 -0.6302903 -0.25025517 0.006409534 -0.29741517
-0.44053033 -0.71391493 -0.05512253 -0.5585193 0.00019641661 0.19380456 -0.43745142 -0.43344104
-0.38580048 -0.55719656 0.35707042 -0.5229162 -0.1746521 0.06441785 -0.4439819 0.17085497
0.48467088 -0.5956994 -0.30332994 -0.40561712 0.15420282 0.0243315 -0.033878952 0.08772823
-0.2632835 0.015631063 0.31722414 0.27119833 -0.33467257 0.25469744 0.40885976 0.17823145
0.12456728 0.6286918 0.2608319 0.36120474 0.1902277 0.040788416 -0.19324519 -0.29491147
-0.023044156 -0.18290618 0.048942637 -0.5965255 -1.1492432 -0.22008699 0.1538728 0.09535993
00000000: e20a 993e 4f42 43be 42a8 3e3f 371d 92be
00000010: 91f1 eabd 8638 96be cb26 003f 2900 963e
00000020: 4bcb fdbe 86ee e5bd d390 2a3f b822 88be
00000030: 54f3 733e 9358 ff3d 6448 9dbf 8ea1 b5be
00000040: 0e5b debb 5ac6 83be 125a 713e 7e09 1dbf
00000050: 9acd 923e e4b5 a63e d9c9 a53e 2ef6 98bd
00000060: 841d 16bf 97f5 a7be c5de 8c3c 6ae7 8abf
00000070: ac47 523e 46af d63d 1650 f53c 05bf 813e
00000080: 4ae8 cdbe 8e7b 28be 24ce 86be 73be 40bf
00000090: 7917 8abe d80f 17bf c756 3dbe 46e9 0d3e
000000a0: 7692 eb3e 9702 8f3e fbf6 263f c511 0e3e
000000b0: 5db7 58bd 3852 2cbe 62df c7be 7842 403e
000000c0: 2908 213f 8f74 1a3d c570 51be 821c d2be
000000d0: 3b1a b1be 1a9e 0ebf 1f2e 32bd dca7 b0be
000000e0: ac85 93bd 823b 39bf aa78 9f3e 3a14 17be
000000f0: 967b ec3b d839 0a3f 072c 703e a9ff 2a3d
00000100: 91dd 42bd 9e6b 843e ef3c a23e dc8e d33c
00000110: 532e b43a 2d41 423f 7ef5 293f e303 b23f
00000120: 17b7 02be fb11 1e3e d264 ba3d 0758 d23e
00000130: 9ccc 2cbe e22f 9f3e bb6a dcbe 6e55 c03d
00000140: e9a0 113e 4dac 82be 0d07 3f3c 256a 63be
00000150: 040c 8b3e 6d20 253e 0eba b33e a5f3 d73b
00000160: 75fb 72be 65d5 383f f1fd 91be 8a25 2bbf
00000170: 4e00 b33e 34b1 03be 31f9 0a3f 3fce 99be
00000180: 47e5 0d3f b1e8 ccbd 6cc4 13bf deb2 d93e
00000190: 3a81 c7be 9826 19be c8ce 023e 7509 993e
000001a0: 3662 acbe 3bd3 67bf 860e 0f3f e324 edbd
000001b0: f4b3 153f 027c 813c 9085 0a3f 7b04 623f
000001c0: f08b eb3e 61e7 7d3d 31e6 42be b948 1f3f
000001d0: e4c8 d23e 85a5 f73e 82d3 c5bc 59a5 aa3e
000001e0: 980f 1abe 40c3 30be 7989 b2bf 386e c2be
000001f0: b28b 8ebd 358e 483d c431 93be 50be a33d
00000200: a99b 5bbe e610 16bf 5927 34be 7c23 58be
00000210: 47ad 5bbd 316c 50be c524 9fbc 8e1b c6be
00000220: 4e4e d6bd 01ec a8bd 2db7 463d 8fa8 a53d
00000230: 7a5e 95be 0621 c4bf e753 5abf e481 ebbd
00000240: a7c7 8abd fdc3 64bf d105 2f3e 544e 17be
00000250: 8f28 363e 4231 0ebf 9ed1 57be cf99 603f
00000260: c2e0 f93e 7720 eb3e e45f 683e d2d2 a23e
00000270: 6d3b 12bf 1401 34bf 7a89 4dbf 2e54 1c3f
00000280: e128 573f 4ac2 12bf ed68 343e 1081 0fbf
00000290: 1988 953c a3e4 cc3e a4ab 71be d6bb 0f3e
000002a0: 5358 f53d 72ac 1ebf eec7 563f 7c19 ccbc
000002b0: e6f8 ac3e e54e 673e 9119 273e 1662 0a3f
000002c0: edb1 2d3f 31c8 c6be 3135 41be cb6b 83be
000002d0: abc8 a63e fc93 07bf 2d8c 6bbe 160e 813e
000002e0: 56c2 613e 9a7b 9c3d d9c2 1bbf 4335 ffbe
000002f0: ffb1 00bf a6b2 033e 352f 88bd 2857 15bf
00000300: 5764 c2be 7074 fcbd 6512 d6be f5ff 82be
00000310: ef72 d8bd e646 083e eef6 22bf 24b4 5c3d
00000320: baad fc3e 5cb3 2cbd 0691 34bc 49ee cd3e
00000330: b55a 21bf 7221 80be 1107 d23b cd46 98be
00000340: 318d e1be 21c3 36bf 29c8 61bd 1ffb 0ebf
00000350: 2ff5 4d39 b474 463e a2f9 dfbe fceb ddbe
00000360: a487 c5be 6fa4 0ebf efd1 b63e d6dd 05bf
00000370: 00d8 32be 81ed 833d 9851 e3be 9bf4 2e3e
00000380: c826 f83e c27f 18bf 104e 9bbe 0cad cfbe
00000390: 58e7 1d3e db52 c73c a8c4 0abd dcaa b33d
000003a0: 18cd 86be b70c 803c 346b a23e 82da 8a3e
000003b0: 345a abbe b467 823e 1156 d13e 4e82 363e
000003c0: 211d ff3d f2f1 203f c28b 853e d4ef b83e
000003d0: 0dcb 423e c111 273d 11e2 45be a3fe 96be
000003e0: 19c7 bcbc c24b 3bbe 1378 483d e5b5 18bf
000003f0: 671a 93bf 7c5e 61be d590 1d3e 114c c33d
