Chapter4:HPOptimization/TrainedMLPs/PCA/Group2/W_6.npy (npy, 2048 bytes, 1 tensors)

array f4 [24, 20]
-0.032880273 0.0039745467 -0.29493245 0.03775657 -0.34348983 -0.39521247 0.009822556 0.029497927
-0.018315546 0.42366722 -0.16713135 0.017090047 -0.026102666 0.22790927 -0.65303546 -0.579537
-0.6090516 0.27690974 -0.14099523 -0.080752656 -0.23070632 -0.0016070079 0.23260395 0.2267177
-0.10631447 0.4888215 0.018437563 0.1011184 0.0022995756 0.07708171 0.076365314 -0.32405847
-0.08020451 0.6334895 -0.3469431 -0.03819747 -0.20198873 -0.0802896 -0.12304822 -0.457183
-0.24348938 -0.32057858 -0.62369615 0.38892758 0.2459899 0.0034389866 -0.010999257 -7.242114e-05
0.0019187641 -0.39333522 -0.5017279 0.2766406 -0.0298894 0.03651368 -0.065716535 0.28463626
-0.57290965 -0.416652 -0.22082491 -0.19341375 0.38336703 0.06574817 -0.3579198 0.30320635
0.761817 0.6239496 0.040561765 -0.05149403 -0.008322248 -0.05690179 0.31357476 0.0057785604
-0.1061916 0.38055828 0.2731127 -0.43786383 0.48822844 0.20768371 0.042663157 -0.44711387
-0.5884331 0.1210655 -0.29033643 -0.44471964 -0.47068435 0.11388962 0.020252295 -0.04279181
-0.042008642 0.66480446 -0.24904919 0.16336156 0.1237903 0.47867867 -0.20210768 0.021528777
0.2998405 -0.6741453 -0.05618362 0.14275928 -0.13843702 -0.12308757 -0.36573467 -0.21710551
0.2358486 -0.09462003 0.04080911 -0.004627303 0.00012026068 0.13880223 -0.35582578 0.19402678
-0.17122482 -0.054342203 -0.32154855 0.1844734 -0.5924243 -0.20541194 0.4425037 -0.43019179
-0.38553387 0.15957518 0.08730377 0.408396 -0.7000784 0.13243945 0.022703433 -0.046408877
-0.03329136 -0.7378584 0.43530336 0.08563177 -0.12307384 0.88432723 -0.39411676 -0.07095976
-0.41687387 -0.23346788 0.98054665 0.0022143403 -0.2294279 -0.07822822 0.20931636 -0.28367832
0.4200618 0.12847313 -0.01653515 -0.027562866 -0.0071217627 -1.0379429 -0.30971858 -0.042769577
0.262543 -0.18466467 0.49321082 -0.38014334 0.079721764 -0.4072527 0.1946415 0.39921984
0.5343158 -0.086902745 0.3121959 0.8939151 0.068489484 0.6262431 0.025531756 -0.2275029
0.015660059 0.017260974 0.54990065 -0.43613768 0.07645286 0.122664675 0.5680114 0.4568927
0.8716144 0.44998255 0.5510888 0.67561305 -0.07507514 -0.08817086 -0.04643031 -0.29376936
0.058695827 -0.274749 0.007033714 0.033404175 0.017402217 -0.21443264 0.04454802 0.48553345
-0.11950892 0.3335179 -0.23340796 -0.13293555 -0.13730775 0.4830877 -0.2495403 -0.101233326
-0.2365004 0.11162254 0.35104263 0.31231868 -0.1959421 -0.40750277 -0.03163882 0.0682109
0.027087247 0.19414417 0.01719507 -0.17026623 -0.025633983 -0.36749572 0.07171212 0.60365415
0.5196225 0.21186014 0.12254446 -0.094739296 -0.5136332 -0.2476732 0.123833224 -0.3154128
-0.22393088 0.118542075 -0.0017469419 -0.019030306 -0.0041347654 0.24105665 -0.27090743 0.47562563
0.04095239 -0.10501604 -0.19202268 -0.58562857 -0.029058628 -0.19178756 -0.012034344 -0.32643074
0.21808217 0.17014688 -0.62846255 -0.3556899 -0.20328586 -0.14509068 0.024782998 0.034611672
-0.01211564 0.41909668 -0.5390323 0.31115803 0.010885019 0.34797502 -0.0431929 0.41740593
00000000: 77ad 06bd ea3c 823b 6301 97be a2a6 1a3d
00000010: e6dd afbe 4a59 cabe c9ee 203c a3a5 f13c
00000020: 7c0a 96bc e9ea d83e 7b24 2bbe 6d00 8c3c
00000030: 42d5 d5bc 0c61 693e 552d 27bf 895c 14bf
00000040: ceea 1bbf 1dc7 8d3e 0e61 10be a661 a5bd
00000050: 473e 6cbe 3da2 d2ba bb2f 6e3e af28 683e
00000060: 67bb d9bd d046 fa3e 5f0a 973c 2a17 cf3d
00000070: 7ab4 163b 04dd 9d3d 6b65 9c3d feea a5be
00000080: 4342 a4bd 5e2c 223f 87a2 b1be f374 1cbd
00000090: 22d6 4ebe e06e a4bd b500 fcbd e413 eabe
000000a0: 4855 79be e022 a4be 8daa 1fbf 8421 c73e
000000b0: c7e4 7b3e 9f60 613b 3a36 34bc cee0 97b8
000000c0: 0a7f fb3a 3c63 c9be 3d71 00bf d6a3 8d3e
000000d0: 9dda f4bc 5e8f 153d 6496 86bd d8bb 913e
000000e0: 35aa 12bf 6953 d5be ed1f 62be 410e 46be
000000f0: af48 c43e faa6 863d 4441 b7be dd3d 9b3e
00000100: 7006 433f 29bb 1f3f 1824 263d 67eb 52bd
00000110: 0a5a 08bc da11 69bd df8c a03e 145a bd3b
00000120: fb7a d9bd 89d8 c23e 6ed5 8b3e b02f e0be
00000130: 14f9 f93e 0aab 543e 90bf 2e3d 1cec e4be
00000140: 8da3 16bf 30f1 f73d faa6 94be 4bb2 e3be
00000150: 8afd f0be f63e e93d 24e8 a53c 7746 2fbd
00000160: 4111 2cbd a030 2a3f c006 7fbe 4148 273e
00000170: c585 fd3d 5f15 f53e 51f5 4ebe 1e5d b03c
00000180: b284 993e c994 2cbf cc20 66bd 7d2f 123e
00000190: 6fc2 0dbe 5615 fcbd 9341 bbbe e850 5ebe
000001a0: 4c82 713e 25c8 c1bd 7427 273d a2a0 97bb
000001b0: 7634 fc38 2c22 0e3e cc2e b6be f5ae 463e
000001c0: 8f55 2fbe ee95 5ebd 03a2 a4be 98e6 3c3e
000001d0: 1ea9 17bf 8257 52be d88f e23e 1942 dcbe
000001e0: b264 c5be ad67 233e 52cc b23d 4819 d13e
000001f0: 5738 33bf 359e 073e 8dfc b93c 3c17 3ebd
00000200: 855c 08bd 4ae4 3cbf 15e0 de3e b65f af3d
00000210: 230e fcbd 4563 623f acc9 c9be 5a53 91bd
00000220: 7e70 d5be 3412 6fbe 1b05 7b3f 771e 113b
00000230: 26ef 6abe 1e36 a0bd 0757 563e 493e 91be
00000240: 5712 d73e 768e 033e b974 87bc 85cb e1bc
00000250: ad5d e9bb 50db 84bf 6f93 9ebe 272f 2fbd
00000260: 096c 863e bc18 3dbe 2186 fc3e 26a2 c2be
00000270: 2a45 a33d 6d83 d0be 1a50 473e 8b66 cc3e
00000280: ecc8 083f 11fa b1bd 24d8 9f3e 9fd7 643f
00000290: 3744 8c3d 7851 203f f927 d13c 85f6 68be
000002a0: 8649 803c e366 8d3c 4ac6 0c3f 704d dfbe
000002b0: 5193 9c3d 9e37 fb3d 3269 113f d7ed e93e
000002c0: 1f22 5f3f 1d64 e63e 2814 0d3f faf4 2c3f
000002d0: ffc0 99bd ed92 b4bd b52d 3ebd f068 96be
000002e0: 096b 703d e7ab 8cbe 127b e63b d1d2 083d
000002f0: 188f 8e3c 3b94 5bbe fc77 363d d797 f83e
00000300: 18c1 f4bd dcc2 aa3e 7f02 6fbe 4220 08be
00000310: 679a 0cbe 4557 f73e 7e87 7fbe 6b53 cfbd
00000320: 292d 72be 5c9a e43d dcbb b33e 3ce8 9f3e
00000330: 0ca5 48be 34a4 d0be b597 01bd 28b2 8b3d
00000340: 13e6 dd3c bbcd 463e addc 8c3c 455a 2ebe
00000350: 5cfe d1bc 6628 bcbe cedd 923d 1489 1a3f
00000360: fb05 053f ddf1 583e 97f8 fa3d ad06 c2bd
00000370: 777d 03bf 0b9e 7dbe 469c fd3d c97d a1be
00000380: 234e 65be 30c6 f23d a5f9 e4ba 72e5 9bbc
00000390: ed7c 87bb 8ed7 763e 61b4 8abe 3485 f33e
000003a0: b1bd 273d a612 d7bd 98a1 44be c1eb 15bf
000003b0: 5c0c eebc f563 44be b22b 45bc ee21 a7be
000003c0: ef50 5f3e fc3a 2e3e ece2 20bf fd1c b6be
000003d0: 2b2a 50be a792 14be b705 cb3c f8c4 0d3d
000003e0: ad80 46bc d793 d63e 05fe 09bf 1b50 9f3e
000003f0: 1457 323c c829 b23e 0aeb 30bd 3bb6 d53e
