Physics_Informed_Hydrogen_FGM/TrainedMLPs/PIML/Kt/W_5.npy (npy, 3008 bytes, 1 tensors)

array f4 [30, 24]
000000 82 83 ea 3d cf 6b 9d 3e da bf 15 bf 98 49 a8 3e
       0.114508644 0.30746314 -0.5849587 0.32868648
000010 bb 5d cb be f5 67 c3 be 33 76 df 3d 1e 79 8d be
       -0.39719948 -0.3816525 0.109112166 -0.27631468
000020 b9 cd 7f be a1 2c 0d 3f e4 7e 8b 3d 9c df 17 3e
       -0.2498082 0.55146223 0.06811312 0.14831394
000030 8b bb 45 3e 53 74 da be 2a 71 21 be b6 47 34 3e
       0.19309823 -0.42666873 -0.15765825 0.1760548
000040 ad c8 4f 3e 54 ac bf 3e 66 f5 0e 3f b0 ea a4 bc
       0.20291395 0.37436163 0.558432 -0.020131439
000050 c3 3e 4c bf a0 b6 90 bf 21 fe dd bd 93 4f 9f 3e
       -0.79783267 -1.1305733 -0.10839487 0.31115398
000060 24 d0 25 bf 3d 45 e4 bf 58 05 3f bf 59 0a b8 bc
       -0.6477072 -1.783363 -0.7461753 -0.022465872
000070 8e 69 cb 3d 67 9a 89 3e b4 68 8f bf 64 52 43 be
       0.09932242 0.26875612 -1.1203828 -0.19074398
000080 b4 2e b6 3d db 6d 1d 3e e2 9e 5c bf 1e 80 f5 3c
       0.08895627 0.15373938 -0.86179936 0.029968318
000090 74 63 43 c0 12 ec 77 3f e3 24 19 3e fe bf 38 3e
       -3.0529451 0.9684459 0.14955477 0.18041989
0000a0 f5 98 41 3d 52 03 83 3d a2 99 0c 3f 0f 1b c9 be
       0.04726501 0.06397118 0.54921925 -0.39278457
0000b0 06 91 4a bf 1f cd fb bf 43 cb cc 3f 4f 50 7e 3d
       -0.7912754 -1.9671973 1.599953 0.062088307
0000c0 cc 57 de be 75 d3 53 3e 8c 7c b7 be 39 ae 6d 3e
       -0.4342636 0.20686133 -0.3583721 0.23210992
0000d0 6b 39 62 be 47 18 a3 3e 3b 45 c1 bd 7f 32 0f 3e
       -0.22092216 0.3185446 -0.09437033 0.13984106
0000e0 c3 13 64 be 6d 15 1b c0 62 f2 6f bd f1 3a 2d 3e
       -0.22273163 -2.4231827 -0.058580764 0.16917016
0000f0 8f 26 a3 be d6 f8 0c 3e e9 75 9d bf 92 32 40 3e
       -0.31865355 0.13766798 -1.2301608 0.18769291
000100 64 4a d5 ba 4d a6 ab 3e 63 9f f3 be ab f0 45 3e
       -0.001627278 0.33525315 -0.4758254 0.19330089
000110 8c 32 08 3e fe 0f 08 be 1c 08 d6 bf eb 15 b3 bf
       0.13300532 -0.1328735 -1.6721225 -1.3991064
000120 23 c4 25 be 46 48 92 3e 20 3d 06 3f 2b b3 3b 3e
       -0.16188101 0.28570765 0.5243702 0.18330066
000130 95 f6 12 bc 10 71 b9 be 16 f3 3b 3f 5f 11 cb be
       -0.008969923 -0.36219072 0.73417795 -0.3966169
000140 96 bf 3c 3e be d8 90 be db 8b b2 bd 82 09 88 be
       0.18432459 -0.2829036 -0.087180816 -0.26569754
000150 2f 2a cf be af 07 1c bf 87 3d b5 be 2c 2e a5 3e
       -0.4046187 -0.60949224 -0.35398504 0.3226179
000160 b2 88 13 bb c0 02 02 bd 39 26 14 be 25 8e 38 be
       -0.0022511897 -0.031740904 -0.14467706 -0.18022974
000170 b0 b3 31 bf 29 49 b7 3b 39 fb e9 3c f1 fa 2f bf
       -0.69414806 0.005593438 0.028562175 -0.6874228
000180 fe 33 8b bf f0 a9 fc be c6 78 29 be 1b bf b7 be
       -1.0875242 -0.49348402 -0.16549978 -0.3588799
000190 50 e6 2a 3e e3 35 12 bf c4 9e d6 3d c8 ee 55 3d
       0.1668942 -0.57113475 0.10479501 0.052229673
0001a0 a4 e8 2d 3e b2 d5 a8 bf 75 e7 7a bf 25 e1 1f 3d
       0.16983277 -1.3190215 -0.98009425 0.039033074
0001b0 22 f6 e0 bf 56 68 61 3e 07 65 97 bf 4c 6e d3 3d
       -1.7575114 0.22012457 -1.1827706 0.10323772
0001c0 2e 6c 81 be 40 2a 83 3c 89 2c 4d be af a8 d5 3d
       -0.25277847 0.016011357 -0.2003652 0.104325645
0001d0 b1 06 d0 be fe 56 a7 be 7d d9 6d 3d 6f 11 b4 3d
       -0.40630105 -0.32683557 0.05806874 0.08792388
0001e0 50 9a b6 bd 0f cb 87 3c 02 0d 18 bc 1d 11 3c bf
       -0.089161515 0.016576318 -0.009280445 -0.7346361
0001f0 5a 57 bd 3e b3 e2 21 3e 70 c8 b8 3d 2f 52 d2 be
       0.36980706 0.15809135 0.090226054 -0.41078326
000200 fe 46 09 be 73 61 cd be 90 fd 95 bd 68 7a 06 bf
       -0.13405988 -0.4011341 -0.07323754 -0.5253053
000210 0f 96 b3 bc 10 5f 77 bd 15 da f2 be 66 12 2e be
       -0.02192214 -0.060393393 -0.47432008 -0.16999206
000220 a8 68 5a be 58 2f d8 3e a4 78 43 be 66 48 92 be
       -0.21328986 0.4222362 -0.1908899 -0.2857086
000230 3b 35 54 3d 71 21 9e be 8c fd bf be 26 5f e7 be
       0.051808577 -0.3088489 -0.37498128 -0.4518978
000240 c1 80 79 be 08 08 ce 3e 36 57 a1 bd b1 27 cf bd
       -0.24365522 0.40240502 -0.07877962 -0.101149924
000250 71 e9 83 be 78 80 ac 3e 0e 7a be 3e 3b fe 9a be
       -0.2576404 0.33691764 0.37202495 -0.30272087
000260 fe 08 6b 3e 25 cf 0e 3f b1 fe 39 be 96 33 5c be
       0.22952649 0.5578483 -0.18163563 -0.21504053
000270 89 ef 0a bf 65 30 2f bf 2b 9d c0 bc f5 94 02 bf
       -0.5427175 -0.6843322 -0.023512444 -0.5100854
000280 31 82 96 3d 07 81 53 3e f2 23 25 3e 66 1a c4 3c
       0.07349051 0.20654689 0.16126993 0.023938369
000290 86 92 00 bf e3 75 3c bf 66 5a be be 1f 6c e6 bd
       -0.5022358 -0.7361738 -0.37178344 -0.11251091
0002a0 d0 bb 79 bf 79 4b 32 3b 62 78 6d 3d 86 fe 25 bf
       -0.97552204 0.002720563 0.057976134 -0.64841497
0002b0 e6 a2 d5 bd da a8 03 3f ed 84 33 3f 1f 6a 50 3e
       -0.10431461 0.5142952 0.70124704 0.20352982
0002c0 c9 36 08 3f cb a6 6d be 0b a6 4e 3c 4b 52 8a 3e
       0.53208596 -0.23208158 0.01261283 0.2701591
0002d0 9e 5b 55 3f a9 1e b5 bd 20 b7 4c bf 1b 35 a7 3e
       0.8334292 -0.088437386 -0.79966927 0.32657704
0002e0 aa f4 3b be 03 27 12 3f 62 ed a2 3d e0 83 2c 3f
       -0.1835505 0.5709078 0.079554334 0.67388725
0002f0 30 15 d8 be c9 49 23 be d0 78 3f 3e 2e dc 5f bf
       -0.42203665 -0.15946116 0.1869843 -0.8744534
000300 4c e9 4c bf cb 95 ac 3d e1 c7 fd bd 39 57 d6 3e
       -0.8004348 0.08427008 -0.123916395 0.4186342
000310 39 dd 7b bd e5 09 03 3f 76 ba 54 bf 95 61 88 be
       -0.06149027 0.5118697 -0.83097017 -0.2663695
000320 d2 7a 33 be 2a e6 97 bf 00 ca 64 bf 87 51 3e 3e
       -0.17527321 -1.1867115 -0.8937073 0.18585788
000330 1a e1 c5 bf 3b dc 85 3e c6 f5 d8 be 58 22 50 be
       -1.545932 0.26144585 -0.4237501 -0.20325601
000340 c5 e9 07 3e 14 03 1c 3e a2 f2 57 3e fe 74 4b be
       0.1327277 0.15235549 0.21088651 -0.19868848
000350 38 36 ae 3e e2 ce 08 3e ac 4f 8f 3d 03 9d 2b be
       0.3402574 0.1336017 0.06997618 -0.16759114
000360 1e 8b 35 be 86 47 d1 b9 66 7a 17 be 08 f0 a5 be
       -0.1772885 -0.00039916876 -0.14792785 -0.32409692
000370 04 87 6d 3e 18 ce 93 3e ed d7 fb 3e ce 12 fd be
       0.23196036 0.28868175 0.49188176 -0.4942841
000380 10 d6 88 3e 9c 20 84 3e d9 c7 78 be cf c5 6b 3e
       0.26725817 0.2580613 -0.24294986 0.23024677
000390 42 f8 b3 be 9d 97 63 be ee fe 0a bd bb b7 b3 3e
       -0.35150343 -0.22225805 -0.033934526 0.35101113
0003a0 3d c6 0d be 0f 2e 39 be 42 d4 ed bd 99 fd c7 be
       -0.13845153 -0.18083976 -0.116127506 -0.39060667
0003b0 a3 a2 10 bf 7d 49 86 be 32 47 04 bf 40 c2 d7 be
       -0.56498164 -0.26227942 -0.51671135 -0.42140388
0003c0 07 01 e3 3d f5 2c a4 be 5e f5 06 3e 1b 97 41 be
       0.1108418 -0.3206555 0.13179538 -0.18905298
0003d0 cd 85 23 bd 88 5d 9a 3f 50 c7 1c be 6f d3 58 3e
       -0.039922524 1.2059793 -0.15310407 0.21174406
0003e0 07 f1 45 3e c7 26 b2 3d 96 76 c5 3e bb d3 8d bd
       0.19330226 0.086988024 0.38567036 -0.0692515
0003f0 22 14 44 3f c7 54 b0 3e 67 49 a9 3e 2e 0c b0 bc
       0.7659322 0.3443968 0.33063814 -0.021490183
