Chapter2:FGMPINN/TrainedMLPs/DF/CP/W_2.npy (npy, 2368 bytes, 1 tensors)

array f4 [20, 28]
00000000: c273 033f 0dcf 943e 881f 02bf f69f bc3c
00000010: f752 ae3e bdb7 86be 4085 fd3e e051 20bd
00000020: 0a38 f83e 2147 1fbf 98fe 2abf 05f0 06bf
00000030: f741 7bbe 0e49 7bbe 6ae7 e5be 4c5c 063e
00000040: 9b8d 3e3e c081 fdbe 7ec6 ae3e 7882 983e
00000050: cd13 40be 18ff 6dbf e085 95be c4fc 0abd
00000060: 3561 57bf 2f6e 363e 9c6f 1f3f 792a b63e
00000070: 6ecf aa3e 2e1c 353f d62f 5e3f 0a4a b7bd
00000080: 1d0d c63e cf7f c13e 48b1 273e 8c08 b8bf
00000090: d912 233f 8de3 7e3c 1cc8 86be 01ed 8abf
000000a0: 4d7e e13d c61c c83e f91e 07be 009f 92be
000000b0: 0d9f 943d c9ef 763d c827 0f3e e97f 4f3e
000000c0: 2291 41be 1d07 ce3e 443f 5b3f 9c83 02bf
000000d0: a293 9c3e f16e a0be 3af8 e23d a6ce 2bbf
000000e0: b7cb c13e 352c b9bd c0a5 b93e c0e2 233e
000000f0: 35a6 f0be ddb7 2c3e cdcd f13e fb49 253f
00000100: e99e 5a3d c70f eb3e 3feb cf3e c994 1dbf
00000110: 2996 18bf 9c7c 3c3e d1ef 56be 4ef9 1bbf
00000120: 543d 11bf 1d2c ed3c ee27 65bf 1fc9 d6be
00000130: 0f65 19be 446b c03e a027 1a3e bd96 bc3e
00000140: 20a8 39bd ddb8 1bbf 22a2 f23e 1a8b dd3e
00000150: 0cfb ddbe 79eb 1cbe 3305 433e 7988 2fbf
00000160: b47b d0be 40db 753d cfd2 423e c9a6 2c3e
00000170: f8d6 16be 7b06 62bf 42d9 2fbf ac98 a93e
00000180: 61b2 843d 1545 f03e 711c 9cbe 0abc 563d
00000190: 8f29 113e e632 5b3d 3cd3 e3be 6260 85be
000001a0: e23c f23e feab c3bd db44 f8be c21f d83e
000001b0: 8219 e13e c83d eb3e bc25 053e 14d4 18bf
000001c0: 8983 ecbe 441d 543d 832f 14bf 5895 25bf
000001d0: 1519 b63e a59b 013f 7100 b43d 354b 843e
000001e0: 430e a4be b7f5 efbc 8b16 35bc 97c6 04bf
000001f0: 6126 51be 7fa0 bcbe b9de c93e be6e adbe
00000200: 0ec4 3fbe ea18 ae3e 3b23 50be 1381 023f
00000210: 022a f53e a10a 96be 1aa4 b83e e974 1abe
00000220: ad43 7dbe 91b3 503e 9b29 053f e5ec 38be
00000230: af0d 483e f7d6 c4be 90fd e93e 2ed5 88be
00000240: cef3 bf3e c7b3 ac3d 1cb9 9f3d b405 2d3f
00000250: d303 0ebf 33f4 b0bd 715b 02bf 0479 dc3d
00000260: df78 32bf 49f3 0fbe f7de cc3e 7ba7 ea3e
00000270: 03d4 85bf 7725 313e 3d1e ac3e a9f0 c5be
00000280: 736e 53bc 4aea aebe f11c 0fbe e767 48be
00000290: 0a4d ca3e 1d71 a53e a2ee b03c c4c5 363f
000002a0: 5bcd 9b3e 02a0 cb3d aa67 0a3e 658b 14bf
000002b0: 7a18 6dbd a363 4abe 49f0 c83e 3bde 43bf
000002c0: 52a8 2f3f 2bfd ebbe 6ddf 13bf 69b2 fd3e
000002d0: 5f89 fabe 7bef a53d 3120 293e f3cc 353f
000002e0: 47f3 c93d 2240 3ebf 13fc 00bf 7b56 92be
000002f0: 5a73 e7be 2c0d 15bf 413f d4be 3e80 78bc
00000300: 339b fc3d 49b5 7b3e 7a22 b23e 4520 6c3e
00000310: 23e9 59be 999a 903e 29cb c8be 395c cd3e
00000320: c784 6b3e 8ddd febe 73a7 a33e 45e8 f13d
00000330: f984 0ebf 4eeb 013f 93bf a73d 4a01 503f
00000340: 6576 28be 0e2f 01bf acf7 cf3d 272f 663f
00000350: 0e79 42be cf00 8fbe 63cb 1d3e c158 b93e
00000360: 23ab bdbe eb8b 983b 6620 68bf 1517 ac3e
00000370: 3531 db3e 5f2e 8ebe 6092 98be 3ce3 c33e
00000380: f7b8 88be 8fbf 8b3e 74e9 003f d3d7 b53d
00000390: 5615 d0be f2d4 cc3e 8a17 1c3e 761c ac3e
000003a0: b19a 933e b00e f03e 2dc0 ad3e c512 e4be
000003b0: e323 02bf dde3 cc3d b0f7 06bf 74d7 b0be
000003c0: 9bdc 8c3e 2148 63bf 8265 b8be 293a e6be
000003d0: 4085 1cbd 057e 1d3e c6b0 273e 290b f9bd
000003e0: 790a 923e 87b6 f7bd abec 71be 8fd0 acbe
000003f0: c7c0 313f 3980 263f 0ed1 0ebf f137 6ebe
0.5134851 0.29064217 -0.5082936 0.023025494 0.34047672 -0.26312056 0.49515724 -0.039140582
0.48480254 -0.6221791 -0.6679473 -0.5270999 -0.24536882 -0.24539587 -0.44903117 0.13121146
0.18608706 -0.49513054 0.34135813 0.2978704 -0.18757553 -0.9296737 -0.292037 -0.033932462
-0.841327 0.17815469 0.6227968 0.3557928 0.3336138 0.70746124 0.8679174 -0.08949669
0.3868188 0.37792823 0.16376221 -1.4377608 0.63700634 0.015557182 -0.26324546 -1.0853578
0.11010418 0.39084452 -0.13195409 -0.28636932 0.07256899 0.06028727 0.13980019 0.20263638
-0.1890302 0.40239802 0.8564341 -0.5098207 0.30581385 -0.31334642 0.11082502 -0.67112195
0.37850735 -0.09041635 0.3625927 0.16004467 -0.47001806 0.16867013 0.47227326 0.6456601
0.053374205 0.45910475 0.40609166 -0.61555153 -0.59604126 0.1840691 -0.2098992 -0.60927284
-0.56734204 0.028951699 -0.8951405 -0.41950318 -0.14979957 0.37581837 0.15054178 0.36833754
-0.045326352 -0.60828954 0.47389323 0.4327019 -0.43355596 -0.153242 0.19044952 -0.68567616
-0.40719378 0.060023546 0.1902573 0.16860498 -0.14730442 -0.8829114 -0.68690884 0.33124292
0.064793356 0.46927705 -0.3049045 0.05242542 0.1417601 0.053515337 -0.44497097 -0.26050097
0.47312075 -0.09554289 -0.48490033 0.4221173 0.43964773 0.45945573 0.13002676 -0.59698606
-0.46194103 0.051785722 -0.57885 -0.64681005 0.3556601 0.5062812 0.08789147 0.25838628
-0.3204213 -0.02929197 -0.011052738 -0.51865524 -0.20424797 -0.368412 0.39427736 -0.33873552
-0.18727133 0.34003383 -0.2032594 0.509782 0.47883612 -0.29304984 0.360627 -0.1508366
-0.24732848 0.20380999 0.5201661 -0.18059118 0.1953647 -0.38445255 0.45701265 -0.26725143
0.37490696 0.08432727 0.07798979 0.6758683 -0.55474585 -0.08640327 -0.5092078 0.107652694
-0.69715685 -0.1405765 0.4001386 0.45830902 -1.0455326 0.17299448 0.3361682 -0.38660172
-0.012904751 -0.34163123 -0.13975884 -0.19570886 0.395119 0.3231286 0.021598164 0.71395516
0.3043011 0.099426284 0.13516107 -0.580252 -0.05788467 -0.19764571 0.39245823 -0.7651097
0.6861621 -0.4609159 -0.57762796 0.4955018 -0.4893293 0.08102318 0.16516186 0.7101585
0.098608546 -0.7431661 -0.50384635 -0.28581604 -0.45205194 -0.58223224 -0.4145451 -0.015167294
0.123342894 0.24580874 0.3479193 0.23059185 -0.21280341 0.2824295 -0.392175 0.40109423
0.2299987 -0.49778405 0.3196369 0.1181188 -0.5567165 0.5074967 0.08190837 0.81251967
-0.16451414 -0.50462425 0.101546615 0.899157 -0.18991491 -0.27930304 0.15409617 0.36200526
-0.3704463 0.0046553514 -0.90674436 0.3361136 0.4281098 -0.27769753 -0.29799175 0.38259304
-0.26703617 0.27294585 0.5035622 0.08879056 -0.40641278 0.40006214 0.15243354 0.33615464
0.28828958 0.46886206 0.3393568 -0.4454557 -0.5083601 0.10004399 -0.5272169 -0.34539378
0.2751206 -0.88781935 -0.36014944 -0.44966248 -0.038213015 0.15380104 0.16376027 -0.12160332
0.28523615 -0.12095361 -0.23625438 -0.33752868 0.6943478 0.650394 -0.5578774 -0.23263527
