Physics_Informed_Hydrogen_FGM/TrainedMLPs/PIML/CP/W_6.npy (npy, 2048 bytes, 1 tensors)

array f4 [24, 20]
000000 bb f3 83 3d 0f 70 95 bc 45 56 45 be 67 98 3a bd
       0.06442972 -0.01824191 -0.1927119 -0.0455555
000010 fb 67 3d be 74 11 63 3c d6 73 e9 3e ab 7b 87 3d
       -0.18496697 0.013859142 0.45596188 0.06615385
000020 3f 74 03 3e b0 aa b6 bc 7f 15 39 bf c0 0d 04 bd
       0.12837313 -0.022298187 -0.72298425 -0.032239676
000030 03 5b d0 be a7 47 32 be 3e cb 25 3d 9d 1b d9 be
       -0.40694436 -0.17410146 0.04047703 -0.4240388
000040 4d b1 0e 3f a2 c4 28 3d 7f ea 04 be a9 6d 10 3f
       0.5573929 0.04120315 -0.12980078 0.5641733
000050 70 bf c3 bc 39 17 99 3e 2d 79 71 ba fc c1 52 bc
       -0.023894995 0.2990053 -0.0009211477 -0.012863632
000060 67 9d 07 be be 09 84 be bc 2c f0 bc 53 8c 80 3c
       -0.13243638 -0.25788683 -0.029318206 0.015691912
000070 d9 ef 1b 3e dd 92 ce be 5b 44 4e be 91 45 5f bd
       0.15228213 -0.40346423 -0.20143263 -0.054509703
000080 49 87 af 3e 5b 1f f8 3e eb 52 68 be ec 3b a9 be
       0.34282902 0.48461422 -0.2268788 -0.3305353
000090 0c 6d 90 3e 85 99 2e 3e 55 fb 72 be 49 4b ce be
       0.28208196 0.1705075 -0.23728688 -0.40291813
0000a0 03 6f ca 3d 02 95 eb 3c 8f 50 9f 3e ae 94 79 be
       0.09884455 0.028757576 0.3111615 -0.24373123
0000b0 83 c7 f7 3d e2 82 9e be 70 61 0d 3f ce ad b1 be
       0.12098601 -0.3095923 0.552268 -0.34702915
0000c0 bf 10 56 bc 5e da 2f bf 10 f7 dd be 58 d4 9a be
       -0.013065516 -0.68692577 -0.43352556 -0.3024013
0000d0 f7 92 58 3e 1e b8 ea 3e a4 b8 7d 3e b6 71 98 3d
       0.21149813 0.45843595 0.24777466 0.07443564
0000e0 e8 13 20 3f 42 8a 99 3e 35 11 dc be cf c7 fd 3e
       0.62530375 0.29988295 -0.42981878 0.49566504
0000f0 70 63 5c be 9d d2 5d bc b8 af 93 be 24 d9 de 3e
       -0.21522307 -0.013538984 -0.28845 0.4352504
000100 56 a2 60 bd 58 4e 1c 3d ce df f5 be 42 48 b4 3d
       -0.054842316 0.038160652 -0.48022312 0.088028446
000110 18 c9 2a be a1 50 24 be ce 18 75 3e 55 46 85 bd
       -0.16678274 -0.16046382 0.23935243 -0.065075554
000120 45 9d 9d 3e 45 b6 1b 3e f7 80 9e 3e f6 17 6e be
       0.3078405 0.15206249 0.30957767 -0.23251328
000130 aa b5 09 3d 7c 1e 93 be 00 ea d3 bd 97 1a 86 be
       0.033620514 -0.28734195 -0.10347366 -0.2619216
000140 08 cd 30 bd 32 12 dd be 3a c4 05 be 26 2d e9 3d
       -0.043164283 -0.43177944 -0.13063136 0.113855645
000150 08 31 b0 be 21 3e 76 3d c0 c1 00 3f 1a 2a e8 be
       -0.34412408 0.060117844 0.5029564 -0.4534462
000160 5d db dc 3d 39 5d b1 3e 93 ea 10 3d d1 91 66 3d
       0.10784028 0.34641436 0.035379957 0.056291405
000170 d0 18 dd 3e ce 66 bb 3e f8 02 34 3e 04 87 b5 be
       0.43182993 0.3660187 0.17579257 -0.3545457
000180 8f f5 d6 be 72 93 88 3d db c5 9b 3e 02 65 b3 3d
       -0.4198422 0.06668748 0.3042439 0.087595
000190 78 b5 32 be 32 cd b5 be 28 2e 03 bd 88 c1 13 3f
       -0.17452037 -0.35508114 -0.03202644 0.5771718
0001a0 e7 9e c4 be d8 94 90 bc 91 3e 5f 3f 60 18 11 3d
       -0.38402483 -0.0176491 0.87204844 0.035423636
0001b0 9e d1 85 be 8e be a8 be 7d f1 2d bf 54 11 e1 be
       -0.26136488 -0.32957882 -0.67946607 -0.43958533
0001c0 e1 21 1b 3e 09 05 2e 3f cd 54 38 3d 3d 35 1b bf
       0.15149643 0.67976433 0.045002747 -0.6062811
0001d0 91 de 3e 3f f9 cb 4e be b9 4c a7 3c 90 f0 3f 3f
       0.7455836 -0.20194997 0.020422326 0.74976444
0001e0 cf 6b 04 bd d0 25 3f bc d2 91 68 be d7 85 ee 3e
       -0.032329377 -0.01166673 -0.22711876 0.46586487
0001f0 72 6f 66 be 1c c7 d1 bd e0 f2 04 be 81 a1 9c 3e
       -0.2250345 -0.10243055 -0.12983274 0.30591968
000200 56 c3 f8 3d c1 1b a0 3e 8d bf d1 3e 9e fb 81 be
       0.121466324 0.31271175 0.40966454 -0.2538728
000210 bb d0 a0 bc 5c 5d dc bc 17 12 c3 3d 87 0f 5d 3f
       -0.01963078 -0.026899986 0.09524935 0.8635182
000220 49 34 a2 3d d0 c0 99 be 03 cd 70 be 54 62 ad 3d
       0.07920129 -0.30029917 -0.23515706 0.0846602
000230 e1 e6 f1 3c 97 11 55 be 1f 3a 52 bd da b4 aa be
       0.029529037 -0.20807491 -0.05132496 -0.33341104
000240 51 a4 62 be 3b de 95 3e e2 b4 38 be 4f 25 54 3e
       -0.22132994 0.2927111 -0.18037751 0.20717357
000250 0f 58 dd bd 6d f4 e4 3e f9 68 03 bf 18 b0 e0 bd
       -0.108078115 0.44717732 -0.5133205 -0.10971087
000260 68 41 9d be 5d a9 d4 3d 54 b2 7d 3e f6 2e 25 bf
       -0.30713964 0.10383866 0.24775058 -0.6452478
000270 50 90 33 3f b5 98 80 bd 10 55 b0 3e 1e be d6 be
       0.7014208 -0.062791266 0.34439898 -0.41941923
000280 bb 34 80 3c 58 e3 5e 3e a9 36 e3 bd 6a 8c ca bd
       0.015650144 0.21766412 -0.1109441 -0.09890063
000290 cb b5 a9 be 49 5a 2c 3e e3 2e ff 3d 16 60 de 3e
       -0.3314651 0.16831316 0.12460115 0.43432683
0002a0 03 d3 e0 3c b4 db d5 be 5b 3b 3a bf 74 9e 17 be
       0.027444368 -0.41769183 -0.7274682 -0.14806539
0002b0 a5 f5 74 3e c1 ad 87 be 96 ea 15 be 01 8a 51 bf
       0.23921831 -0.2649975 -0.14640269 -0.818512
0002c0 08 13 e0 3b dd 69 6d bd bc d3 2d 3e af c3 c0 bd
       0.006838206 -0.057962287 0.16975302 -0.09412324
0002d0 bd 09 d3 b9 ae 08 04 bf 86 d1 a7 3c 3e 19 12 3e
       -0.00040252312 -0.51575744 0.02048565 0.14267442
0002e0 1d 1c c2 3e 89 a9 37 bd 61 dc 7a 3d 2d 3f a3 3e
       0.37912074 -0.044839416 0.061245326 0.31884137
0002f0 5d cb 01 3d 6a e9 5c be 53 6d c9 be a0 11 c4 be
       0.031688083 -0.21573415 -0.3934122 -0.38294697
000300 49 48 b1 bd 92 ac 06 be b3 7e 19 3d 0e 6e 28 bf
       -0.086563654 -0.13151768 0.037474345 -0.6579293
000310 ba 9e 3c 3d bc 06 af 3b 10 7b 3d bd d7 b8 99 3a
       0.04604981 0.005341379 -0.04625994 0.001172806
000320 3b b0 17 bd fc a5 47 bc 36 2d 00 3e 76 61 9b 3e
       -0.0370333 -0.01218557 0.12517247 0.30347794
000330 d4 d5 8e 3e 6c 12 83 3e 7b 98 13 3f 05 41 7d be
       0.27897513 0.25599992 0.5765454 -0.24731834
000340 a4 87 1f 3e 3e 45 f5 be 95 1a 8b be 01 72 c9 bd
       0.15579087 -0.4790439 -0.27168718 -0.09836198
000350 56 83 61 bc 50 0b de be f4 57 45 3f 9e 22 5f be
       -0.013764223 -0.43368006 0.7708733 -0.21790549
000360 e0 8a 1d 3f 2f e5 1c be a9 f3 9b 3d 6d ad 56 be
       0.6154003 -0.15321802 0.07614834 -0.20964594
000370 17 84 55 bd 4e 7d 0d bf 63 dd e1 bd 49 72 ae 3e
       -0.052127924 -0.55269325 -0.11028554 0.34071568
000380 65 b0 5c be a3 1c fb bd 5e 7b ef 3d 6d d6 b5 3e
       -0.21551664 -0.122613214 0.11693452 0.35515156
000390 60 24 43 3e 6d 27 a5 be 3e 55 17 3f 55 2a cd bd
       0.19056845 -0.32256642 0.59114444 -0.1001784
0003a0 94 d2 1d bd fc c9 fa 3e 57 1f 34 bf 72 df cd 3d
       -0.0385309 0.48982227 -0.7036032 0.100523844
0003b0 8a 8c d7 be 50 3d 33 be 53 74 fa bd 5a 61 35 bf
       -0.4209941 -0.17503858 -0.12229218 -0.7085167
0003c0 d1 fc 11 bd b1 5f 3c 3e 93 96 64 bd 59 03 63 be
       -0.035641495 0.18395878 -0.05580766 -0.22169246
0003d0 3f 48 b1 be 13 27 6a 3e 7f 00 85 be 28 f3 d9 be
       -0.34625432 0.22866468 -0.2597694 -0.42568326
0003e0 97 8d aa be 60 3e c0 3e 5a a4 a4 be cf 7a 6e 3e
       -0.3331115 0.37547588 -0.3215664 0.23289035
0003f0 9d 44 f4 be b7 5a 1c bc 95 a2 4a 3e ba 55 9f bc
       -0.47708598 -0.0095431125 0.19788583 -0.019450057
