Chapter4:HPOptimization/TrainedMLPs/WRP/Group4/W_4.npy (npy, 4208 bytes, 1 tensors)

array f4 [34, 30]
000000 e4 4c 8a 3e 1a b0 d5 bd d9 95 81 bf 8e 59 2a bf
       0.27011788 -0.10433979 -1.0123855 -0.665429
000010 a7 e8 7b 3e 67 6f 12 be ca a8 90 bc 91 c5 d8 be
       0.24600469 -0.14300309 -0.01765861 -0.4233823
000020 04 ca 01 3f dc c0 b0 be 00 74 54 3f ec 5e a7 be
       0.50698876 -0.3452214 0.829895 -0.32689607
000030 41 2f 1e 3e 35 f0 86 be e8 05 a0 be 22 2a d9 3d
       0.15447713 -0.26355138 -0.31254506 0.10603739
000040 b1 13 bb be f0 4f 1f 3e 3f 3a 88 bf 13 8d 28 bf
       -0.3653846 0.15557837 -1.0642775 -0.6584026
000050 8c 71 81 3e 10 f3 95 be 7a ff 16 3f 4c 65 5d bf
       0.25281942 -0.29287004 0.58983576 -0.8648269
000060 e3 31 20 3f ea 1c 4e be 8d 48 9c 3e 65 33 18 be
       0.6257612 -0.20128217 0.30524102 -0.14863355
000070 13 0e c3 be 8c 55 98 bd b7 94 3b 3f 8c f6 33 bf
       -0.38096675 -0.07438192 0.73273796 -0.70298076
000080 41 0d 7e 3e da 66 83 be ee 8f de be 84 c8 48 3e
       0.24809743 -0.25664407 -0.43469185 0.1960774
000090 da d6 87 3e e4 53 00 be 0c 9b 1c 3f 1a 9e a0 3e
       0.26531106 -0.12532002 0.6117408 0.31370622
0000a0 c7 66 98 3e f6 9e 7d 3e da 3f d8 be 41 4a 46 3f
       0.29765913 0.2476767 -0.42236215 0.7745705
0000b0 87 33 9c 3e dc e9 82 3e ca 94 24 3e 56 d0 54 be
       0.30508062 0.25569046 0.16072384 -0.20782599
0000c0 ad c5 1e 3e 20 bb ed bd 12 55 a0 bc 4f 1d 81 3d
       0.15505095 -0.11607957 -0.019571815 0.06304418
0000d0 c4 d8 ca 3d ad 3f 28 bd 5b c8 83 bc 5a b9 26 3f
       0.09904626 -0.04107635 -0.016086748 0.65126574
0000e0 00 a2 8f be 96 f4 6f 3e 2c b9 54 be 73 d4 8f bb
       -0.28053284 0.23433146 -0.20773762 -0.0043893396
0000f0 52 f1 cf bc 15 6b 5e 3f 54 a6 44 3d f6 28 74 3e
       -0.025383625 0.86882144 0.048010185 0.2384375
000100 79 bb 83 bf 92 85 f8 be 77 03 87 be 53 0e 33 3f
       -1.0291587 -0.48539406 -0.2636983 0.6994373
000110 21 3a 94 be e3 13 b1 bc 24 e7 04 3f 10 bd 7b be
       -0.289506 -0.021615928 0.5191519 -0.2458384
000120 75 06 88 3e d3 59 dd be 84 78 56 3e dd ec 5b 3e
       0.26567426 -0.43232593 0.2094441 0.21477075
000130 54 4c 39 3e c2 f6 37 3f 7a 13 eb bd ec 5d 0d 3e
       0.18095523 0.718609 -0.11478324 0.1380536
000140 3a 0a 83 3f 95 5d 6c bf 7c f1 44 3e 0e c4 a2 3e
       1.0237496 -0.92330295 0.19232744 0.31790203
000150 4c 92 c8 bc 7c 9d a0 3e 4b d3 dd bd 70 0d 35 be
       -0.024483822 0.3137015 -0.108313166 -0.17680907
000160 18 7c e0 3b b8 f2 12 3f c4 d7 b9 bd 09 26 b5 3e
       0.0068507306 0.5740161 -0.09074357 0.3538058
000170 b7 6a 83 3f 27 2c 16 3e 2b c6 a9 be 55 df 31 bf
       1.0266942 0.1466528 -0.33159003 -0.694814
000180 12 2c 66 3e 96 60 d9 3e 0a 0f 88 3d ff 54 d5 3d
       0.22477749 0.42456502 0.066434935 0.10416602
000190 7c 5c 53 bf 93 46 d6 bd 9b fc d0 3e d9 fa 1d be
       -0.82562995 -0.1046268 0.40817723 -0.15427722
0001a0 dc 69 bd be e5 61 31 3e f6 7c 64 be 08 3a 1f bf
       -0.36994827 0.173225 -0.22313294 -0.62197924
0001b0 79 ed 5b be 27 29 02 3f 79 d8 2e bf ff 29 b8 be
       -0.21477307 0.50844043 -0.6829906 -0.3596954
0001c0 ab 71 86 bf fd 35 c4 3e 7c 54 bf bc 4b 16 0d bf
       -1.0503439 0.3832244 -0.023355715 -0.5511214
0001d0 81 8f 39 bd c9 f7 e5 be 12 5b 06 3e f9 1c 10 3e
       -0.04530287 -0.44915608 0.13120678 0.14073552
0001e0 79 99 80 3e e2 f1 11 3f 80 84 4e 3f 7e 2c 03 3f
       0.2511709 0.5700971 0.8067093 0.51239765
0001f0 0e 00 fb be 5f 9f 91 3e 36 a2 90 bd 31 8a 82 bd
       -0.4902348 0.28441903 -0.07062189 -0.06374014
000200 07 96 57 3e 9c 5b 41 3e 10 5e 1a be 32 57 59 3f
       0.21053325 0.18882602 -0.15074944 0.84898674
000210 d9 12 97 3e af d6 27 bf 9c fa fa bd a6 b0 0b be
       0.29506567 -0.65561956 -0.12254831 -0.13641605
000220 b7 9f cb bd a9 77 db be 11 7e 3b 3f 8b 5b 08 3f
       -0.099425726 -0.4286473 0.7323924 0.53264683
000230 5b c6 54 bf 12 83 56 be c2 87 b6 3d bd 23 2c be
       -0.83115166 -0.20948437 0.089126125 -0.16810508
000240 ef 84 98 3b b5 15 0c be 96 9a 03 3e c0 1d 73 bf
       0.004654519 -0.13680156 0.12851939 -0.9496727
000250 f9 d7 31 3f 5e 8d 95 3d 79 1d 32 3f 10 8e da be
       0.69470173 0.07302354 0.6957622 -0.4268651
000260 d2 46 ad bd 4f d3 7d be 4a bf e2 3e e3 72 b0 3e
       -0.084607735 -0.24787639 0.44286567 0.34462652
000270 1a 54 a0 bc c9 d2 20 bf 00 63 bd bd 3f 61 dd bd
       -0.019571353 -0.6282163 -0.092473984 -0.10809564
000280 43 fa f9 bd 37 eb 6e be 3f 16 02 3f b4 54 a9 3e
       -0.12205937 -0.23331915 0.50815195 0.33072436
000290 15 67 a4 3e 2c d7 72 3d df 17 0f bf d1 79 a3 be
       0.32109895 0.059287235 -0.558958 -0.31928876
0002a0 16 04 39 3f fb e2 c0 3d 0e ec b3 be d2 45 a5 3e
       0.7227186 0.09418293 -0.35141033 0.3227983
0002b0 18 cc b0 be 5d d4 6d 3e b0 0d ee 3e 6b 4f 38 3d
       -0.3453071 0.23225541 0.46494818 0.044997614
0002c0 94 0d 53 bf 80 fd 54 bf 4b 23 1f be b0 12 fa be
       -0.82442594 -0.8319931 -0.15540807 -0.48842382
0002d0 4f 53 fe be 83 c1 f6 be f7 03 16 bd e5 73 31 be
       -0.49672934 -0.48194513 -0.036624875 -0.17329367
0002e0 19 30 27 be 6a 46 01 be 34 b1 e3 3e fb ee cd be
       -0.16326942 -0.12624517 0.44471133 -0.4022139
0002f0 2a 00 e8 3d b0 74 de be f4 88 2b be e9 48 1a bf
       0.11328156 -0.434484 -0.16751462 -0.602675
000300 7a b2 28 be cc 0a 64 3c 63 3f 4f 3e da 23 1f 3e
       -0.16474333 0.01391859 0.20239024 0.1554102
000310 d2 7f d7 be 2f ad fe 3d ca 0e bb be 7e c2 a8 be
       -0.42089707 0.12435376 -0.3653472 -0.32960886
000320 bc 9f 41 bf 74 d5 23 bf 04 17 32 bf 74 96 4d be
       -0.7563436 -0.6399758 -0.6956637 -0.20076925
000330 a0 ee 33 be 3f d6 85 3d ab 3d 13 3f b1 bc 11 be
       -0.17571497 0.06535005 0.5751597 -0.14232136
000340 eb dd 5a 3d 42 e5 83 be 1c e6 9d 3e 71 4d fe 3d
       0.053434294 -0.25760847 0.30839622 0.124171145
000350 ad 85 f3 bf d4 91 a1 bf 42 49 32 be a8 c0 c3 3d
       -1.902517 -1.2622628 -0.17410758 0.09558231
000360 8e 14 5c be 71 bb 32 bf 4a ee 6e bd 3a 17 9f be
       -0.21492216 -0.6981726 -0.05833272 -0.31072408
000370 4f 8a 47 3f 1d fb 87 3e a8 da 8d be 38 aa c8 bf
       0.7794542 0.26558772 -0.27705884 -1.5676947
000380 8c 93 0b be 49 f0 32 bf 8a 4f 27 c0 c9 15 c7 3d
       -0.13630503 -0.69897896 -2.6142297 0.09720952
000390 d3 86 4f be f6 e4 ba be ea fa bb be fa 4c 46 3e
       -0.20266275 -0.36502808 -0.3671487 0.19365302
0003a0 a5 11 b8 bf d6 44 57 bf a5 a4 3a 3e 8f ab 9d be
       -1.4380385 -0.8408941 0.1822687 -0.3079495
0003b0 58 35 03 be 1c 49 d4 be 39 be 56 bf c5 aa fc 3e
       -0.12813318 -0.41462028 -0.83884007 0.49349037
0003c0 08 12 67 bf 55 6c 47 bf ec 1b f3 3d 88 6f 6c bf
       -0.9026189 -0.77899677 0.1187056 -0.92357683
0003d0 cb c3 ac 3d 2e db 0d be b2 08 ca 3d 9d 93 86 bd
       0.08435782 -0.13853142 0.0986494 -0.06571124
0003e0 c5 86 01 bf 73 0c 7e bf ab 9a 43 be 13 23 a9 be
       -0.50596267 -0.99237746 -0.1910197 -0.33034572
0003f0 c3 64 77 3e 79 93 b0 be 8b c3 19 3f 18 72 cd be
       0.24159531 -0.34487513 0.60064 -0.4012611
