Chapter4:HPOptimization/TrainedMLPs/WRP/Group4/W_6.npy (npy, 2048 bytes, 1 tensors)

array f4 [24, 20]
00000000: e035 c63e 705b 65be 503e e7be 826a 18bf
00000010: 7b9d 0fbf c44f 63be b9a3 983e ebc4 8f3f
00000020: 1162 34bd 4e11 debe 5089 57be 0ece 52bc
00000030: 6c0b 77be a854 79bc 6830 a4be 8f36 0e3e
00000040: bb0e 4fbe b1ec a93e 2bf2 bbbe 1802 db3d
00000050: 0954 0f3f 87ac 9cbe 6481 dd3e 81e7 883d
00000060: bcfc c8bd 856c 27bf 77f7 643e e5c6 0bbf
00000070: 75d3 583e 7256 32bf 284f d9bc 486a de3b
00000080: 1361 81be 994f 34be cad4 f13d c598 3f3e
00000090: 22fc aebf 2392 953f 9ccf b83a ee7d 5cbf
000000a0: dbe0 91be 0a3f 6f3e 8344 c03e a3fb de3e
000000b0: b7ba afbd 4265 e03e 1fea 843e 2c8e 313f
000000c0: 7f9d 053f 7f74 aa3e 85bc 463f 9b83 2fbc
000000d0: ca78 05be e5ad 08be 856c 2e3e 51dd ebbd
000000e0: af0c 09bd e9bb 433e 7ed3 883e 1705 25be
000000f0: 0bfe 103f d79d a5be cd05 0cbe 3612 853e
00000100: 2500 acbe 4967 823c 6f1b 17bf f717 1b3f
00000110: eeee 883e ea36 e73e 937a 7cbe 755c 18bc
00000120: 69d4 343e 17f5 143e 40e2 19be 624a 23be
00000130: bcf1 95bf 0178 9d3f 272b 673e 7a54 0dbf
00000140: 2f6c 083f 1498 7c3d 6502 61be 79f6 98be
00000150: c462 c8be c483 93bf a002 57bf d6a1 debe
00000160: 0ec5 fdbe 7e2c 74be 818c 1bbc 1b07 78bc
00000170: c0a1 63be 0aba 1c3e d6b0 9b3e 4965 843d
00000180: 5a90 14be 73da 8e3e 7ae1 90bd b60f 9e3e
00000190: d7d6 08be 1ffd 2e3f ce80 153e 0862 ca3e
000001a0: 64d1 d83e 46b5 283e 1a8b bb3e 71f0 16be
000001b0: a15c b6be e0e6 1a3f 7989 d03e 4243 02bd
000001c0: ed20 71bc 3430 883e 2c24 3a3e 0616 bbbe
000001d0: 5643 babe 4a2a 993e 7ef6 da3e 9140 543e
000001e0: a1ca 06bf 404a ccbd c2cc 66be 353f 22be
000001f0: 5c8c 46be 70fb 62be b8f8 1fbd 73d5 19bf
00000200: 2156 a5bd 388c 92be daaf 49bd 6f90 afbb
00000210: b9c4 e83e ff14 19be 96fe d63e 44b7 b3be
00000220: 100c a7bd c5de c8be 76ae dabd 6ea3 76be
00000230: ec47 61bd 06d9 753f 3412 bb3e d9f8 ce3e
00000240: ba7c 4a3b 2339 643e f8c8 263c 5ae3 e3bd
00000250: 3e78 283f bed7 c93d 27a8 393f 3836 c13c
00000260: 9929 2b3e cdcf 54be 197a d4be 80a3 6dbe
00000270: f6d2 0c3f 93ca 9c3f 2b63 793f c0af 43be
00000280: 9551 a93d e709 eb3d f23a 81be 9d37 40be
00000290: 66fd dc3d 2975 0b3f ab8f 63bd 615c b73e
000002a0: 1a98 5fbd cb48 2dbe f6f9 8dbe 64da f53b
000002b0: 451c 813e c530 bb3d 585a abbe 6172 0ebd
000002c0: 8e31 94bf 7b4c f53e 29c1 91be 71b9 453e
000002d0: bcb3 c83e 76d7 3e3e 09f7 4bbd 854d 49bf
000002e0: 4fad 0a3f 2a51 4cbe 4c04 b53e 4814 0f3f
000002f0: fae8 423f f0c6 ad3e a907 62bd 6b2c 47bd
00000300: 5d78 123d 1284 003e ae0b 673e 91a0 5cbe
00000310: 3c05 123f 89d8 27bf af95 c93e d169 4d3f
00000320: 7598 d23d 6b7e b2bd 4f02 63bf fdc2 5fbf
00000330: 2a9e 09be bbde 85be 5c20 dbbf f103 46bf
00000340: 56ea 23be f591 5a3e 163a 35be 59e4 313c
00000350: 94e3 e0bd bfc1 0ebe ea48 063e a789 f1bd
00000360: 55fe 08c0 b1f6 b4bd 4a12 a7bd 7cc7 6a3d
00000370: 8d3f 84be f42d fdbd 959e 47bd 2eec 113f
00000380: de0a 9c3e 3bc5 183e d498 04bf d344 443f
00000390: d812 123b f0f4 a4bd 06ad d63e 6685 6f3c
000003a0: 36ae e2bc d851 9abe 4105 3bbe 43d1 1c3e
000003b0: 6c60 b33e a7ad 803e f01d 0fbe f1a6 5ebf
000003c0: ffeb 693e 01ff d1be 6dfb ef3e 0e2f 643f
000003d0: cbe9 ef3d 781c 293f c854 bf3c 6c64 c5bd
000003e0: cb65 2a3d 4af8 633e f191 97be 2240 063c
000003f0: 9f83 8a3d f59f 3dbe 50d7 4f3e 14b6 32be
0.38712978 -0.22398162 -0.45164728 -0.5953752 -0.5609967 -0.22198397 0.2981241 1.123197
-0.044038836 -0.43372577 -0.21048474 -0.01286651 -0.24125451 -0.0152179375 -0.3206818 0.13888
-0.20220463 0.33188394 -0.36708197 0.10693759 0.559876 -0.30600378 0.4326278 0.06684781
-0.0981383 -0.6539996 0.22360025 -0.54600364 0.21174414 -0.69663155 -0.026527002 0.006787572
-0.25269374 -0.17608489 0.118081644 0.1871062 -1.3670695 1.1685222 0.0014099958 -0.86129653
-0.28491864 0.23363891 0.3755227 0.4355136 -0.08580535 0.43827254 0.2595987 0.6935756
0.52193445 0.33292004 0.7763141 -0.0107125295 -0.13034359 -0.13347585 0.17033584 -0.11516822
-0.03345936 0.19114651 0.26723856 -0.16115223 0.5663764 -0.32346985 -0.13674088 0.25990456
-0.3359386 0.01591839 -0.59026235 0.6058344 0.2674479 0.45159084 -0.24656133 -0.009299387
0.17659153 0.1454662 -0.15027714 -0.15946344 -1.1714396 1.2302247 0.22575055 -0.55207026
0.53290075 0.06166847 -0.2197357 -0.29875544 -0.39137852 -1.1524587 -0.8398838 -0.43482846
-0.49564403 -0.23845097 -0.009493948 -0.015138413 -0.22229671 0.15305343 0.30408353 0.06464631
-0.14508191 0.2790104 -0.07074256 0.30871361 -0.13363205 0.6835498 0.14599916 0.39527917
0.42347252 0.164754 0.36629564 -0.14740159 -0.35617545 0.6050854 0.40729883 -0.031802423
-0.014717323 0.26599276 0.18177861 -0.3654024 -0.36379498 0.29915076 0.42766184 0.20727755
-0.5265294 -0.099750996 -0.22539046 -0.15844424 -0.1938948 -0.22166228 -0.039055556 -0.6009132
-0.080730684 -0.28622603 -0.04923997 -0.005357794 0.45462587 -0.14949416 0.4199111 -0.35100758
-0.081565976 -0.3923246 -0.10677807 -0.24085781 -0.05500023 0.96034276 0.36537325 0.4042423
0.0030897097 0.22287421 0.010179751 -0.11127348 0.65808475 0.09855603 0.72522205 0.023585424
0.16715087 -0.20782395 -0.41499403 -0.23206902 0.550094 1.2249321 0.97416943 -0.19110012
0.08267514 0.11476498 -0.25240284 -0.18771215 0.107905194 0.5447565 -0.055556934 0.35812667
-0.054588415 -0.169223 -0.27729768 0.007502841 0.2521688 0.091401614 -0.33467364 -0.03477705
-1.1577623 0.47909912 -0.28467682 0.19309022 0.39199626 0.1863688 -0.049796138 -0.7863391
0.541707 -0.19952837 0.3535484 0.5589032 0.76136744 0.3394084 -0.055183087 -0.048626345
0.03575932 0.12550381 0.22563049 -0.21545626 0.5703924 -0.6556478 0.39372012 0.8023959
0.10282985 -0.087155186 -0.886754 -0.87406904 -0.13439241 -0.26146492 -1.711925 -0.77349764
-0.16007361 0.2134474 -0.1769794 0.010857665 -0.10980907 -0.13941096 0.13113752 -0.11793833
-2.1405232 -0.08836115 -0.08157785 0.05731915 -0.25829735 -0.123622805 -0.04873522 0.57001007
0.3047704 0.14918987 -0.517957 0.7666752 0.0022289064 -0.080545306 0.4192888 0.014619207
-0.02767096 -0.30140567 -0.18263723 0.15314202 0.35034502 0.25132486 -0.13976264 -0.8697348
0.22843932 -0.41014865 0.4687151 0.891343 0.11714514 0.66059065 0.023355857 -0.096382946
0.041600984 0.22262684 -0.29603532 0.008194001 0.06763386 -0.1851805 0.20296979 -0.1745227
