Chapter4:HPOptimization/TrainedMLPs/PCA/Group4/W_2.npy (npy, 2368 bytes, 1 tensors)

array f4 [20, 28]
0	0xbe66e8ec	-0.2254979
1	0xbcc1f289	-0.02367522
2	0x3eb0d88e	0.34540218
3	0xbf736f59	-0.9509178
4	0xbe9c9556	-0.30582684
5	0xbc0e097b	-0.0086692525
6	0x3ec9da23	0.39424238
7	0xbe5ed1d8	-0.21759737
8	0xbf91ce00	-1.1390991
9	0xbeec2c1a	-0.46127397
10	0xbd86a13c	-0.06573722
11	0xbf3e5ece	-0.7436341
12	0x3d71bce0	0.059018016
13	0x3e773d65	0.24144514
14	0x3d5d5712	0.054038115
15	0xbf57f070	-0.84351254
16	0xbf407a47	-0.7518658
17	0x3e9f6bf1	0.3113704
18	0x3e417f0d	0.18896122
19	0x3e026854	0.1273511
20	0x3ec1f97c	0.37885654
21	0x3f3d3c46	0.73920095
22	0x3f48ec63	0.784857
23	0xbf094b82	-0.5363084
24	0x3ebe4df6	0.37168854
25	0xbf452432	-0.77008355
26	0x3f05cd4b	0.5226638
27	0xbe811082	-0.25207907
28	0x3ea00c4f	0.3125939
29	0x3ed814e8	0.4220345
30	0xbec04efc	-0.3756026
31	0xbcc292dc	-0.023751669
32	0xbf2f0fc9	-0.6838346
33	0xbe2f9a37	-0.17148672
34	0x3e8c5d8d	0.27415124
35	0x3f1fac65	0.6237243
36	0x3e485c9c	0.19566578
37	0xbe7b08a1	-0.2451501
38	0xbe65e5f6	-0.22451004
39	0xbb641324	-0.0034801448
40	0xbf09dae7	-0.53849643
41	0xbe350894	-0.17679054
42	0x3db20121	0.086916216
43	0xbefe2bb1	-0.4964271
44	0x3e691f16	0.22765765
45	0xbe0f7d55	-0.14012654
46	0xbdd7cde9	-0.10537321
47	0x3e5083c8	0.2036277
48	0x3f096ce3	0.5368177
49	0xbed6d2b7	-0.41957638
50	0x3fa6a639	1.3019477
51	0x3edc4466	0.43020934
52	0xbeb1d6ef	-0.34734294
53	0xbf4554c4	-0.7708247
54	0xbe8cb9c2	-0.27485472
55	0xbefd65fb	-0.49491867
56	0xbe862ae8	-0.2620461
57	0x3ed6453d	0.418497
58	0xbe942e7c	-0.28941715
59	0xbd13c1ca	-0.036073484
60	0x3e786bd5	0.24259885
61	0x3e96b27e	0.29433054
62	0x3e334696	0.17507395
63	0x3f0d179f	0.5511417
64	0x3e1907e8	0.14944422
65	0xbe665ae7	-0.22495614
66	0xbf13bbcb	-0.57708424
67	0xbf6cec13	-0.9254772
68	0x3edc542e	0.43032974
69	0xbe9461e1	-0.28980926
70	0xbebb2eda	-0.36559182
71	0x3e83c613	0.25737056
72	0x3c49237f	0.012276529
73	0x3ead1d9f	0.33811662
74	0x3e64a3a1	0.22328044
75	0xbdaa6c49	-0.08321435
76	0xbe542817	-0.20718418
77	0xbe9f7bd7	-0.3114917
78	0x3ecdfc11	0.40231374
79	0xbe05df7b	-0.13073532
80	0x3f1e81a1	0.6191655
81	0xbf8e4dc1	-1.1117479
82	0xbedcbed7	-0.4311435
83	0x3e86683c	0.262514
84	0xbecc4fda	-0.39904672
85	0xbeccaf8c	-0.39977682
86	0x3daedb4a	0.0853792
87	0xbd6ee2ca	-0.05832175
88	0xbded2731	-0.11579741
89	0xbf717d12	-0.9433147
90	0x3da6fa1c	0.08153173
91	0x3d222f4e	0.039595895
92	0xbe0fc4d8	-0.14039934
93	0xbee17d86	-0.4404108
94	0x3eca84fc	0.39554584
95	0xbe9809e1	-0.29695037
96	0xbf1257a6	-0.5716499
97	0xbe73a731	-0.23794247
98	0xbf6216f6	-0.88316286
99	0x3e16fa86	0.14744005
100	0x3ef7fc56	0.48434705
101	0xbec98792	-0.39361244
102	0xbef5f6cb	-0.4803985
103	0xbdc09ece	-0.094052896
104	0x3ea53791	0.32268956
105	0x3e2c0d27	0.16801892
106	0xbe50c064	-0.20385891
107	0x3e72d6e0	0.23714781
108	0xbd9e981f	-0.077438585
109	0xbf052517	-0.5200972
110	0x3f19cbb2	0.6007644
111	0x3e8223b7	0.25417873
112	0x3f63cf80	0.88988495
113	0xbf04de31	-0.5190154
114	0x3e3c1432	0.18367079
115	0xbeb939b4	-0.36176836
116	0xbfb798f6	-1.4343555
117	0xbe970add	-0.29500476
118	0x3dcb0dbf	0.09914731
119	0xbdd0a8bc	-0.101884335
120	0xbf2ef318	-0.6833968
121	0x3e070365	0.13184889
122	0x3e890e5e	0.26768774
123	0xbecd2bf1	-0.40072587
124	0xbe81fe20	-0.25389194
125	0x3e3dd607	0.18538676
126	0x3efef767	0.49798128
127	0xbf3713f9	-0.7151485
128	0xbf1f3d8b	-0.6220328
129	0x3ea0afb0	0.3138404
130	0x3d78e773	0.060767602
131	0xbd90254d	-0.070383646
132	0x3f74aba1	0.95574385
133	0x3e864650	0.2622552
134	0x3eac0a53	0.33601627
135	0xbf240c17	-0.6408095
136	0x3f0169e4	0.505522
137	0x3f0d064b	0.5508773
138	0x3f42ad15	0.7604535
139	0xbeb57d17	-0.35446998
140	0xbe034630	-0.12819743
141	0x3d7b54b8	0.06136009
142	0x3e1010bb	0.14068882
143	0x3e47e693	0.19521551
144	0x3da4ddd6	0.08050124
145	0x3c9c9378	0.019113287
146	0x3ef4bf19	0.47802046
147	0xbf2bbce5	-0.67085105
148	0x3ebb46d9	0.3657749
149	0xbe8d0a1d	-0.27546778
150	0x3e2b5b04	0.16733938
151	0x3f0c5c2b	0.5482814
152	0xbd1f6b7f	-0.038920876
153	0xbeb73da9	-0.3578923
154	0x3f680403	0.9063112
155	0xbfcd3c65	-1.6034056
156	0xbecf7adb	-0.4052342
157	0xbf79bd25	-0.97554237
158	0x3f2d49ea	0.6769091
159	0xbf4db1ba	-0.80349314
160	0xbe796c41	-0.24357702
161	0xbf49e256	-0.78860986
162	0xbdb9ba7e	-0.09068774
163	0xbdbbd9ad	-0.09172378
164	0x3e7d239d	0.24720617
165	0xbf844401	-1.0333253
166	0x3f3f591b	0.7474534
167	0x3e4a9dd2	0.19786766
168	0x3faf937d	1.3716885
169	0x3dcb40b6	0.09924452
170	0xbed20547	-0.4101965
171	0x3cceb74c	0.025233887
172	0x3acc5cb5	0.0015591594
173	0xbe9fa097	-0.31177208
174	0x3f17f199	0.59353024
175	0xbe9b450b	-0.30326113
176	0x3f30ab6e	0.6901158
177	0xbd887758	-0.06663388
178	0xbf144144	-0.5791209
179	0xbd30f930	-0.043206394
180	0xbd393101	-0.04521275
181	0x3f76fd4e	0.9648026
182	0x3f3d6930	0.7398863
183	0x3e9f18d1	0.3107362
184	0x3f068563	0.5254728
185	0x3e7c62b2	0.24647024
186	0x3db36c9d	0.08760951
187	0x3e3f20ce	0.18664858
188	0xbf00850c	-0.50203013
189	0xbec40327	-0.38283655
190	0xbbd63a4b	-0.006537711
191	0xbd0ef810	-0.03490454
192	0x3fb115c4	1.3834767
193	0x3ecdb752	0.40178925
194	0x3e77218b	0.2413389
195	0x3eb3c76a	0.35113078
196	0xbe9c2b14	-0.30501616
197	0xbed53a7b	-0.4164618
198	0x3e0c6134	0.13708955
199	0xbeca0eee	-0.39464515
200	0xbef75b37	-0.4831178
201	0x3d887700	0.066633224
202	0xbf75726d	-0.95877725
203	0x3ed323cb	0.41238245
204	0xbbc25a29	-0.005931158
205	0xbda9df2a	-0.08294518
206	0x3f06aba3	0.52605647
207	0xbeed937e	-0.4640159
208	0xbea63ae2	-0.324668
209	0xbf12222d	-0.570834
210	0x3ec909f6	0.39265412
211	0x3e24b9d9	0.1608652
212	0xbf2f5ca5	-0.6850074
213	0x3e84535f	0.25844857
214	0xbe0c1eb4	-0.13683587
215	0xbddfd7ea	-0.10929854
216	0x3f25251e	0.6450976
217	0xbeaa3219	-0.33241346
218	0x3f497eb5	0.78708965
219	0xbda0725e	-0.07834314
220	0xbf787782	-0.97057354
221	0xbe2a47f3	-0.16629009
222	0x3ea0f9f1	0.3144069
223	0xbebfe409	-0.37478665
224	0x3f9325f1	1.1495954
225	0x3f10cd0f	0.56562895
226	0xbeb75023	-0.35803327
227	0x3f5fb5d9	0.8738685
228	0xbf9b2210	-1.211977
229	0x3e516793	0.20449667
230	0xbdd8b046	-0.105804965
231	0x3f96f180	1.179245
232	0x3e7238ae	0.23654434
233	0xbf511125	-0.81666785
234	0x3d9e3f01	0.07726861
235	0x3e6376cd	0.22213288
236	0xbf0e56d8	-0.55601263
237	0xbefc6377	-0.49294636
238	0x3f19a5b3	0.6001846
239	0x3f1f0056	0.6210989
240	0xbe5cffaf	-0.2158191
241	0x3eecd60e	0.4625706
242	0x3e3cffb8	0.18456924
243	0xbf786ad7	-0.97038025
244	0x3efbfb6c	0.49215257
245	0xbfbf1dd7	-1.4930981
246	0x3faceea1	1.3510324
247	0x3da41c32	0.0801319
248	0x3fd75319	1.6822234
249	0xbf42fa4e	-0.76163185
250	0xbd9f00c8	-0.07763821
251	0xbebd83fb	-0.37014756
252	0xbe98f522	-0.29874521
253	0x3f1d1a42	0.6136819
254	0xbf631c86	-0.887154
255	0x3e4d3f78	0.20043743
